model/model1.pth (torch, 33608 bytes, 4 tensors)

linear1.weight f4 [256, 20]
0	0x3e2e0fe8	0.16998255
1	0x3dc7da84	0.097584754
2	0xbd441988	-0.04787591
3	0x383cc120	4.5002555e-05
4	0xbdbc5cd9	-0.09197397
5	0xbe11dd02	-0.14244464
6	0x3bb33303	0.0054687276
7	0x3d9a05f6	0.07520668
8	0xbe30d36e	-0.17268154
9	0xbe1ecb5a	-0.1550726
10	0x3e574f00	0.2102623
11	0x3e1c84b3	0.15284996
12	0xbe510a56	-0.20414099
13	0xbdd642ef	-0.10461985
14	0x3e413a61	0.18869926
15	0xbbbbe1ba	-0.005733696
16	0xbe05a361	-0.13050605
17	0x3c6542ef	0.013993009
18	0xbde4f4f3	-0.11179533
19	0xbe67987d	-0.22616763
20	0xbdd4b969	-0.10386927
21	0xbded4a07	-0.11586385
22	0x3d850bf5	0.06496421
23	0x3d4797c6	0.048728727
24	0x3b848bd4	0.004044989
25	0xbd5675e7	-0.052358534
26	0xbca8a6fb	-0.020587435
27	0xbe5146ed	-0.20437212
28	0x3e0f08c7	0.13968192
29	0x3d0bc9c4	0.034127966
30	0x3d578279	0.052614663
31	0x3e42a6c4	0.19008929
32	0x3e0b6578	0.13612926
33	0xbdff73b0	-0.124732375
34	0x3df4a6a6	0.11945848
35	0x3ba0d627	0.0049083414
36	0x3e351682	0.17684367
37	0xbe4628cb	-0.19351499
38	0x3e759ac4	0.2398482
39	0x3d0063c1	0.031345133
40	0xbdb56fbf	-0.088592045
41	0xbd154d7f	-0.03645086
42	0x3e839822	0.25702006
43	0x3e182cd9	0.14860858
44	0xbde28391	-0.110602506
45	0x3e6aaaf1	0.22916771
46	0xbe3e129b	-0.18561785
47	0x3da8b4f5	0.0823764
48	0xbe5c7345	-0.21528347
49	0x3da0bc21	0.07848383
50	0x3d6f21ca	0.058381833
51	0xbda2b955	-0.079455055
52	0x3b9d6742	0.004803569
53	0x3e04c3c8	0.1296531
54	0x3e28edde	0.16496989
55	0x3d67e273	0.056612443
56	0xbe704ada	-0.23466054
57	0x3e0f0778	0.13967693
58	0x3e32e493	0.17470007
59	0xbdf50c02	-0.11965181
60	0xbd98a998	-0.074542224
61	0x3daecb5c	0.085348815
62	0x3dc272c8	0.09494549
63	0xbdc5caab	-0.096577965
64	0xbc1108ed	-0.008852226
65	0xbdb4d7a8	-0.08830196
66	0xbd9522e2	-0.07282044
67	0x39c6bd58	0.00037906575
68	0x3dde648d	0.10859022
69	0xbc413fa9	-0.011794963
70	0xbd5aef7e	-0.053451054
71	0xbde3e119	-0.11126918
72	0x3d8af54a	0.067850664
73	0x3d25d488	0.04048589
74	0x3d8e4555	0.06946818
75	0x3d8b1bfd	0.06792448
76	0x3dba23c8	0.09088856
77	0xbdb49952	-0.08818306
78	0x3eaf2ab9	0.34212282
79	0x3e88f1fb	0.26747116
80	0xbc809b3d	-0.015699023
81	0x3d1a1ccd	0.037625123
82	0xbe0364dc	-0.12831444
83	0xbe1d4a2e	-0.15360329
84	0x3c3983e2	0.011322947
85	0xbda5d28c	-0.08096799
86	0x3db532d5	0.08847586
87	0x3cce707b	0.02520012
88	0x3de332b6	0.11093657
89	0x3e1a71ff	0.15082549
90	0xbdae3fb0	-0.08508241
91	0xbd0d6037	-0.034515586
92	0x3db729ea	0.08943541
93	0xbe11d3ec	-0.14240998
94	0x3d2503ce	0.04028683
95	0xbe15cc7f	-0.1462879
96	0xbddbb1ed	-0.10727296
97	0xbdfdcc0b	-0.12392434
98	0xbe404214	-0.18775207
99	0x3c948e59	0.018134283
100	0x3dbf4237	0.09338801
101	0xbe2c1d2d	-0.16808005
102	0x3e16dfdb	0.14733832
103	0x3de705b1	0.112803824
104	0x3e1a6f16	0.15081438
105	0xbc963a53	-0.018338358
106	0x3e6e616f	0.23279355
107	0x3e11cadd	0.14237542
108	0x3d79492b	0.060860794
109	0x3daa4355	0.08313624
110	0x3ea8d595	0.3297545
111	0x3e3bdec7	0.18346702
112	0xbe42bd50	-0.1901753
113	0x3e482af8	0.19547641
114	0x3de0d46c	0.10978016
115	0x3d1721bf	0.036897417
116	0x3db08945	0.08619932
117	0xbcc2a30e	-0.023759391
118	0x3e12e960	0.14346838
119	0x3d944ee3	0.07241609
120	0xbe841d31	-0.2580352
121	0xbe1acecb	-0.15117948
122	0x3e493aad	0.1965129
123	0xbe093fe6	-0.13403282
124	0xbe3d70ba	-0.18500033
125	0x3e82e742	0.2556706
126	0x3d48aed6	0.04899486
127	0x3b87baad	0.0041421265
128	0x3cd35578	0.02579759
129	0x3e0bcee3	0.1365314
130	0xbe47f5b9	-0.1952733
131	0x3ccf7cb3	0.025328016
132	0xbe074b04	-0.1321221
133	0x3e7ee3cc	0.24891585
134	0x3e4da73a	0.20083323
135	0xbe59a285	-0.21253403
136	0x3de91240	0.11380434
137	0x3e61c053	0.22046022
138	0xbdc029d2	-0.093829766
139	0xbe2bf68d	-0.1679327
140	0x3d2630b0	0.040573776
141	0x3c919202	0.017769817
142	0xbc2275fa	-0.009915823
143	0xbcc79079	-0.024360882
144	0x3da2c523	0.07947757
145	0x3e0857aa	0.13314691
146	0x3c21525c	0.009846296
147	0xbd48c4bf	-0.049015757
148	0xbcc664b8	-0.024217948
149	0xbde77557	-0.11301678
150	0x3c8d8751	0.017276438
151	0x3e2e2305	0.17005546
152	0xbde6a3a9	-0.112616844
153	0x3d2a5167	0.041581538
154	0xbd408a0e	-0.04700666
155	0xbe45d576	-0.1931971
156	0xbd7a1143	-0.06105162
157	0xbde836ab	-0.11338552
158	0x3e77945b	0.24177687
159	0x3e15d3cc	0.14631575
160	0x3e0c897d	0.13724323
161	0xbdbf4ea9	-0.09341175
162	0x3e140c1f	0.14457749
163	0xbdc39541	-0.09549952
164	0x3dacef98	0.084441364
165	0xba2623be	-0.00063377235
166	0xbd9c77bc	-0.07640025
167	0x3dbd17b9	0.0923304
168	0x3c0ec1b5	0.008713176
169	0xbe873405	-0.26406875
170	0x3be16998	0.006879043
171	0xbc6693a4	-0.014073286
172	0x3de2745b	0.11057349
173	0x3e27f112	0.16400555
174	0xbd4ec18e	-0.050477557
175	0x3dd4eef1	0.10397137
176	0x3e12922f	0.14313577
177	0x3c47fce8	0.012206294
178	0x3d07723e	0.033067934
179	0x3e880457	0.2656581
180	0x3e01afcc	0.12664717
181	0x3dca5395	0.09879223
182	0x3e1380c2	0.14404586
183	0x3dc227ca	0.094802454
184	0xbdc152a1	-0.09439588
185	0xbe2ec275	-0.17066367
186	0xbe2660f4	-0.16247922
187	0x3d25bdc0	0.040464163
188	0xbe3b8638	-0.18312919
189	0xbe39b9f9	-0.18137349
190	0x3cffa5d6	0.031207006
191	0x3e4432fa	0.19160071
192	0xbd1309c5	-0.03589799
193	0xbe5ffa2a	-0.21872774
194	0x3e2e843f	0.17042635
195	0x3e43dc7e	0.1912708
196	0xbde789c1	-0.11305571
197	0xbe1f48db	-0.15555136
198	0xbdc29683	-0.09501364
199	0xbe177b51	-0.14793135
200	0x3e0ae602	0.13564304
201	0x3dd25db9	0.102717824
202	0x3dd7b936	0.10533373
203	0x3c7f9c92	0.015601294
204	0xbe1e8aa2	-0.15482572
205	0x3ccf5901	0.025310995
206	0x3d976672	0.07392587
207	0xbc3bd4a6	-0.011464274
208	0xbd0ef7ad	-0.03490417
209	0xbe8003ca	-0.2500289
210	0x3d6c027e	0.057619564
211	0xbe6f9473	-0.23396473
212	0xbd2445aa	-0.0401055
213	0xbc9b6a83	-0.018971687
214	0xbe020cd5	-0.12700208
215	0x3db197c5	0.08671526
216	0xbdffcd9c	-0.12490389
217	0xbd4c11d1	-0.04982168
218	0x3e866f3a	0.26256734
219	0x3e1178c4	0.14206225
220	0x3dfadce6	0.12249164
221	0x3cf071fe	0.02935123
222	0x3e70e289	0.23523916
223	0xbe028745	-0.12746914
224	0x3cdc9682	0.026927236
225	0x3e76b414	0.24092132
226	0x3d098986	0.03357842
227	0x3da2ac18	0.079429805
228	0x3dbe2289	0.09283931
229	0x3e73f808	0.23825085
230	0x3dd50949	0.10402162
231	0xbb037315	-0.0020057608
232	0x3de64ef8	0.11245531
233	0x3d8d05f4	0.06885901
234	0x3e1e3444	0.15449625
235	0x3cf44af5	0.029820899
236	0xbdf17f59	-0.11791868
237	0xbe39d11a	-0.18146172
238	0x3d26758b	0.04063944
239	0xbdf56733	-0.11982574
240	0x3c1d8abd	0.009615597
241	0x3e660c7f	0.22465704
242	0xbd19b1a2	-0.03752292
243	0x3e815b9e	0.2526521
244	0x3dca90d6	0.098909065
245	0xbe51f9b8	-0.20505416
246	0x3e2dc93d	0.16971298
247	0x3da69843	0.0813451
248	0x3d9ccdeb	0.07656463
249	0x3e3f281c	0.18667644
250	0x3c0936c1	0.008374871
251	0xbc9796ac	-0.018504463
252	0x3e0e7733	0.13912658
253	0xbe0bb0c5	-0.13641651
254	0x3e3b1b5b	0.18272154
255	0x3bed6287	0.0072444114

linear1.bias f4 [256]
0	0xbe13874c	-0.1440708
1	0xbe91ccb2	-0.28476483
2	0x3e7152af	0.23566698
3	0xbe2b3212	-0.16718319
4	0xbe9df4dd	-0.30850878
5	0x3e4e1489	0.20125021
6	0x3d796fef	0.060897764
7	0xbd2d6882	-0.042335995
8	0x3d68fd2e	0.056882076
9	0x3e212ca3	0.15739684
10	0xbea15f3a	-0.31517965
11	0x3dbdad06	0.09261517
12	0x3dfb1f1c	0.12261793
13	0xbe64b9eb	-0.22336547
14	0x3db1e592	0.08686365
15	0x3e6a93b5	0.22907908
16	0xbe8275df	-0.25480554
17	0xbe80207c	-0.25024784
18	0xbc49a9dc	-0.012308564
19	0xbc8bf852	-0.017086182
20	0x3e9242f4	0.28566706
21	0xbe096a69	-0.13419499
22	0xbe5dfea0	-0.21679163
23	0x3ddc4181	0.107546814
24	0x3cbace8a	0.022803564
25	0x3e29d2e0	0.16584349
26	0xbce842a6	-0.028352093
27	0x3ca3d19b	0.019997409
28	0x3e86013b	0.26172814
29	0x3e321cc5	0.17393787
30	0xbcc1b964	-0.023647971
31	0xbe33b4b5	-0.17549403
32	0xbe2d4d37	-0.16923986
33	0xbd961a48	-0.073292315
34	0xbe2d24e4	-0.16908604
35	0xbe8d09b2	-0.2754646
36	0xbd6df774	-0.058097318
37	0xbdbd38d7	-0.09239357
38	0x3e552c60	0.20817709
39	0x3e46f859	0.19430675
40	0x3c891f64	0.016738601
41	0x3d125f96	0.03573569
42	0xbe96f7bf	-0.2948589
43	0x3cf2a236	0.029618364
44	0x3df44222	0.11926676
45	0x3e540c03	0.20707707
46	0x3df9e846	0.12202506
47	0xbdc4e3b2	-0.09613742
48	0xbe1c1755	-0.15243275
49	0x3e51ad64	0.204763
50	0x3e88d5c7	0.267256
51	0xbe897d48	-0.26853395
52	0xbe3071b1	-0.1723087
53	0xbe3bdfb1	-0.1834705
54	0x3e6654b2	0.22493246
55	0xbd4f1898	-0.050560564
56	0x3d17237a	0.036899067
57	0xbc2d8432	-0.0105906
58	0x3da6ec01	0.08150483
59	0xbe563b71	-0.20921113
60	0xbd839701	-0.06425286
61	0xbe207dc4	-0.15672976
62	0x3d7a1b95	0.06106146
63	0xbd884f44	-0.06655744
64	0x3d8eef55	0.06979243
65	0x3cca5549	0.02469887
66	0xbd74a2b1	-0.059725467
67	0x3dae3038	0.08505291
68	0xbe927aeb	-0.28609404
69	0xbdc92681	-0.09821797
70	0x3e93e586	0.2888605
71	0xbe9577ab	-0.29192862
72	0x3e01a0cc	0.12658995
73	0xbc189bd1	-0.009314493
74	0xbd31b9c6	-0.043390058
75	0xbe61afd3	-0.22039728
76	0xbe07d343	-0.13264184
77	0x3e31cf5b	0.17364256
78	0x3d8b2592	0.06794275
79	0x3e174f58	0.14776361
80	0xbe5191d2	-0.20465782
81	0xbe4aaa94	-0.19791633
82	0x3c9659de	0.018353399
83	0xbe57c282	-0.21070293
84	0xbe3c69bd	-0.18399711
85	0x3d23cc6e	0.03998988
86	0x3e04208c	0.1290304
87	0x3e933afd	0.28755942
88	0xbd680dc3	-0.05665375
89	0xbe8c1140	-0.2735691
90	0x3e12cac4	0.14335161
91	0xbe0f9eb9	-0.14025392
92	0x3cc15fe5	0.023605296
93	0xbe3ada06	-0.18247232
94	0xbc859dba	-0.016310561
95	0xbd5ffacf	-0.05468255
96	0x3ea43d1a	0.32077867
97	0xbdb2687f	-0.08711337
98	0xbe7e19fd	-0.24814601
99	0x3e661584	0.22469145
100	0xbe9fe2de	-0.31227773
101	0xbb2a73c0	-0.0026008934
102	0xbe85c57e	-0.26127237
103	0xbaff0892	-0.001945751
104	0x3e3b10cc	0.18268126
105	0x3cf8e104	0.030380733
106	0xbde700c4	-0.11279443
107	0x3e1cfcac	0.15330762
108	0x3e61108c	0.21978968
109	0x3e36b87b	0.17843811
110	0xbe98cdca	-0.29844505
111	0x3d8f20ab	0.06988653
112	0x3daf9bd8	0.08574647
113	0x3dcd3847	0.100205
114	0xbd82e1ac	-0.063907
115	0x3e3de1c2	0.18543151
116	0xbe13bfa0	-0.14428568
117	0x3e033184	0.12811857
118	0xbd23fab9	-0.04003403
119	0x3e65c8f6	0.22439942
120	0xbdebf456	-0.11521213
121	0x3e4f755b	0.20259611
122	0xbe89eb4f	-0.2693734
123	0x3e89b1ad	0.26893368
124	0x3e21301c	0.15741009
125	0xbbbcfe38	-0.00576761
126	0xbe413075	-0.18866141
127	0x3ea76d9e	0.3270082
128	0x3d6e6fdc	0.058212146
129	0x3e8791d7	0.26478454
130	0xbe24e44f	-0.16102718
131	0xbdc6e99b	-0.097125255
132	0x3cc20353	0.023683226
133	0x3e2720af	0.16321062
134	0xbe584eb8	-0.21123779
135	0xbe726205	-0.23670204
136	0x3e0236f0	0.1271627
137	0x3dc89b75	0.09795276
138	0xbe8f968e	-0.28044552
139	0xbe331a7a	-0.17490569
140	0xbe326dc4	-0.17424685
141	0x3d4afce7	0.049557593
142	0x3d925828	0.07145721
143	0xbdce1593	-0.10062709
144	0x3df47c76	0.119378015
145	0x3cea5902	0.028606895
146	0xbdef6644	-0.116894275
147	0xbd03bb7c	-0.03216122
148	0x3de8749a	0.11350365
149	0xbe0efb8a	-0.13963142
150	0x3e8ee9b4	0.27912676
151	0xbe4e4d30	-0.20146632
152	0x3e507f94	0.20361167
153	0xbe2ed102	-0.17071918
154	0xbe3f4ba9	-0.18681206
155	0xbd4f9397	-0.050677862
156	0x3e23d492	0.15999058
157	0xbc1241c5	-0.0089268135
158	0xbe0c1841	-0.13681127
159	0x3d255a44	0.040369287
160	0x3dbf9aa2	0.09355666
161	0xbe70822a	-0.23487154
162	0xbdc0ee28	-0.09420425
163	0x3da4dbb4	0.080497175
164	0x3e95c684	0.29253018
165	0xbe3fb424	-0.18721062
166	0xbe94419a	-0.289563
167	0xbe87401e	-0.26416105
168	0x3e4b8398	0.19874418
169	0xbdaa7aa6	-0.083241746
170	0xbd6566f0	-0.056006372
171	0x3c8b84a6	0.017031025
172	0x3e7cbaca	0.2468063
173	0xbd7b43f9	-0.06134412
174	0xbe27a2fa	-0.16370764
175	0xbe40980e	-0.18808004
176	0xbe6c5da2	-0.23082593
177	0xbdb039fb	-0.08604809
178	0xbc69e7c1	-0.014276446
179	0x3e60fcfd	0.21971507
180	0x3dd86f0d	0.10568056
181	0x3e715805	0.23568733
182	0x3e8ca002	0.27465826
183	0x3e4fa657	0.20278297
184	0x3e892521	0.2678614
185	0xbc25b54c	-0.010114025
186	0x3e766d4c	0.24065131
187	0x3ad84ad2	0.001650179
188	0xbdd02df4	-0.10165015
189	0x3e989907	0.2980425
190	0x3e21c6ba	0.15798464
191	0x3e9ab13d	0.30213347
192	0x3d42f119	0.04759321
193	0xbd68c2be	-0.056826346
194	0xbe46ebca	-0.19425884
195	0x3e1f1851	0.1553662
196	0xbcdcc7bd	-0.026950711
197	0x3e9c3991	0.3051267
198	0xbddeb0e4	-0.10873583
199	0x3e18a409	0.14906324
200	0x3e4093e2	0.18806413
201	0xbe5334fa	-0.20625678
202	0xbe2d31c7	-0.1691352
203	0xbe634f50	-0.22198224
204	0x3e3f8dd3	0.18706445
205	0x3d91982c	0.071091026
206	0xbcdbabad	-0.02681526
207	0xbcdbfd57	-0.0268542
208	0xbd048dd4	-0.03236182
209	0xbc00d23b	-0.007862623
210	0x3e0db289	0.13837637
211	0xbdc64735	-0.096815504
212	0xbdcf4a03	-0.101215385
213	0x3ea39c64	0.31955254
214	0x3d73362f	0.059377845
215	0x3e170968	0.14749682
216	0xbde51d85	-0.11187271
217	0x3e16ee00	0.14739227
218	0x3d9fc2be	0.07800816
219	0xbd13e6c6	-0.036108755
220	0x3d211ecd	0.039336015
221	0xbdf1ff9c	-0.11816332
222	0x3da911cd	0.08255348
223	0xbe1191c3	-0.1421576
224	0x3e2baad1	0.1676438
225	0x3d917e0a	0.07104118
226	0xbe82e9fe	-0.25569147
227	0x3ab94afd	0.0014136728
228	0x3e42c368	0.19019854
229	0x3e4ec223	0.20191245
230	0x3e7e7271	0.24848343
231	0x3df1e63d	0.118114926
232	0xbdc0cebc	-0.094144315
233	0x3e553dbe	0.20824334
234	0x3bf73be2	0.0075449804
235	0xbd48f27c	-0.049059376
236	0xbea2c906	-0.31793994
237	0xbe231ed0	-0.15929723
238	0x3d9bf087	0.07614236
239	0x3d2b5d16	0.04183682
240	0x3bac9d07	0.0052677426
241	0x3e9ea9eb	0.30989012
242	0x3c54bfd0	0.012985185
243	0xbc5d297c	-0.01349866
244	0xbe80c4d2	-0.25150162
245	0xbd9d7ca4	-0.07689789
246	0x3e68ca42	0.22733405
247	0x3d8c16e2	0.06840302
248	0x3d3e48c2	0.046456106
249	0x3db0bb43	0.08629467
250	0x3e01773a	0.12643138
251	0x3e059415	0.1304477
252	0x3de71911	0.11284078
253	0xbe30409f	-0.17212151
254	0xbbb37eba	-0.0054777535
255	0xbe3630e3	-0.17792086

linear2.weight f4 [10, 256]
0	0xbcc6731d	-0.024224812
1	0xbc999770	-0.018748969
2	0xbda8b55c	-0.082377166
3	0x3d7ad4e9	0.061238203
4	0x3cd2574f	0.025676398
5	0xbbb3f3a7	-0.005491692
6	0xbdc55129	-0.09634621
7	0x3d372e34	0.044721797
8	0xbca3e41e	-0.020006236
9	0xbd71108f	-0.058853682
10	0x3b3a7e8a	0.002845677
11	0xbc3932e6	-0.011303639
12	0xbcc02cb7	-0.023458822
13	0xbd140632	-0.03613872
14	0xbcd95090	-0.026527673
15	0xbcd39cce	-0.025831606
16	0x3d13d0cf	0.036087807
17	0x3d31ba44	0.043390527
18	0xbc410389	-0.011780628
19	0xbda1217e	-0.07867716
20	0xbdbb256a	-0.091379955
21	0xbd99c64a	-0.07508524
22	0x3bae2c29	0.005315323
23	0xbbc010b2	-0.0058613652
24	0xbcc8892b	-0.02447947
25	0xbde1fc8c	-0.110344976
26	0x3d05321e	0.0325185
27	0xbddc43e7	-0.10755139
28	0xbdba3d94	-0.09093776
29	0xbd5eefed	-0.05442803
30	0xbdb02180	-0.086001396
31	0x3c4b9212	0.012424963
32	0xbd1a0238	-0.037599772
33	0x3c9a3c4e	0.018827584
34	0x3cef1249	0.029183524
35	0x3cb79b28	0.022412851
36	0xbd02c078	-0.031921834
37	0x3cc893fb	0.024484625
38	0xbcbd6bc1	-0.02312267
39	0xbc9583d5	-0.018251339
40	0x3b280a6d	0.002564098
41	0xbd115189	-0.03547815
42	0x3dab9d08	0.08379561
43	0xbe1bff6f	-0.15234159
44	0xbdfd82c3	-0.123784564
45	0xbdddcc29	-0.10829956
46	0xbdc63f53	-0.09680047
47	0xbcf6fce1	-0.030149879
48	0xbd5e512b	-0.054276627
49	0xbdb07979	-0.08616919
50	0xbd773daf	-0.06036156
51	0x3da82e9d	0.08212016
52	0x3cc8651f	0.02446228
53	0xbdb10985	-0.08644394
54	0xbd90e7d0	-0.07075465
55	0x3cf3bedd	0.029754097
56	0x3c956e98	0.018241212
57	0xbd22efeb	-0.039779585
58	0xbd498394	-0.04919775
59	0x3da4d185	0.08047775
60	0xbcd4aabe	-0.025960322
61	0xbe2d588e	-0.16928312
62	0xbdc8a0f6	-0.09796326
63	0xbc833b26	-0.016019415
64	0xbc13b190	-0.009014502
65	0xbd06b671	-0.032888833
66	0xbdfc60b8	-0.12323135
67	0x3cc320bc	0.02381932
68	0xbc3e13ff	-0.011601447
69	0x3aaf435c	0.0013371515
70	0x3c3d36c2	0.0115487
71	0xbd4e7a28	-0.050409466
72	0xbd177ecd	-0.03698616
73	0x3c11c139	0.0088961655
74	0xbcca1347	-0.024667395
75	0xbaf1e620	-0.0018455423
76	0x3d974016	0.0738527
77	0xbd224a3c	-0.039621577
78	0x3c37802d	0.011199993
79	0xbd8b71ee	-0.0680884
80	0x3c433cce	0.011916352
81	0x3b00736a	0.0019600042
82	0xbd3e3ed8	-0.04644665
83	0xbd6e4278	-0.05816886
84	0x3bf020dc	0.007328136
85	0xbd337547	-0.043813016
86	0x3a0a3901	0.00052727765
87	0xbdac9437	-0.08426707
88	0xbd8745ab	-0.06605085
89	0x3dba4c16	0.090965435
90	0xba825a90	-0.0009945203
91	0x3d4c9750	0.04994899
92	0xbd335809	-0.04378513
93	0xbbb3535c	-0.0054725837
94	0xbdd89b31	-0.105764754
95	0xbdddf0a6	-0.10836916
96	0xbd860bd5	-0.065452255
97	0xbda0e7bb	-0.07856699
98	0x3e097faf	0.13427614
99	0xbdb02fa4	-0.08602837
100	0x3b5e5e49	0.003393071
101	0x3bae06b8	0.0053108595
102	0x3d290edc	0.041273937
103	0xbdd08c28	-0.10182983
104	0xbd9a98f3	-0.07548704
105	0xbdc8bea6	-0.09801988
106	0x3d1336c8	0.035940915
107	0x3d05e42f	0.032688316
108	0xbd1e2567	-0.03860989
109	0xbdcd75e2	-0.1003225
110	0xbd75490c	-0.059884116
111	0xbdaadbe4	-0.08342722
112	0xbd88fe77	-0.0668916
113	0x3cd53ae5	0.02602906
114	0xbda147b2	-0.07875003
115	0xbde05ab4	-0.109548
116	0x3d509f14	0.05093296
117	0xbd97fbe9	-0.07421095
118	0x3ba55b5d	0.0050462917
119	0xbd376285	-0.04477169
120	0xbb7eb687	-0.003886612
121	0x3c250530	0.010072038
122	0x3c9e1ad4	0.019299902
123	0xbdeca2ae	-0.11554466
124	0xbd16702b	-0.036728065
125	0xbddba809	-0.107254095
126	0xbc964398	-0.018342778
127	0xbdfc6b71	-0.1232518
128	0xbd1f4a0d	-0.03888898
129	0xbd25ecfd	-0.040509213
130	0x3ccb3a38	0.024808034
131	0xbd99902b	-0.07498201
132	0xbd89f6b1	-0.06736506
133	0xbd72626f	-0.059175905
134	0x3d621070	0.055191457
135	0xbc921649	-0.017832892
136	0xbda29129	-0.07937843
137	0xbd314585	-0.04327919
138	0x3d2b08a4	0.041756287
139	0xbccab943	-0.024746543
140	0x3e03106f	0.12799238
141	0xbe0723c5	-0.13197239
142	0xbd597302	-0.053088196
143	0xbdcbe740	-0.09956217
144	0xbdbb6a7b	-0.09151169
145	0x3c90e914	0.017689265
146	0xbdaee3f3	-0.085395716
147	0x3ca75a51	0.020428808
148	0xbbacf1ce	-0.005277849
149	0x3cfee604	0.03111554
150	0xbdfe4788	-0.12415987
151	0x3be3a459	0.006947082
152	0xbd2e738c	-0.042590663
153	0xbd31c36c	-0.04339926
154	0xbc600ec5	-0.013675396
155	0xbd20da2d	-0.03927057
156	0xbd25c3c1	-0.04046989
157	0x3d0e667f	0.034765717
158	0x3ccfd5e1	0.02537054
159	0x3c316a61	0.010828585
160	0x3bee3a10	0.007270105
161	0x3c85e67f	0.01634526
162	0x3c198802	0.009370806
163	0x3aecee1a	0.0018076331
164	0xbd841782	-0.06449796
165	0xbd3f49d8	-0.046701282
166	0x3cc23a04	0.023709305
167	0x3da940da	0.082643226
168	0xbdf2bf0d	-0.11852846
169	0x3d1f9ef4	0.03896995
170	0xbd924cb7	-0.071435384
171	0xbc6735db	-0.014111961
172	0xbd5bb8b7	-0.053642955
173	0x3d574efe	0.052565567
174	0xbba2908f	-0.0049610804
175	0x3c91a763	0.017780012
176	0xbd1a623d	-0.037691344
177	0xbdd4baff	-0.10387229
178	0xbd6c7f4f	-0.0577386
179	0xbda0f46e	-0.07859121
180	0xbd673a86	-0.056452297
181	0xbdb76360	-0.08954501
182	0xbde4022a	-0.11133225
183	0xbcf893f6	-0.03034399
184	0xbd81e1dc	-0.063419074
185	0xbdf28c5d	-0.118431784
186	0xbd66e583	-0.056371223
187	0xbd9dc424	-0.077034265
188	0x3ba4be09	0.005027537
189	0xbe06fca3	-0.13182311
190	0xbd84ead8	-0.064901054
191	0xbddbeaf1	-0.10738171
192	0xbdbd9632	-0.09257163
193	0xbb0e9020	-0.0021753386
194	0xbd99c36b	-0.07507976
195	0xbdb438f6	-0.08799927
196	0xbc99e526	-0.018786024
197	0xbdd19233	-0.102329634
198	0xbd8b24b0	-0.06794107
199	0xbd714bd2	-0.0589102
200	0xbdbcf726	-0.09226827
201	0x3d080b80	0.033214092
202	0xbc3dcf4a	-0.011585066
203	0xbd892246	-0.0669599
204	0xbd297cd2	-0.041378804
205	0xbcfc2057	-0.03077714
206	0x3c62a2a1	0.013832719
207	0x3d3a94f1	0.045552198
208	0x3c821300	0.0158782
209	0xbd9dbc28	-0.077019036
210	0x3d107204	0.035264984
211	0x3d8e7dc5	0.069575824
212	0xbd84b3bc	-0.06479594
213	0xbc990511	-0.018679174
214	0xbd67f4fb	-0.056630116
215	0xbd635c07	-0.055507686
216	0x3dac2125	0.08404759
217	0xbd63ada6	-0.055585526
218	0xbda9c85c	-0.08290169
219	0xbd79c206	-0.06097605
220	0xbda1136f	-0.07865035
221	0x3c0e12e9	0.008671501
222	0x3bf828ba	0.0075732144
223	0xbd4cbfa0	-0.049987435
224	0xbd91a1bb	-0.07110926
225	0xbd2729f2	-0.040811487
226	0xbb7d032d	-0.003860663
227	0xbddfd2e4	-0.10928896
228	0xbd561c0e	-0.05227285
229	0xbdd28a9c	-0.10280344
230	0xbdfa1e7a	-0.12212844
231	0xbdcc2364	-0.09967688
232	0x3d23f4ba	0.04002831
233	0xbbcda350	-0.006275572
234	0xb9a1df4c	-0.00030874682
235	0xbdbc3282	-0.09189321
236	0xbc13c107	-0.009018189
237	0xbc6471f3	-0.013943183
238	0x3cb9533d	0.022622699
239	0x3d32f80b	0.043693583
240	0xbdafe96d	-0.08589444
241	0xbdb47fa5	-0.08813409
242	0x3c0bb091	0.008525983
243	0x3cb7366b	0.022364816
244	0xbd866940	-0.065630436
245	0x3c34c038	0.011032157
246	0xbdca63b4	-0.09882298
247	0xbd99fd43	-0.07519009
248	0xbd377a03	-0.044794094
249	0xbd8991a0	-0.06717229
250	0xbdc1af2d	-0.0945724
251	0xbdaf1160	-0.08548236
252	0xbd4f44a2	-0.050602563
253	0x3df947ce	0.12171899
254	0x3d44cedc	0.04804884
255	0xbd7935d5	-0.060842354

linear2.bias f4 [10]
0	0xbdd7559b	-0.10514375
1	0xbda4b90a	-0.08043106
2	0xbd328ac7	-0.04358938
3	0xbce56485	-0.028002033
4	0xbdcb54b1	-0.09928263
5	0xbc267f82	-0.010162236
6	0x3c1650c2	0.009174528
7	0xbe019584	-0.12654692
8	0xbdd64fb1	-0.10464419
9	0xbdfe65db	-0.12421771
