model/model.pth (torch, 27456 bytes, 4 tensors)

linear1.weight f4 [256, 20]
0	0x3e0ce69f	0.1375985
1	0x3dc8d247	0.09805732
2	0xbc3aa390	-0.011391535
3	0xbdb934a5	-0.09043244
4	0x3de4d05c	0.11172554
5	0x3ddda3b0	0.108222365
6	0x3cfecaf8	0.031102642
7	0x3e462df5	0.19353469
8	0xbe539fbc	-0.20666403
9	0x3dacac16	0.0843126
10	0xbe8aaa0a	-0.27082855
11	0xbdacd805	-0.0843964
12	0xbe74a486	-0.23890886
13	0x3d270638	0.040777415
14	0xbcf0de73	-0.029402947
15	0xbdbc4a34	-0.091938406
16	0xbd8f0993	-0.06984248
17	0xbe4f6ee3	-0.20257144
18	0xbdfb3f4d	-0.12267933
19	0x3cea0e56	0.028571289
20	0x3e68c256	0.22730383
21	0xbd2e626a	-0.042574324
22	0x3d07d94f	0.033166226
23	0xbe04f75f	-0.1298499
24	0x3e109eed	0.14123125
25	0xbd7356de	-0.059409015
26	0x3e12a6da	0.14321461
27	0x3d950bd7	0.07277649
28	0xbd48491f	-0.04889786
29	0x3df75d1e	0.120783076
30	0x3dde5dfd	0.108577706
31	0x3e58dc6c	0.21177834
32	0xbde78aef	-0.11305796
33	0xbd43ddb6	-0.047818862
34	0xbbae5e94	-0.005321333
35	0xbe2f3e41	-0.17113592
36	0xbe4ad202	-0.19806674
37	0xbdd2b402	-0.1028824
38	0x3e68a290	0.22718263
39	0xbd0c995c	-0.034325942
40	0xbdc33e9e	-0.09533428
41	0x3e6c9e8a	0.23107353
42	0xbe670a32	-0.22562483
43	0x3d9a6810	0.075393796
44	0x3e3481af	0.17627595
45	0xbe6a0796	-0.22854456
46	0xbe399024	-0.18121392
47	0xbd3b1153	-0.04567082
48	0xbdfe74b1	-0.12424601
49	0xbd4251a0	-0.047441125
50	0x3e534dad	0.206351
51	0xbe8f67e6	-0.28008956
52	0xbe5f7981	-0.21823694
53	0xbdd13f66	-0.102171704
54	0x3e1fe834	0.15615922
55	0xbd13c3f2	-0.03607554
56	0x3e461e32	0.19347456
57	0x3d198a4f	0.037485417
58	0x3d84f41e	0.06491874
59	0x3d0fa6e7	0.03507128
60	0x3de9ed1f	0.114221804
61	0xbd250bff	-0.040294643
62	0x3d35e261	0.044405345
63	0x3da858f5	0.08220092
64	0x3d5d6e35	0.05406018
65	0x3d047813	0.032341074
66	0xbe36763f	-0.17818545
67	0xbe751a1f	-0.23935746
68	0xbdf5087f	-0.11964511
69	0x3c4bc72d	0.012437624
70	0xbded09d5	-0.11574141
71	0xbdcfeffa	-0.10153194
72	0xbe0c7791	-0.13717486
73	0x3c928fdf	0.017890869
74	0xbe3628cd	-0.17789002
75	0x3e6fd822	0.23422292
76	0xbdb683e1	-0.08911873
77	0x3d9b56fd	0.07584951
78	0xbd3c58d8	-0.045983166
79	0xbe46825d	-0.19385667
80	0x3e264903	0.1623879
81	0x3d219642	0.039449938
82	0x3e0d32ce	0.13788912
83	0x3e856f13	0.26061305
84	0x3b41f0ca	0.0029592984
85	0x3e0fa858	0.14029062
86	0x3e1f1c36	0.15538105
87	0x3e0809d4	0.13284999
88	0xbe2ed2fa	-0.17072669
89	0x3d1d22ff	0.038363453
90	0x3d17f733	0.037100982
91	0x3e05c856	0.13064703
92	0xbe6fcf13	-0.23418836
93	0x3e5e09ad	0.21683379
94	0x3e19868d	0.14992733
95	0xbd933b18	-0.071890056
96	0x3e2b5209	0.16730513
97	0x3d8ca669	0.06867678
98	0x3e2ec180	0.17066002
99	0xbe000d8a	-0.12505165
100	0x3e28d2f0	0.16486716
101	0xbe48ed45	-0.19621761
102	0xbe443ebd	-0.19164558
103	0x3d1c0c5f	0.038097735
104	0xbda93935	-0.082628645
105	0xbdb5069b	-0.088391505
106	0xbe74a7ed	-0.23892184
107	0x3e4bb8ed	0.19894762
108	0xbcb8b5c6	-0.022547614
109	0x3e2b9ba5	0.16758592
110	0x3de05b4b	0.10954913
111	0x3e47e6c3	0.19521622
112	0xbd921e75	-0.071347155
113	0xbddfdf08	-0.10931212
114	0x3d435920	0.047692418
115	0x3dd0c653	0.10194077
116	0x3d728843	0.05921198
117	0x3e1c1559	0.15242518
118	0x3df18322	0.1179259
119	0xbe046e3e	-0.12932679
120	0xbda722a2	-0.081609026
121	0xbe4b422a	-0.19849458
122	0x3e37565a	0.17904034
123	0xbe04efe1	-0.12982132
124	0x3d68d497	0.056843366
125	0x3e6dd90d	0.2322733
126	0xbe44f460	-0.19233847
127	0xbdba4bc4	-0.090964824
128	0xbd78da81	-0.060755257
129	0x3e2156e7	0.15755807
130	0xbe58ef9e	-0.21185157
131	0x3d9ef9ba	0.07762475
132	0x3e353a43	0.17698006
133	0x3dc7ecf4	0.09761992
134	0xbd846a33	-0.064655684
135	0xbe2467b6	-0.16055188
136	0x3e89ea19	0.26936415
137	0xbc71d594	-0.014760394
138	0xbdec793c	-0.11546561
139	0x3e18f4ba	0.14937106
140	0x3e625cb5	0.22105677
141	0xbde747e6	-0.112930104
142	0xbe05cf4e	-0.13067362
143	0xbe202d3a	-0.15642253
144	0xbde23f41	-0.11047221
145	0x3e5aac13	0.21354704
146	0xbe423995	-0.18967278
147	0xbe30a010	-0.17248559
148	0xbd9a8661	-0.07545162
149	0x3e207a55	0.15671666
150	0x3de32662	0.11091305
151	0x3d0dfebe	0.03466677
152	0xbd533b9f	-0.05157053
153	0x3e26d414	0.16291839
154	0xbe33b9b3	-0.17551307
155	0x3e1c1382	0.15241817
156	0xbcfb6775	-0.03068898
157	0x3c72101e	0.01477435
158	0xbddd38a0	-0.10801816
159	0x3df4f39b	0.119605266
160	0xbcc21fa6	-0.023696732
161	0xbdfba7a2	-0.12287833
162	0x3e59ffd0	0.21288991
163	0x3db9ca12	0.09071745
164	0x3c943a1d	0.018094117
165	0x3d8a2b65	0.06746558
166	0xbd8cdb30	-0.06877744
167	0xbe54c940	-0.20779896
168	0xbdcee925	-0.101030625
169	0xbe4f1cf2	-0.20225886
170	0xbe7768c6	-0.24161062
171	0x3d1bfd4a	0.038083352
172	0xbe2594bf	-0.16170023
173	0x3d22971e	0.039694898
174	0x3e52bc17	0.20579563
175	0x3d377261	0.044786815
176	0x3d461994	0.048364237
177	0xbd989591	-0.074504025
178	0x3dd948ec	0.10609612
179	0x3d22a4ab	0.03970782
180	0x3daa8af9	0.08327288
181	0xbd3c8803	-0.04602815
182	0xbcaa2359	-0.020768808
183	0x3e17ca7b	0.14823334
184	0xbcdbf751	-0.026851328
185	0xbe420d1f	-0.18950318
186	0xbe6bfd5e	-0.2304587
187	0x3dc0fac7	0.09422832
188	0x3c834ab6	0.016026836
189	0x3dff1ca2	0.12456633
190	0xbe2307bc	-0.15920919
191	0x3dceee14	0.101040035
192	0x3e1bdeb8	0.15221679
193	0x3da57562	0.080790296
194	0xbd952967	-0.072832875
195	0xbe281994	-0.16416007
196	0x3db43b79	0.08800406
197	0x3da5afe6	0.080901906
198	0x3de0ed99	0.10982818
199	0xbc4d50cf	-0.012531473
200	0xbe3850e8	-0.17999613
201	0x3e035a49	0.1282741
202	0x3bd97ee5	0.0066374415
203	0x3da626ee	0.08112894
204	0x3e3ba812	0.18325832
205	0xba44dde2	-0.000750987
206	0xbd8b29a1	-0.067950495
207	0xbe234cc5	-0.15947254
208	0x3e03a0cd	0.1285431
209	0x3ce95232	0.028481577
210	0x3e0054a6	0.12532291
211	0xbe285213	-0.16437559
212	0x3dec0a44	0.115253955
213	0xbe2dad0a	-0.1696054
214	0x3e34f9bd	0.17673393
215	0x3e17d423	0.14827017
216	0xbd6518b2	-0.055931754
217	0x3e4ec963	0.2019401
218	0x3e108e55	0.14116795
219	0x3e58b251	0.21161772
220	0x3cd9260f	0.026507406
221	0x38053954	3.1763062e-05
222	0xbdd76a71	-0.10518349
223	0xbb6d4fef	-0.0036210974
224	0xbe68b1f6	-0.22724137
225	0xbe7fe038	-0.24987876
226	0xbe7b0294	-0.24512702
227	0xbe674101	-0.22583391
228	0xbe1ce1c6	-0.153205
229	0xbe79dce9	-0.24400677
230	0xbe080da7	-0.13286458
231	0x3d2a530e	0.041583113
232	0xbe554558	-0.20827234
233	0xbddc5700	-0.107587814
234	0x3cb38ae4	0.021916814
235	0xbcdfc009	-0.02731325
236	0xbd56d448	-0.05244854
237	0xbd2001d0	-0.03906423
238	0xbcd2107b	-0.025642624
239	0x3e823dfa	0.2543791
240	0xbda47b1e	-0.08031295
241	0xbdceda51	-0.10100234
242	0x3defc0a8	0.11706668
243	0x3e30c3d4	0.17262203
244	0xbe4b2122	-0.19836858
245	0x3dd01e52	0.10162033
246	0xbd9d621c	-0.076847285
247	0xbe66c898	-0.22537458
248	0x3e2409fe	0.16019437
249	0xbe134df0	-0.143852
250	0xbbef8d69	-0.0073105586
251	0xbcec8015	-0.028869668
252	0x3dd1b1dc	0.10239002
253	0x3e22566d	0.15853281
254	0xbd5fe14e	-0.054658227
255	0x3e446cc8	0.19182122

linear1.bias f4 [256]
0	0xbdb39cec	-0.08770165
1	0x3e4a07bf	0.19729517
2	0x3e62cddd	0.22148843
3	0x3d932d95	0.071864285
4	0x3eb01d19	0.343972
5	0xbe032e84	-0.12810713
6	0x3e5df3d3	0.21675043
7	0xbe79612f	-0.24353479
8	0xbe0eed64	-0.13957745
9	0xbe0b52b8	-0.13605773
10	0x3a0e85a0	0.0005436782
11	0x3e963e99	0.29344633
12	0xbd9728cf	-0.073808305
13	0x3df35d9e	0.118830904
14	0x3e11e459	0.14247264
15	0x3e8b167c	0.27165592
16	0x3e07eb93	0.13273458
17	0xbdd7a710	-0.105299115
18	0x3abb4bec	0.0014289594
19	0xbdbcee25	-0.0922511
20	0xbda8d732	-0.0824417
21	0xbe0d6a57	-0.13810097
22	0x3d994564	0.07483938
23	0xbe63c6a9	-0.22243752
24	0x3e90a6fb	0.28252396
25	0x3dfd9f8f	0.12383949
26	0x3de6cc55	0.11269442
27	0xbe206a4b	-0.15665548
28	0xbe832d9a	-0.2562073
29	0xbe1cce17	-0.15312992
30	0xbe557f56	-0.20849356
31	0xbe15438f	-0.14576553
32	0x3e3ac44b	0.18238942
33	0x3d0c42ae	0.03424328
34	0xbd4e0d6b	-0.050305765
35	0xbd7e5d80	-0.062100887
36	0x3eb48898	0.35260463
37	0xbdfe21f0	-0.12408817
38	0x3e9b1978	0.3029287
39	0xbd6e4bb9	-0.058177684
40	0x3ef535c4	0.47892582
41	0x3e00aecd	0.12566681
42	0x3c708921	0.014681132
43	0x3e19c83f	0.15017794
44	0x3f0f7c97	0.56049484
45	0x3eaca79a	0.3372162
46	0xbdc7a9cc	-0.09749183
47	0x3c8f8e08	0.01752378
48	0x3d85985a	0.065231994
49	0xbd17c820	-0.03705609
50	0x3e6e8b08	0.23295224
51	0x3e022574	0.127096
52	0x3eac0127	0.3359463
53	0xbdcf255b	-0.10114547
54	0x3dc9175b	0.09818908
55	0x3e7fd694	0.24984199
56	0x3e1dc564	0.1540733
57	0xbe314edd	-0.1731524
58	0x3ebb77b4	0.36614764
59	0x3ecb6eda	0.3973301
60	0x3ebffd5c	0.37497985
61	0x3e9dfd6d	0.3085741
62	0xbe09ba56	-0.13449988
63	0x3e94fbfa	0.29098493
64	0xbd8dab76	-0.06917469
65	0xbdcbe2cb	-0.09955367
66	0x3e9b993f	0.30390355
67	0xbe084396	-0.13307032
68	0x3db67f29	0.089109726
69	0x3ea90b92	0.3301664
70	0x3e8b9555	0.2726237
71	0xbdf9c363	-0.1219547
72	0x3e0d1f99	0.13781585
73	0xbe0625a9	-0.13100304
74	0xbe6534d3	-0.22383432
75	0x3db66193	0.089053296
76	0x3acd7e64	0.0015677926
77	0x3dfe58c3	0.12419274
78	0x3eff709f	0.4989061
79	0x3eb36b63	0.35042867
80	0x3ddeda26	0.10881452
81	0x3e7c400f	0.24633811
82	0x3e8b6d01	0.272316
83	0x3e3189f1	0.17337777
84	0xbcb85225	-0.022500107
85	0x3d9ddc10	0.07707989
86	0xbba7e991	-0.005124279
87	0x3e75a108	0.2398721
88	0x3daeaee5	0.08529452
89	0x3e656701	0.22402574
90	0x3e8b7552	0.27237946
91	0x3de55c63	0.11199262
92	0x3d9afc32	0.07567634
93	0x3cc60e7a	0.024176825
94	0x3c88a0a3	0.01667816
95	0x3e2bad12	0.1676524
96	0xbe3b0161	-0.18262245
97	0x3e1cb971	0.15305115
98	0x3d5befe3	0.05369557
99	0xbe2398ba	-0.1597623
100	0x3e9a2771	0.30108216
101	0x3ea2a155	0.31763712
102	0x3d4801ee	0.048829965
103	0x3eb1da27	0.3473675
104	0x3e4e628c	0.2015478
105	0xbdb17376	-0.086646006
106	0x3e9e05d3	0.3086382
107	0x3edb5b58	0.42843127
108	0xbcc395fe	-0.023875233
109	0xbe3d6922	-0.18497136
110	0x3d5f783f	0.054558035
111	0xbddc1f76	-0.10748188
112	0x3eb35588	0.35026193
113	0xbc830701	-0.01599455
114	0x3e2c2437	0.1681069
115	0xbe3083fd	-0.1723785
116	0xbd32f06c	-0.043686315
117	0x3da8c5b1	0.08240832
118	0x3f14ec68	0.5817323
119	0x3e613076	0.21991143
120	0x3ee3b603	0.444748
121	0x3e07da51	0.13266875
122	0x3eb5aa2c	0.35481393
123	0x3e2c95cd	0.1685402
124	0xba529885	-0.00080335914
125	0x3ea2ca65	0.3179504
126	0x3e94ac2b	0.29037604
127	0xbe424c10	-0.18974328
128	0x3e680112	0.22656658
129	0x3eb674df	0.3563604
130	0x3efa40ce	0.48877567
131	0x3be57c4a	0.007003342
132	0x3e8016b7	0.2501733
133	0xbdd1bff1	-0.10241688
134	0x3c2ffda9	0.01074163
135	0x3e8d8b47	0.27645323
136	0xbd2b9374	-0.04188867
137	0x3db3add7	0.08773392
138	0x3ee913b6	0.4552285
139	0x3e468ac7	0.19388877
140	0x3e3fea56	0.18741736
141	0x3e77bb63	0.24192576
142	0xbd9b040c	-0.07569131
143	0xbe203bd4	-0.15647823
144	0xbe18e122	-0.14929631
145	0x3db036bc	0.0860419
146	0x3b3615be	0.0027783955
147	0xbd2bf042	-0.041977175
148	0x3e894db5	0.26817098
149	0x3eccee4e	0.40025562
150	0x3db45ac0	0.08806372
151	0xbd8b6323	-0.06806018
152	0x3e9f50af	0.31116244
153	0xbe2f80a0	-0.1713891
154	0xbd416d9a	-0.047223665
155	0x3db29607	0.08720022
156	0xbd4c28c7	-0.049843576
157	0x3c42683a	0.01186567
158	0x3e4e8440	0.20167637
159	0x3cd0763d	0.025447005
160	0x3eb56e34	0.3543564
161	0xbe67cbb6	-0.22636303
162	0x3e39c955	0.18143208
163	0xbddb4a4c	-0.107075304
164	0x3e535e2b	0.20641391
165	0xbe0d6185	-0.13806732
166	0x3f03a706	0.5142673
167	0xbd357e0b	-0.044309657
168	0x3f1a285c	0.60217834
169	0x3e1e9037	0.15484701
170	0xbde1b60e	-0.11021052
171	0x3dfdfb78	0.124014795
172	0x3d53b549	0.05168656
173	0xbd8e17f5	-0.06938163
174	0x3e08338a	0.1330091
175	0x3e040776	0.12893471
176	0x3eba8595	0.3643004
177	0xbdc70ddb	-0.097194396
178	0x3e89fde5	0.2695152
179	0x3e196e3b	0.14983456
180	0x3e1fa9c8	0.1559211
181	0x3eaa2a3b	0.33235344
182	0x3e17b9ec	0.14817017
183	0x3e9084cf	0.28226325
184	0x3e7706f9	0.24123754
185	0x3e5934a5	0.21211489
186	0xbddbbfff	-0.1072998
187	0x3d885ef0	0.06658733
188	0xbc864f3c	-0.016395204
189	0x3e80d4af	0.25162265
190	0x3ea04603	0.31303415
191	0x3d893022	0.06698634
192	0x3ea03596	0.31290883
193	0x3e2224f1	0.15834405
194	0x3e85b985	0.26118103
195	0x3e82b451	0.25528196
196	0xbc8b05ba	-0.016970504
197	0xbd1945f1	-0.037420217
198	0xbe45c472	-0.19313219
199	0x3b29131d	0.0025798746
200	0xbc461872	-0.012090789
201	0x3e0eb265	0.1393524
202	0xbbd5468e	-0.006508655
203	0xbd8b7cee	-0.06810938
204	0x3c49cbbc	0.0123166405
205	0x3e46702b	0.19378726
206	0x3ea4aa30	0.32161093
207	0xbd713282	-0.05888606
208	0xbe1bd66e	-0.15218517
209	0xbe4c8197	-0.1997131
210	0x3c0881f2	0.008331763
211	0x3e87e6e7	0.26543352
212	0xbe1c7495	-0.15278848
213	0x3e5de4b1	0.2166927
214	0x3c868803	0.016422277
215	0xbc4d91a7	-0.012546933
216	0xbcf3182f	-0.029674618
217	0x3e229fb9	0.15881242
218	0xbe185165	-0.148748
219	0x3c8fceaf	0.01755461
220	0x3e2756aa	0.16341653
221	0x3e8b69b4	0.27229083
222	0x3e902d55	0.28159586
223	0xbd3b8e31	-0.0457899
224	0x3ca0ded1	0.019637497
225	0x3e41a633	0.18911056
226	0x3e1e9445	0.15486248
227	0x3e8ad309	0.27114132
228	0x3d7fa521	0.06241334
229	0xbe50c492	-0.20387486
230	0xbcc3abb5	-0.023885587
231	0x3e1d3c39	0.15355004
232	0xbdf89788	-0.12138277
233	0xbd03fe89	-0.032225166
234	0x3e195387	0.1497327
235	0x3e80f304	0.25185406
236	0x3d06f466	0.03294792
237	0x3d8217e8	0.06352216
238	0xbdc9eae8	-0.09859258
239	0x3e9c3488	0.30508828
240	0x3e06389a	0.1310753
241	0x3eaca7e4	0.3372184
242	0x3e0c86bc	0.13723272
243	0x3d10f281	0.03538752
244	0x3e81933e	0.2530765
245	0xbdc0ae4c	-0.094082445
246	0x3d91e1eb	0.071231686
247	0x3ed17437	0.40908977
248	0xbdca03bd	-0.09863994
249	0xbd112915	-0.03543957
250	0xbe6e03bd	-0.23243614
251	0xbe2b60f3	-0.16736202
252	0xbe51b2ad	-0.20478316
253	0x3ccadf83	0.024764782
254	0x3d8d0322	0.06885363
255	0xbd2a3d21	-0.041562203

linear2.weight f4 [4, 256]
0	0x3d88a198	0.066714466
1	0x3dc001cc	0.09375343
2	0x3ddd041c	0.107917994
3	0x3da83dbc	0.082149
4	0x3dace2d5	0.08441702
5	0x3dc97cab	0.09838232
6	0x3d4ee922	0.0505153
7	0x3d4e1292	0.05031068
8	0x3d35b2b3	0.044359874
9	0x3ca50241	0.020142676
10	0xbc9aad02	-0.018881325
11	0x3d6bf786	0.057609104
12	0x3dbeac4b	0.09310206
13	0x3d696b69	0.0569872
14	0x3dcb340b	0.09922036
15	0x3c25bfda	0.010116542
16	0x3c28efd5	0.010311087
17	0x3cab6a00	0.020924568
18	0x3d0db60a	0.034597434
19	0x3dd0b5b1	0.10190905
20	0x3dcde9cc	0.10054359
21	0xbc8d7618	-0.017268226
22	0x3d05904f	0.032608327
23	0x3bab6f63	0.005231784
24	0x3dd84675	0.105603136
25	0x3b66fce2	0.0035245945
26	0x3d571ecb	0.0525196
27	0x3cab9b90	0.020948201
28	0x3d77ee26	0.06052985
29	0x3cef83c4	0.029237635
30	0x3d303c7d	0.043026436
31	0xba60e162	-0.00085785065
32	0x3d8efe01	0.06982041
33	0x3d188fb6	0.03724643
34	0x3dc564a2	0.09638335
35	0x3a28898b	0.0006429187
36	0x3dca7aa7	0.09886675
37	0x3c93cc76	0.01804183
38	0x3e0f126a	0.13971868
39	0x3a6fedef	0.00091525813
40	0x3d716e06	0.058942817
41	0x3d6d712d	0.05796926
42	0x3cfde6bb	0.03099381
43	0x3df498a1	0.11943174
44	0x3deb4fb9	0.11489815
45	0x3e1ae96e	0.15128109
46	0x3d8f1e39	0.069881864
47	0x3d561939	0.052270148
48	0x3c84c862	0.016208831
49	0x3b9bc505	0.004753711
50	0x3dbfe4e0	0.09369826
51	0x3cc914f2	0.02454612
52	0x3dfb03ea	0.12256606
53	0x3c25edbd	0.010127482
54	0x3d73a625	0.05948462
55	0x3d6c4673	0.057684373
56	0x3c8d2077	0.017227395
57	0x3dd68496	0.104745075
58	0x3cdccfac	0.026954494
59	0x3d98d392	0.07462229
60	0x3df8d861	0.12150646
61	0x3daf5b42	0.08562328
62	0x3d1a1f26	0.03762736
63	0x3da6bc6f	0.081414096
64	0xbc11c22c	-0.008896392
65	0x3d1a066c	0.03760378
66	0x3d825ce0	0.06365371
67	0xbd56db85	-0.052455444
68	0x3d72e0d2	0.059296437
69	0x3d922609	0.07136161
70	0x3d868701	0.06568719
71	0xbc2a5206	-0.0103955325
72	0x3c6faab4	0.014628101
73	0x3d98f8af	0.07469308
74	0x3c1de7f2	0.00963782
75	0x3da8a057	0.082337074
76	0x3cc3eb23	0.023915833
77	0x3dce0fa8	0.1006158
78	0x3e13f205	0.14447792
79	0x3d5ca86a	0.05387155
80	0x3e032f3a	0.12810984
81	0x3d3ccd9a	0.046094514
82	0x3d3cbb2d	0.046076942
83	0x3e2378ad	0.15964003
84	0x3d39ac15	0.045330126
85	0x3cce5b08	0.025189891
86	0x3d8b5baf	0.06804597
87	0x3d19de38	0.03756544
88	0x3dfb869e	0.122815356
89	0x3cd72712	0.026263747
90	0x3d29c044	0.041443124
91	0x3de54beb	0.11196121
92	0x3d8908ba	0.066911176
93	0x3c83b886	0.016079199
94	0x3c165d7e	0.009177564
95	0x3e080ac7	0.13285361
96	0x3dbcb5bf	0.09214353
97	0x3dc57b58	0.096426666
98	0x3d2d6dce	0.042341046
99	0x3db3b48c	0.08774671
100	0x3d0bd395	0.034137327
101	0x3d51c73d	0.0512154
102	0x3d5d5402	0.054035194
103	0x3dca76ec	0.09885964
104	0x3e00d942	0.12582877
105	0x3cbf1547	0.023325576
106	0x3db8e4e4	0.090280324
107	0x3d870449	0.06592614
108	0xbc7627ed	-0.0150241675
109	0xbd0b770f	-0.03404909
110	0x3dd04c3f	0.10170793
111	0x3d8a1a15	0.06743256
112	0x3d59cdf2	0.05317492
113	0x3ccd7945	0.02508224
114	0x3d1af63c	0.037832484
115	0x3d330401	0.04370499
116	0x3ca4857c	0.020083182
117	0x3de863f5	0.1134719
118	0x3dfb5e95	0.122738995
119	0x3d6bf111	0.057602946
120	0x3e042de3	0.1290813
121	0x3d9c0719	0.07618541
122	0x3d9bdaa2	0.0761006
123	0x3dcd69fe	0.10029982
124	0x3c750b34	0.014956284
125	0x3d76afb1	0.060226146
126	0x3d71860c	0.058965728
127	0x3d1bb0c8	0.03801039
128	0x3dd623fb	0.104560815
129	0x3d69c39e	0.05707132
130	0x3de3cca8	0.111230195
131	0x3ce45f04	0.027877338
132	0x3d2a96e2	0.0416478
133	0xbbd6299d	-0.0065357224
134	0x3d5cef20	0.053938985
135	0x3dc8552d	0.09781871
136	0x3d82c4fc	0.06385228
137	0x3dab8945	0.083757915
138	0x3e0c2b97	0.13688503
139	0x3d59841f	0.053104516
140	0x3d3c8123	0.046021592
141	0x3d1f2e00	0.03886223
142	0x3cb1b420	0.021692336
143	0x3d9a8fc2	0.07546951
144	0x3d3f5534	0.046712115
145	0x3d78f2be	0.060778372
146	0x3c3533a2	0.0110596735
147	0x3cf273ec	0.029596291
148	0x3d815f2d	0.063169815
149	0x3dcc5c96	0.09978597
150	0x3da1d97a	0.079028085
151	0xbbdb4360	-0.0066913813
152	0x3dfe42a8	0.124150574
153	0x3d1a1740	0.03761983
154	0x3d84dbb9	0.06487221
155	0x3d94b740	0.07261515
156	0x3d3bb953	0.045831036
157	0xbc7956b8	-0.015218429
158	0x3d0f9a88	0.03505948
159	0x3d80e56d	0.062937595
160	0x3da3ba3b	0.07994505
161	0x3cbffcd2	0.023435984
162	0x3d19746f	0.037464555
163	0x3ca25843	0.019817477
164	0x3c8c5d68	0.017134383
165	0x3dca6792	0.09883036
166	0x3d7c6b0f	0.061625537
167	0x3d2fa2e8	0.04287997
168	0x3de6fca4	0.11278656
169	0x3df500b5	0.119630255
170	0xbbf7640b	-0.007549768
171	0x3d9f2a76	0.07771771
172	0x3d5f4674	0.05451055
173	0x3d9ad9a6	0.075610444
174	0x3e0291d4	0.12750942
175	0x3d6724d5	0.05643161
176	0x3d8f38fb	0.0699329
177	0x3bc2efb3	0.0059489845
178	0x3d755775	0.05989786
179	0x3d982122	0.074281946
180	0x3d0e3f78	0.034728497
181	0x3dad10af	0.08450448
182	0x3db1e502	0.08686258
183	0x3daac7a8	0.08338863
184	0x3db7caf7	0.08974259
185	0x3d868d32	0.065698996
186	0x3da9031d	0.08252547
187	0x3dc65504	0.09684184
188	0x3da06d62	0.07833363
189	0x3d019be4	0.03164281
190	0x3d8a861d	0.06763861
191	0x3ce7bfed	0.02828976
192	0x3d8697d2	0.06571926
193	0x3cae5a3e	0.021283265
194	0x3de05879	0.10954375
195	0x3dfcaf94	0.12338176
196	0x3d946f49	0.072477885
197	0x3d781394	0.060565546
198	0x3c8d6f8c	0.017265104
199	0x3ce5631f	0.028001366
200	0x3cecad40	0.028891206
201	0x3cdaa6d1	0.026690872
202	0x3c55a4f0	0.013039812
203	0x3da00cb5	0.07814924
204	0x3cbd38df	0.023098407
205	0x3c6c8a2a	0.014437238
206	0x3da1d2b3	0.07901516
207	0x3d622791	0.055213515
208	0x3d47daee	0.048792772
209	0x3ceb3a0a	0.028714199
210	0xbbb2903b	-0.0054493225
211	0x3da5b5f4	0.080913454
212	0x3c6ae3c0	0.014336526
213	0x3d3abccf	0.04559022
214	0x3c0e196b	0.008673052
215	0x3d8e13c0	0.06937361
216	0x3d74bfff	0.059753414
217	0x3d5e852a	0.054326214
218	0x3d7be062	0.061493285
219	0xbc34a4fc	-0.011025663
220	0x3cfe72e9	0.031060653
221	0x3cc2510e	0.02372029
222	0x3dacf9b4	0.084460646
223	0x3d88ccaf	0.06679665
224	0x3d3f0ebd	0.046644915
225	0x3d4ca517	0.04996213
226	0x3d99667d	0.07490251
227	0x3da397df	0.079879515
228	0x3dc70bef	0.09719073
229	0x3ca98e08	0.020697609
230	0x3cbe5d0e	0.023237731
231	0x3d359b63	0.04433764
232	0x3d6ff271	0.05858082
233	0x3d1a3140	0.037644625
234	0x3d8c01c9	0.06836278
235	0x3d62ca6c	0.055368826
236	0x3dc0d82f	0.09416234
237	0x3d7d3d9f	0.061826345
238	0x3d886777	0.06660359
239	0x3ddf44f1	0.109018214
240	0x3db84efe	0.089994416
241	0x3e0b9d88	0.13634312
242	0x3e012040	0.12609959
243	0x3cc31cca	0.023817439
244	0x3c84e24d	0.01622119
245	0x3d2e09e9	0.04248992
246	0x3da24b13	0.079244755
247	0x3dcaba76	0.09898846
248	0x3da4badc	0.08043453
249	0x3d8ddae7	0.06926518
250	0x3cd75b37	0.026288612
251	0xbd4d19a6	-0.05007329
252	0x3dca6b5f	0.09883761
253	0x3da49cd1	0.08037723
254	0x3dc10378	0.0942449
255	0x3c700c27	0.014651335

linear2.bias f4 [4]
0	0x3dd57ff2	0.10424794
1	0x3de5dab4	0.11223355
2	0x3da6473a	0.08119054
3	0x3e206ac9	0.15665735
