model/model.pth (torch, 27456 bytes, 4 tensors)

linear1.weight f4 [256, 20]
0.10142576 0.045383196 0.07546486 -0.22623761 -0.12117826 0.06765557 0.08262808 -0.06225699
0.007283717 -0.23267011 0.20196314 0.19156165 -0.10663379 -0.12332505 0.12671508 0.00016112947
-0.036020424 0.20180443 0.19067284 -0.05451857 0.017750975 -0.23027457 0.11955604 0.09885703
-0.07539674 0.16208324 -0.04484298 -0.065657206 -0.19074954 0.048273064 0.28870693 -0.17617844
0.03710881 0.055088997 -0.03314216 0.004397339 0.16985238 -0.043778334 0.019922001 0.1403023
0.07203494 0.1477585 0.02244172 0.03257372 -0.011020373 0.0948481 -0.10107953 -0.116116285
0.07391328 0.07365699 0.003998717 0.09737301 0.094848156 0.07061221 0.07531148 0.07710369
-0.1809697 0.077984594 0.06523739 0.07562074 0.048682645 -0.051086493 -0.15554473 0.0774586
-0.10607387 0.010866808 0.056476362 -0.046410974 -0.05993617 -0.15744978 0.17400876 -0.1480083
-0.13321921 -0.0026119226 -0.18546627 0.15586056 0.13410206 0.14992721 -0.18436022 0.19777736
0.10403067 0.22218455 -0.09591035 0.0030194623 -0.21203849 0.008646888 0.14806102 -0.23588537
-0.19357148 -0.059646167 -0.22660531 0.18714383 0.17316936 0.031359915 -0.016209869 0.18898371
-0.21120855 -0.19494864 0.12788355 0.05617864 -0.07724391 -0.16665123 0.108659975 -0.0036293927
0.089622274 -0.055716455 0.12502228 0.19630215 -0.1699964 -0.045152847 0.14294192 -0.16555959
0.13670902 0.13390565 -0.17977718 0.13565093 -0.0067400443 -0.09167607 -0.149767 -0.18857503
0.18133676 -0.13187584 -0.17097583 0.1622682 0.16931479 0.20481297 -0.04633371 -0.021107042
0.094242156 -0.18842447 -0.091857776 -0.049611658 0.09648463 -0.076827146 -0.1230722 -0.18302418
-0.20241664 -0.006748984 0.06513117 0.19452639 -0.074558355 0.22332722 -0.12014521 -0.0004543856
-0.080381274 0.034828164 -0.29185662 0.1837203 -0.04129737 0.08415882 -0.026742565 -0.12866719
-0.2626268 0.12253817 -0.063387394 0.12577267 0.06384943 0.16671202 0.17837854 0.0855373
0.08531009 -0.18133473 0.06563379 0.04766339 0.0688886 -0.06519833 0.097780846 -0.20047553
0.1029603 0.0032265596 -0.12617888 0.14716399 0.16232862 0.017650014 0.05575371 0.16683108
0.01965976 -0.16829082 -0.08098611 -0.14896949 -0.15093084 0.026238682 0.06956085 -0.00017587756
-0.047269642 -0.04114536 0.07274898 0.20458429 -0.19841018 0.13011342 0.10919957 -0.07352647
-0.0038238687 -0.24630901 -0.17034192 0.10392358 -0.13115598 0.1321394 -0.022233596 0.10938167
-0.14098589 0.121715575 0.123109214 0.15783483 0.06864375 -0.16621603 0.041050483 -0.17204982
0.21435916 -0.0006911531 -0.0059108622 -0.20756929 -0.0018943569 -0.23724708 0.2392997 -0.13956401
-0.06864436 0.041522555 -0.20975366 -0.13907824 -0.05160728 0.2209696 -0.1671709 0.032610763
-0.15889674 -0.21161395 -0.13810787 -0.13934352 -0.014557093 0.06561389 -0.11890414 -0.080596365
-0.08579892 0.070370466 -0.12679735 0.15756428 0.01734952 0.21013448 0.24335435 -0.1660518
0.15203084 -0.00809786 -0.043741465 -0.12087896 -0.06614373 -0.073601626 -0.13899563 -0.08832807
0.16060789 0.12231486 -0.08198748 -0.010464628 -0.08509227 -0.15242682 -0.12764846 0.1433685
00000000: 4fb8 cf3d bbe3 393d 528d 9a3d d5aa 67be
00000010: 4f2c f8bd 018f 8a3d e938 a93d 2f01 7fbd
00000020: 3fac ee3b 1341 6ebe 6dcf 4e3e bd28 443e
00000030: d162 dabd d891 fcbd 99c1 013e ddf4 2839
00000040: 278a 13bd d2a5 4e3e be3f 433e dd4e 5fbd
00000050: 7e6a 913c 19cd 6bbe ccd9 f43d 8e75 ca3d
00000060: 9b69 9abd 26f9 253e 46ad 37bd 4977 86bd
00000070: d953 43be fab9 453d 65d1 933e 1f68 34be
00000080: 68ff 173d 00a5 613d 13c0 07bd 8e17 903b
00000090: c8ed 2d3e e950 33bd 7733 a33c 68ab 0f3e
000000a0: 0e87 933d 014e 173e b3d7 b73c 056c 053d
000000b0: cb8e 34bc b83f c23d c902 cfbd 60ce edbd
000000c0: d95f 973d 7ad9 963d ab07 833b 806b c73d
000000d0: c03f c23d 229d 903d e83c 9a3d 8ae8 9d3d
000000e0: 1f50 39be 63b6 9f3d 2e9b 853d 0cdf 9a3d
000000f0: 7467 473d 1240 51bd 1e47 1fbe 9da2 9e3d
00000100: 423d d9bd b20a 323c c253 673d 6f19 3ebd
00000110: a17f 75bd 843a 21be 5a2f 323e 7d8f 17be
00000120: 9e6a 08be ca2c 2bbb dfea 3dbe e999 1f3e
00000130: 0d52 093e 8586 193e edc8 3cbe 2686 4a3e
00000140: 080e d53d 5984 633e a56c c4bd 2ce2 453b
00000150: 9e20 59be adab 0d3c 4f9d 173e ef8b 71be
00000160: 9a37 46be 8a4f 74bd 390b 68be a2a2 3f3e
00000170: 4f53 313e 4173 003d 8fca 84bc f284 413e
00000180: 0e47 58be 9ea0 47be e8f3 023e 931b 663d
00000190: 0e32 9ebd 9fa6 2abe 1f89 de3d 1bdb 6dbb
000001a0: e28b b73d f036 64bd d705 003e 6e03 493e
000001b0: 8913 2ebe 31f2 38bd 5e5f 123e 7488 29be
000001c0: 73fd 0b3e 901e 093e 8217 38be 14e8 0a3e
000001d0: 97db dcbb aac0 bbbd 855c 19be d019 41be
000001e0: 58b0 393e 760a 07be 4a14 2fbe a329 263e
000001f0: db60 2d3e 7eba 513e 6bc8 3dbd ade8 acbc
00000200: 0802 c13d 58f2 40be ee1f bcbd 9835 4bbd
00000210: bc99 c53d 8d57 9dbd 470d fcbd b16a 3bbe
00000220: 4f46 4fbe 9526 ddbb 7e63 853d ed31 473e
00000230: 0db2 98bd e4af 643e b10e f6bd 9a3a eeb9
00000240: f09e a4bd faa7 0e3d 3b6e 95be 2d21 3c3e
00000250: 6e27 29bd 765b ac3d 3913 dbbc 55c1 03be
00000260: 0577 86be 4bf5 fa3d 40d1 81bd 8dca 003e
00000270: 7dc3 823d 8eb6 2a3e dda8 363e 2e2e af3d
00000280: 0eb7 ae3d d0af 39be 026b 863d b03a 433d
00000290: 7715 8d3d b486 85bd 5341 c83d 7549 4dbe
000002a0: dadc d23d b074 533b 0935 01be 28b2 163e
000002b0: 7939 263e c396 903c 015e 643d c4d5 2a3e
000002c0: 810d a13c 6e54 2cbe 0cdc a5bd 758b 18be
000002d0: 9d8d 1abe 81f2 d63c eb75 8e3d c66b 38b9
000002e0: d09d 41bd 0988 28bd 6bfd 943d 8b7e 513e
000002f0: 0a2c 4bbe 743c 053e 06a4 df3d 0c95 96bd
00000300: df99 7abb 6e38 7cbe 1d6e 2ebe e3d5 d43d
00000310: c14d 06be 8d4f 073e 3b23 b6bc 7f03 e03d
00000320: 9b5e 10be 0446 f93d af20 fc3d 749f 213e
00000330: 1895 8c3d 8934 2abe 8d24 283d d42d 30be
00000340: f880 5b3e 802e 35ba e8af c1bb 0b8d 54be
00000350: 124c f8ba e6f0 72be fb0a 753e dee9 0ebe
00000360: 6a95 8cbd 8e13 2a3d aac9 56be 876a 0ebe
00000370: 2862 53bd db45 623e d92e 2bbe dd92 053d
00000380: d4b5 22be 54b1 58be 266c 0dbe 11b0 0ebe
00000390: e080 6ebc 9360 863d 0484 f3bd b50f a5bd
000003a0: 58b7 afbd 641e 903d 2ad7 01be 8858 213e
000003b0: 9520 8e3c 7e2d 573e e231 793e 7c09 2abe
000003c0: f9ad 1b3e e3ac 04bc 402a 33bd 638f f7bd
000003d0: 5d76 87bd 73bc 96bd df54 0ebe 59e5 b4bd
000003e0: 6576 243e 3780 fa3d 0de9 a7bd d573 2bbc
000003f0: db44 aebd c715 1cbe 47b6 02be 31cf 123e

linear1.bias f4 [256]
0.02825392 0.23142369 -0.15037264 0.15318921 -0.07135326 -0.013857916 0.28144956 0.18248501
0.038097795 0.06958318 -0.16717327 -0.16211362 0.08983699 -0.036194928 0.30971742 -0.26862055
0.16171336 0.15031081 0.061958067 -0.13090253 0.32968232 -0.1395643 -0.18290907 0.18339893
-0.12914613 -0.17282449 -0.2527691 0.11252308 0.40892816 0.3148343 0.22994885 0.3222815
-0.17855395 0.009331832 0.22141369 0.0492514 0.21883838 0.17246905 -0.09794153 -0.09289493
0.09490727 -0.23656876 -0.2174319 0.09727941 -0.25851244 0.16211332 -0.122075856 -0.11527987
0.15280773 0.45920166 0.18488905 0.4984711 0.087406985 0.24173273 0.03088519 -0.15812854
-0.14378415 -0.13630997 0.28329536 -0.11228243 0.05973693 -0.16742627 0.004809588 -0.058545467
0.15839522 -0.10863959 -0.04541555 -0.13727988 0.31152546 -0.0057612434 -0.17552407 0.009053787
-0.20868124 0.07149095 0.18498236 0.25129837 0.23123127 -0.024730574 0.23967706 0.34795868
0.10528034 0.30367547 -0.06885663 -0.09867778 -0.18063582 -0.20797366 0.25007686 0.011443545
0.14070886 0.27101484 -0.029818626 -0.01121336 0.07243834 0.009698984 -0.13277808 -0.023714969
-0.12852097 0.005086993 0.028957473 -0.07023405 0.04158777 0.12534904 0.22189523 0.18907383
-0.015530975 0.37823597 0.052923046 -0.017599752 0.2758033 -0.16788118 -0.14240815 0.31047326
-0.1807522 0.28839055 0.072543554 0.3128457 0.06390698 -0.101823926 -0.006674738 0.107563145
0.20530744 -0.15262945 0.2032302 -0.09106837 0.15433645 0.3167857 -0.13642402 0.32542428
-0.123357385 0.1909184 0.17315574 0.014555744 -0.18667974 -0.014684374 -0.0715629 -0.036841348
0.056853406 -0.20380248 0.18386507 -0.02016147 -0.15820867 0.012981132 -0.023158597 0.00048080145
0.14073965 0.20191287 0.1385894 0.22461952 -0.029905895 0.14788504 0.01686305 0.050753813
0.23353255 -0.03551353 -0.12399007 -0.11404383 0.13670635 -0.12212415 0.15282787 0.012893263
0.3010424 -0.027269453 -0.14068475 -0.13472709 0.1739352 0.32087895 0.00858888 -0.19273576
-0.031151265 -0.19460753 0.37989748 0.05193531 0.16076112 0.13818665 -0.18750086 0.12458579
0.21468395 0.04538246 0.06022984 0.28366753 -0.13470113 0.28594765 0.32522032 -0.0037400657
-0.08210522 -0.08089548 -0.05718811 0.18373129 -0.06801645 -0.16243349 0.17969337 -0.119272895
-0.081999324 0.09315241 0.0020054616 -0.25436643 0.18595365 0.41611555 -0.20628498 0.1973459
-0.16572315 0.12784743 0.1305895 -0.20681153 0.060875807 -0.21410054 0.110268876 -0.052448157
-0.030043138 0.104676075 -0.2656141 -0.20142856 -0.034501698 0.04719019 0.060992263 -0.07820434
0.089979835 0.077340394 -0.13279137 0.22269197 0.22624654 0.31032425 0.028756717 0.10492275
0.037636362 0.2023272 0.03784873 0.004783156 0.25771567 0.12286581 0.30761155 0.07941462
-0.15889478 0.1546133 -0.19957107 0.0034600056 -0.044538926 0.25087672 -0.027881611 -0.19410731
0.11478073 0.23008545 -0.19757497 0.25203025 -0.20182958 0.1409063 -0.07870583 -0.064517885
0.16817856 0.08341651 0.13471852 -0.14619732 0.22430293 -0.03479849 -0.088146426 -0.122588225
00000000: c474 e73c 55fa 6c3e 49fb 19be a2dd 1c3e
00000010: a821 92bd 500c 63bc 281a 903e 5add 3a3e
00000020: 6f0c 1c3d a081 8e3d 782f 2bbe 1d01 26be
00000030: 75fc b73d 2241 14bd 4893 9e3e a288 89be
00000040: 3098 253e 14eb 193e bec7 7d3d 500b 06be
00000050: 1fcc a83e f2e9 0ebe 844c 3bbe eecc 3b3e
00000060: e23e 04be e7f8 30be f46a 81be 8072 e63d
00000070: 085f d13e f631 a13e b677 6b3e 1502 a53e
00000080: d9d6 36be 8ae4 183c 45ba 623e d6bb 493d
00000090: 2b17 603e ba9b 303e 9295 c8bd b23f bebd
000000a0: be5e c23d 153f 72be 78a6 5ebe 6d3a c73d
000000b0: be5b 84be 0901 263e e802 fabd da17 ecbd
000000c0: a179 1c3e 7b1c eb3e 8e53 3d3e 9b37 ff3e
000000d0: 6f02 b33d c988 773e f002 fd3c 73ec 21be
000000e0: 273c 13be d794 0bbe 170c 913e 55f4 e5bd
000000f0: b6ae 743d cb71 2bbe c099 9d3b 5fcd 6fbd
00000100: 5b32 223e 6f7e debd a805 3abd 1993 0cbe
00000110: 4480 9f3e d0c8 bcbb 95bc 33be 5656 143c
00000120: 89b0 55be d969 923d 046c 3d3e 2eaa 803e
00000130: e4c7 6c3e c697 cabc e76d 753e a427 b23e
00000140: 389d d73d 5a7b 9b3e b404 8dbd 9317 cabd
00000150: 99f8 38be 0cf7 54be 130a 803e b57d 3b3c
00000160: fc15 103e 75c2 8a3e 3146 f4bc 3eb8 37bc
00000170: 8d5a 943d 7de8 1e3c faf6 07be e545 c2bc
00000180: 009b 03be cab0 a63b 3938 ed3c dfd6 8fbd
00000190: f057 2a3d 805b 003e 8138 633e 929c 413e
000001a0: a175 7ebc 25a8 c13e d6c5 583d 5b2d 90bc
000001b0: 1736 8d3e 0be9 2bbe 71d3 11be 5af6 9e3e
000001c0: 1b17 39be eda7 933e b791 943d 502d a03e
000001d0: aae1 823d 1089 d0bd c3b7 dabb 114a dc3d
000001e0: 1d3c 523e e54a 1cbe 941b 503e 0e82 babd
000001f0: 600a 1e3e bc31 a23e bdb2 0bbe 039e a63e
00000200: cca2 fcbd 1d80 433e bd4f 313e 377b 6e3c
00000210: f928 3fbe bb96 70bc 928f 92bd f4e6 16bd
00000220: 1edf 683d 99b1 50be 2047 3c3e ab29 a5bc
00000230: 7401 22be d0ae 543c 19b7 bdbc 1414 fc39
00000240: 0e1e 103e 3fc2 4e3e 61ea 0d3e a902 663e
00000250: 35fd f4bc 2d6f 173e 6124 8a3c 3be3 4f3d
00000260: 2823 6f3e a376 11bd 81ee fdbd d08f e9bd
00000270: c0fc 0b3e 3a1c fabd e97e 1c3e 443e 533c
00000280: 3b22 9a3e 3064 dfbc aa0f 10be e6f5 09be
00000290: 121c 323e 3f4a a43e 60b8 0c3c 865c 45be
000002a0: f030 ffbc 3247 47be ec81 c23e 1fba 543d
000002b0: 909e 243e cd80 0d3e 3a00 40be d626 ff3d
000002c0: 1cd6 5b3e f5e2 393d 91b3 763d df3c 913e
000002d0: 18ef 09be bb67 923e 4783 a63e e41b 75bb
000002e0: c826 a8bd 88ac a5bd 143e 6abd 0e24 3c3e
000002f0: 354c 8bbd f754 26be 8a01 383e 5945 f4bd
00000300: 43ef a7bd b1c6 be3d 106e 033b 513c 82be
00000310: a26a 3e3e 190d d53e 5f3c 53be 0b15 4a3e
00000320: 54b3 29be 70ea 023e 41b9 053e 67c6 53be
00000330: e958 793d 2c3d 5bbe a6d4 e13d e1d3 56bd
00000340: 071d f6bc 6960 d63d 92fe 87be 4a43 4ebe
00000350: a751 0dbd 804a 413d 06d3 793d 9929 a0bd
00000360: 5947 b83d a464 9e3d 76fa 07be 5d09 643e
00000370: 2cad 673e d2e2 9e3e 3593 eb3c bde1 d63d
00000380: 9628 1a3d dd2e 4f3e 4507 1b3d 05bc 9c3b
00000390: 4ff3 833e 12a1 fb3d 437f 9d3e 22a4 a23d
000003a0: 50b5 22be f352 1e3e 5c5c 4cbe 43c1 623b
000003b0: 736e 36bd ea72 803e fa67 e4bc 11c4 46be
000003c0: 2912 eb3d 859b 6b3e 1851 4abe 1c0a 813e
000003d0: 6aac 4ebe be49 103e 8630 a1bd f421 84bd
000003e0: 0037 2c3e 46d6 aa3d a7f3 093e c0b4 15be
000003f0: abaf 653e dd88 0ebd 1d86 b4bd 890f fbbd

linear2.weight f4 [4, 256]
0.06932004 0.10539056 -0.001535068 0.050163295 0.061697382 0.00065302756 0.047589622 0.076231845
0.024411336 -0.0008216154 -0.0021286786 0.015409163 0.0038329833 -0.023836661 0.07280473 -0.052189596
0.049150784 0.03595042 0.021444505 -1.7603521e-05 0.10142122 0.014553368 -0.025915252 0.02535885
0.07308862 0.027475849 0.003290602 0.0030940382 0.09481233 0.08264621 0.021514637 0.06446114
0.029905654 0.07950955 0.0532355 0.02965378 0.073646925 0.0815427 0.04518785 0.046366572
0.052216616 0.022761514 -0.021157878 0.060350165 0.013245971 0.13993818 -0.02054121 0.042542133
0.08118136 0.08918623 0.029442959 0.13797274 0.010115681 0.033901874 0.06308952 -0.019370096
0.031621493 0.011036297 0.10931321 0.0066087055 0.015202982 0.0665917 0.055546742 0.013963893
0.011942572 0.054549128 0.06953661 -0.04019753 0.040349983 0.057971396 -0.011877073 0.03307982
0.10863866 0.024784118 0.0992162 0.00943928 0.091024876 0.006196783 0.08481256 0.06623541
0.09463176 0.09493158 0.0019088549 0.021682031 0.02137772 0.07551525 0.059929956 0.059266705
0.10662426 0.08341163 0.05401175 0.07913515 0.027769838 0.09134014 0.021205269 0.0058376556
0.050886583 0.053773675 0.018602021 0.06794025 0.008530199 0.07064306 0.036576957 0.11132067
0.013750245 0.071534626 0.061420508 0.008903377 0.112105556 -0.0055826656 -0.0037633597 0.02514664
0.00050644623 0.050810248 0.09702539 0.09047975 0.017961735 0.015870284 0.010784113 0.11500983
0.055411648 0.018725947 0.08652055 -0.023455983 -0.005852803 0.06977064 0.016013537 0.04426663
-0.021576669 0.08781574 0.10311904 0.080491215 0.061854415 0.012143503 0.058046523 0.09693055
0.074564375 0.0467961 0.0813646 0.04897363 -0.01343404 -0.0030640801 0.019061377 0.09489381
0.09089059 0.023578767 0.029199975 0.024017535 0.0039346335 0.014640638 0.018602526 0.040929534
0.044811826 0.009754495 -0.040814005 0.026446873 0.090084136 0.0020901808 0.0097986655 0.05971205
0.119657665 0.02190092 0.04559234 -0.008802904 0.018916806 0.0992037 0.016780995 0.02615103
0.06589808 0.0016033847 0.11512627 0.042143803 0.11142348 0.04484738 0.051131707 0.09616393
0.04604099 0.07286119 0.11620848 0.059509374 0.06712563 0.06230692 0.06579476 0.07553785
0.1167648 0.07033838 0.08912054 0.121086314 0.08311952 0.026656922 0.05147972 0.00049990986
0.03608793 0.057692394 0.025485262 -0.0050768955 0.029322652 0.08706134 -0.01347785 0.109322295
0.011152112 0.03103819 0.024219656 0.05807632 0.031913854 0.038398284 0.050359994 0.06495569
0.008011799 0.11083086 -0.011096738 0.006321188 0.008488228 0.06010493 0.017147526 0.06327498
0.07330619 0.018947186 0.021370525 0.08641497 0.02704182 0.03277456 0.018834934 0.08166148
0.07235292 0.07290079 -0.0018152717 0.05700614 0.039226793 0.07657926 0.10024455 0.049914956
0.046364494 0.07755765 0.07205027 0.10200088 0.060615975 0.07855446 0.08293868 0.02498349
0.08347298 0.050154675 -0.015437165 0.107688665 -0.0071618836 0.04556393 0.047149647 0.05761405
0.040342983 0.003943478 0.09236788 -0.027351769 0.08289239 0.019639663 0.018567787 0.06461832
00000000: aaf7 8d3d 02d7 d73d 5634 c9ba 0778 4d3d
00000010: 65b6 7c3d f02f 2b3a 56ed 423d 711f 9c3d
00000020: 48fa c73c ad61 57ba 4d81 0bbb b776 7c3c
00000030: ca32 7b3b 1a45 c3bc a51a 953d c2c4 55bd
00000040: 5552 493d bf40 133d 63ac af3c 46ab 93b7
00000050: eeb5 cf3d 4071 6e3c 394c d4bc 5dbd cf3c
00000060: 7daf 953d 0815 e13c 24a7 573b 59c5 4a3b
00000070: f82c c23d 6b42 a93d 773f b03c 3404 843d
00000080: b4fc f43c e7d5 a23d 780d 5a3d 7cec f23c
00000090: 33d4 963d dcff a63d e516 393d e0ea 3d3d
000000a0: 17e1 553d 5b76 ba3c 4953 adbc bc31 773d
000000b0: a105 593c f44b 0f3e 0a46 a8bc a940 2e3d
000000c0: 6a42 a63d 45a7 b63d 5c32 f13c ba48 0d3e
000000d0: 3ebc 253c b1dc 0a3d 1435 813d 09ae 9ebc
000000e0: 8a85 013d 96d1 343c 9bdf df3d d78d d83b
000000f0: ee15 793c 3b61 883d fb84 633d d0c8 643c
00000100: c7aa 433c e86e 5f3d 3669 8e3d 2aa6 24bd
00000110: 0646 253d 6a73 6d3d 0e98 42bc b57e 073d
00000120: f27d de3d 1008 cb3c dd31 cb3d 36a7 1a3c
00000130: 406b ba3d 620e cb3b 35b2 ad3d 6ea6 873d
00000140: 4cce c13d 7d6b c23d 8b32 fa3a 849e b13c
00000150: 5420 af3c bda7 9a3d 1d79 753d a5c1 723d
00000160: d25d da3d b7d3 aa3d 6d3b 5d3d 9c11 a23d
00000170: 927d e33c 8a10 bb3d acb6 ad3c ce49 bf3b
00000180: 736e 503d c941 5c3d 4463 983c 4224 8b3d
00000190: 3fc2 0b3c 4fad 903d b8d1 153d 17fc e33d
000001a0: b548 613c bf80 923d 1294 7b3d 78df 113c
000001b0: 9997 e53d cbee b6bb b3a2 76bb 5400 ce3c
000001c0: 08c3 043a 681e 503d 3fb5 c63d 724d b93d
000001d0: 7d24 933c 6602 823c d9af 303c 468a eb3d
000001e0: 53f7 623d 2867 993c b031 b13d c326 c0bc
000001f0: dfc8 bfbb e9e3 8e3d d22e 833c ed50 353d
00000200: 8ec1 b0bc bdd8 b33d 1330 d33d 94d8 a43d
00000210: 0e5b 7d3d 8bf5 463c 31c2 6d3d 8683 c63d
00000220: 35b5 983d 44ad 3f3d 7ca2 a63d 9398 483d
00000230: 731a 5cbc bcce 48bb 9b26 9c3c b057 c23d
00000240: d824 ba3d 4228 c13c c934 ef3c 6cc0 c43c
00000250: 19ee 803b 49df 6f3c 5364 983c baa5 273d
00000260: 9b8c 373d 51d1 1f3c 962c 27bd 1da7 d83c
00000270: 087e b83d 6afb 083b 958a 203c 9f94 743d
00000280: 140f f53d 8f69 b33c 09bf 3a3d 0e3a 10bc
00000290: 6bf7 9a3c 4f2b cb3d 4c78 893c af3a d63c
000002a0: 93f5 863d aa28 d23a 52c7 eb3d fb9e 2c3d
000002b0: fe31 e43d e3b1 373d 7b6f 513d 98f1 c43d
000002c0: 7a95 3c3d 3f38 953d b6fe ed3d 1ac0 733d
000002d0: 2a79 893d 8a35 7f3d 67bf 863d 97b3 9a3d
000002e0: 6222 ef3d 920d 903d d484 b63d 1afc f73d
000002f0: 913a aa3d 9e5f da3c 66dc 523d 620c 033a
00000300: f0d0 133d dc4e 6c3d 78c6 d03c 165c a6bb
00000310: 0f36 f03c 374d b23d 33d2 5cbc 5ee4 df3d
00000320: 59b7 363c cd43 fe3c 4d68 c63c 6fe1 6d3d
00000330: 1ab8 023d 8547 1d3d 4846 4e3d 7d07 853d
00000340: ec43 033c 4afb e23d 18cf 35bc f821 cf3b
00000350: 3512 0b3c 9630 763d f878 8c3c 5096 813d
00000360: 8e21 963d 2137 9b3c 3d11 af3c 55fa b03d
00000370: cf86 dd3c 9e3e 063d b84b 9a3c 223e a73d
00000380: c52d 943d 024d 953d 69ee edba 457f 693d
00000390: 46ac 203d 96d5 9c3d 044d cd3d a073 4c3d
000003a0: b2e8 3d3d 8cd6 9e3d 188f 933d d6e5 d03d
000003b0: 7548 783d 29e1 a03d c1db a93d 2daa cc3c
000003c0: e2f3 aa3d fd6e 4d3d 2aec 7cbc e08b dc3d
000003d0: 3cae eabb 3ea1 3a3d fd1f 413d b6fc 6b3d
000003e0: af3e 253d 4b38 813b 5f2b bd3d d110 e0bc
000003f0: 7cc3 a93d 5ce3 a03c 791b 983c 9c56 843d

linear2.bias f4 [4]
0.054230794 0.08033578 0.0676259 0.11672879
00000000: 1c21 5e3d 1687 a43d 737f 8a3d 810f ef3d
