model/model.pth (torch, 17216 bytes, 4 tensors)

linear1.weight f4 [256, 10]
00000000: dee9 f13c 3464 2fbd e521 883e c892 88bd
00000010: fe67 8c3e 2af8 2c3e 89dd 0bbe 4433 48bd
00000020: ccd8 5dbd 0b1d 45bd 6098 91be 75d0 6c3d
00000030: 6794 553e fcca 22be 39e0 84be 69bd a5be
00000040: 9250 823e 1105 53bd 098a afbe 54a9 95be
00000050: cf3c d5be a8c4 0dbe 5dcd 823e 5f44 e23d
00000060: f49c 663d 6f3f b3bc 3fb3 1c3e 32bd 9b3e
00000070: 5ccf 7d3d c4cc 6ebe 9275 063e dbc2 b43e
00000080: 9eee 78be 9e08 403d 83fd 6abe a952 86be
00000090: bfe3 ba3d 7a6d 823e 0163 a3be 8448 2b3e
000000a0: 408f 56be d5bf c3bd 83c3 553e d96c 043e
000000b0: 6c53 903e 6ef9 503d 7c59 5c3e 5702 78be
000000c0: 89f7 8c3e 13a9 883e 99a9 78be 3482 31be
000000d0: 36ca 473e f33d 4c3e 18ed b7bd 9232 26be
000000e0: ac89 70be 2f17 903e 9d80 82be 7e96 753e
000000f0: 8665 ec3c d3d8 933d ffe3 0a3d bd1a 843d
00000100: 937b b23e 1db5 a83e 0d4d da3d 04d5 f2bd
00000110: df45 9c3e d77c 8c3b 8c76 7bbe b41f 753e
00000120: 7390 f13d a7f8 8bbd c808 2abe 1fe9 543d
00000130: 32a1 353d dbe0 013e 84a4 aa3d 9684 bebd
00000140: 1d8d a8be 38b0 9abe 4fe9 1dbe 1987 bf3e
00000150: 497d bb3e a783 4b3d 9b24 ec3d 2603 e03e
00000160: fc19 75be 3874 94be 4e30 93be 2360 e7be
00000170: cb3f 8dbd 9fad 96bd c782 113c 3968 2cbe
00000180: e18d 04be 95f7 093d 5d24 c53c 4fdd ac3d
00000190: a97b cb3d a6d5 a7be 47ec 7bbe 6837 c23c
000001a0: bf41 223d 0bc9 76be a777 0d3e 5bb9 98be
000001b0: f13f 353e 948c 873e e32a 813e 136c 1dbe
000001c0: 6c1a 9f3e 6f49 b0be e76e 7c3e 3094 63be
000001d0: 6d42 4d3e c670 cf3e 81a2 363e b512 3a3e
000001e0: 0b13 95bd 708d 5c3e 2b74 5cbe 79e1 903c
000001f0: 527a 493e 434d 6dbe 0fa0 54bd 76d5 7c3e
00000200: 4de1 17be b59b 983c b2d8 7f3e a88a 24be
00000210: 8010 333d 82f3 093e 469c 753e 0843 a63e
00000220: 0ad5 3dbe 8a94 f53c 9bc8 7ebe 155e 04be
00000230: dc7c fe3d 74c3 3b3e e04c 3abc 258c 323d
00000240: a37a 60be c90b 9c3e c49c d5be eae3 e4bd
00000250: 3bf6 5bbe 346a 2cbe 1b6b fe3c e209 4bbe
00000260: 1c36 bb3d f6e1 9bbe 986a 54be f63a 57bd
00000270: 0e28 9dbc ed4f b63d 6c46 8d3e 5e51 4d3d
00000280: 7548 8dbe 96be eabd ecb6 92be 6c34 5c3e
00000290: 52aa 7bbe 4b77 9a3d b2b6 ef3c a069 c53e
000002a0: f54b 66bd c9c8 2ebe 0353 54be 83fb 5c3e
000002b0: 7645 963e 8aa8 af3e 905a 7bbe 6a33 c63e
000002c0: 00e9 893d 0f93 d3bd 56d3 753e d531 71be
000002d0: 8cc8 d73e 3c91 733e 1aae 20be f83e ec3d
000002e0: 681d 5d3e bed5 303e b86e 34be 9906 c6bd
000002f0: ba79 59be 21fd 1d3e 0553 54bd bcf5 b7be
00000300: 149e a83d 155c 163e 39f8 46be 4ec8 793e
00000310: cab2 5dbd b236 10bd 1c5f 63be 20ea 47be
00000320: ff8c d23d 41b2 563e 8dbf f7bd 3f8f f03d
00000330: ca4c 563c 8d5b 53be 64f9 553e 1d87 07be
00000340: 4f24 08be 5ccb 2c3e 09a6 833e 58be 6ebe
00000350: f01f 8bbe c22c cb3e 9cd2 b13e b496 58be
00000360: a5b8 9abe ccac abbe f7fb 07be 7509 3cbe
00000370: 1102 a8be 9692 b13d 77ba 1c3e 69f0 443e
00000380: 13af 1f3d d4ab 523e 11bc 733b 9a2e a23d
00000390: fc27 91bd fef7 83be 9f0f 273e 76ac 33be
000003a0: 9d4e 093c 9f9f a7bd 3884 a73e 707d 0b3e
000003b0: 5529 163c 144f e73d f2bc 633e 5208 8bbe
000003c0: bcaa 43be c8be b4bc c888 9a3e 665e 4a3e
000003d0: 04d6 7fbd 4618 cabe d92a 1b3e 5dbb 9abe
000003e0: 28dc 463e 59e2 aebe cfbb 27bd b010 42bd
000003f0: c96d 54bd 1edc 103d 5e04 403e 356c 8ebd
0.029530462 -0.04282017 0.2658836 -0.06668621 0.2742309 0.16891542 -0.13658728 -0.048877016
-0.05416183 -0.0481234 -0.28436565 0.057815988 0.20857392 -0.15897745 -0.25952318 -0.3237107
0.25452095 -0.051518504 -0.34285 -0.2923075 -0.41647956 -0.1384455 0.25547305 0.11048197
0.056302026 -0.021880833 0.15302752 0.30417782 0.06196533 -0.233203 0.13130787 0.35304913
-0.24309775 0.046883218 -0.2294827 -0.2623494 0.0912547 0.2547415 -0.3191147 0.16726881
-0.20953083 -0.095580734 0.20875363 0.12932147 0.28188646 0.051019125 0.2151851 -0.24219643
0.27532604 0.26691493 -0.24283446 -0.17334825 0.19510731 0.19945507 -0.08980769 -0.16230229
-0.23490018 0.28142688 -0.2548875 0.2398319 0.028857004 0.0721909 0.03390884 0.064504124
0.34859905 0.32950678 0.106592275 -0.11857036 0.30522057 0.004287343 -0.24556941 0.23937875
0.117951296 -0.06834536 -0.16604912 0.051980134 0.04434318 0.12683432 0.0833216 -0.093026325
-0.3292016 -0.3021257 -0.15421031 0.3740776 0.36619022 0.0496861 0.115304194 0.43752402
-0.23935694 -0.28994918 -0.2874779 -0.45190534 -0.06896933 -0.07357334 0.008881277 -0.16836633
-0.12944748 0.03368338 0.02406519 0.08440649 0.09935696 -0.32780188 -0.24601851 0.02370806
0.03961348 -0.2410013 0.13815175 -0.29828915 0.17700173 0.2647444 0.25228032 -0.15373258
0.31074846 -0.34431025 0.24651681 -0.22224498 0.2004487 0.40515727 0.17835428 0.18171199
-0.07279023 0.21538329 -0.2152869 0.017685639 0.19675568 -0.23174004 -0.051910456 0.24690804
-0.14832039 0.018628934 0.24985006 -0.16068518 0.043716908 0.13471797 0.23985395 0.32473016
-0.18538299 0.029978056 -0.24881212 -0.12926514 0.12426159 0.18336278 -0.0113708675 0.043590683
-0.21921782 0.3047774 -0.41721165 -0.11176284 -0.21480648 -0.16837388 0.031056931 -0.19827989
0.0914118 -0.30445832 -0.20743787 -0.052546464 -0.019184139 0.089019634 0.2759279 0.050126426
-0.27594343 -0.11462133 -0.28655183 0.21504372 -0.24576691 0.075422846 0.02926192 0.38557148
-0.056224782 -0.17068781 -0.20734791 0.21580319 0.2934987 0.34308273 -0.24546266 0.387111
0.06733894 -0.103307836 0.240064 -0.23554166 0.42145193 0.23785871 -0.15691414 0.11535448
0.21593249 0.17269036 -0.17620361 -0.09669227 -0.21237841 0.15428592 -0.051836986 -0.35929668
0.08233276 0.14683564 -0.19430627 0.24392816 -0.054125585 -0.03520841 -0.2220425 -0.19522905
0.10280799 0.20966436 -0.12097082 0.11746072 0.013079831 -0.20640393 0.20895916 -0.13235135
-0.132951 0.1687445 0.25712612 -0.23314798 -0.27172804 0.39682585 0.34730995 -0.21151239
-0.30218998 -0.3353027 -0.1327971 -0.18362983 -0.32814077 0.08670537 0.15305506 0.19232334
0.038985323 0.2057336 0.0037190954 0.07919045 -0.070877045 -0.2577514 0.16314553 -0.17546257
0.008380559 -0.08184742 0.32718062 0.1362207 0.009165128 0.1129438 0.22240046 -0.27154785
-0.19108099 -0.022063628 0.3018248 0.19762573 -0.06245996 -0.39471644 0.15153064 -0.30221072
0.1941992 -0.34157065 -0.040950593 -0.047379196 -0.05186251 0.03536617 0.18751666 -0.069542326

linear1.bias f4 [256]
00000000: 6c4f 063f a24f a53e 0406 3b3e 5278 053b
00000010: 13cd a7bd 3b47 173f 61ef 00be 908e b8be
00000020: 2ec9 3fbc 8aea 6c3f 54e0 55bd 8cd7 ac3e
00000030: 454f 08be de25 6c3e 8e56 213f 988b 5cbd
00000040: fb1a 23be c14e 763d ca4e a83e e981 703f
00000050: 5c76 2ebe b3cf d43d ec97 b93e 72d8 cb3e
00000060: 7b7d 00be f156 2fbd bd9d 513d ece0 f0bc
00000070: 5b82 633e f3b2 953e f615 23bd 66a2 49bd
00000080: f2f8 193f 12e8 d03d efa3 383f 337c 413f
00000090: 72f5 cabd c8ff 6a3f 5102 d3bd 1864 013f
000000a0: da2e 433f ab2a 553e 1c92 293f 566e a5bc
000000b0: 8434 a5be 90a6 8e3f c863 ae3e 6fb0 08be
000000c0: a399 8dbd 7121 053f d6db 5bbe 2db6 32be
000000d0: 8468 a83e 10bf 063e 3d95 2b3e 3cda 9e3e
000000e0: c47a 103e 286b 133f 16e5 8f3e 49b8 763e
000000f0: 1443 a23e 8536 84be a992 203f 63d2 413f
00000100: 0664 1c3f ef22 353e 4374 4dbe e439 c83e
00000110: db5b f8bd 3b48 b3bd 67a0 94be 4439 993e
00000120: 57df 203e 5925 243d 9c88 7abe 078b 623e
00000130: 9cd9 2e3f b5b9 713e 4e80 e83e 82a9 11be
00000140: 482a 65be 7254 22be 607f 5c3d 5e15 96bd
00000150: a4c0 003f 79a4 9fbe 4f40 e23e dded 33be
00000160: 6067 9cbd 5fcf c13e 45ae 53be 2d60 64be
00000170: 7d55 973d 7edc 8e3e fe83 3f3f ecee 903e
00000180: e97f 283e 8abd b7bd 9168 d23c 45af 563d
00000190: fe42 023f 26f9 69be 5fbd 6bbe 6814 87be
000001a0: 4ad8 a63c 37ee 723e 987e 653f 56f8 8cbc
000001b0: d42c 4ebc b13d 003f 35fb 48be 8ab5 99be
000001c0: d897 c1bd f252 cc3c 0414 773e 201d 173f
000001d0: e0f0 c4be f89e 26be dd39 333e 531f 2e3f
000001e0: abc6 013e a6a9 ac3d f8fb 2d3f a2ce 5e3f
000001f0: 89b2 b4be 1228 033c adbf 063e 21d5 233f
00000200: cb28 003f 1597 eb3e 793f 973e 39dd 9fbe
00000210: e219 61be 00da babd dcaf 133c 952c d8bd
00000220: bb55 b53e d883 2bbe 0b8a d6bd 875f 1dbe
00000230: 0a66 593f a9be a0bd 2136 0c3e b54c d2bd
00000240: d00c b83d 23b7 eb3c fccd 96be f767 71be
00000250: 7bbc 29be b2a0 3dbd 95b7 e03e 0579 d7bc
00000260: 6521 683e b1e2 053e 7f7a bc3c 959c 69bd
00000270: 9514 4d3f 4708 d6bc e667 143e a925 5cbe
00000280: 81a8 403e 46e5 82be c53a 30bd d02f bf3d
00000290: 9240 953e 68e9 f2bd d1bc f93e 22d8 8a3e
000002a0: 0732 63bc 0b7a ca3e 434c 163e 83c6 303f
000002b0: d7fd 973e ac0d 213f bff4 c23e b30c 603d
000002c0: 475e 53bc 0475 d53e 537d fb3c b638 92bd
000002d0: 2956 afbe 8d82 8d3d 9041 94be 8089 363f
000002e0: 8cfe 703e 3639 433e 89a3 92bc f3ef d43d
000002f0: a836 113f 74ad e23e b97f 1bbe 6bfd 403f
00000300: a2da 6a3d 6f83 ee3e ecaf 57be 6e33 6fbe
00000310: 2065 c5bd b8b7 6d3f dc04 863f 6226 593f
00000320: 3f92 97be bcff 373e 201f aebe bf2d 223f
00000330: 1f5d 123f 9deb 61bd 13bb fbbd 35d3 0c3d
00000340: 83a4 bd3e 50ea 383f a4c5 7cbd d4c8 b93e
00000350: 61ee a23e 2fe8 11be 0b95 293f 1378 833f
00000360: 111f 913e 8ea0 083f e1d6 1fbc e529 f53e
00000370: 70fc 333f c60b 063f 2775 58be 8a59 d43e
00000380: 97e7 5e3f 0523 ea3e a042 093f d0ec b03e
00000390: 7960 d73e e052 9c3d e936 3a3d c8fd 7c3e
000003a0: ca97 133f 1827 8e3e e101 0d3f 17f8 1d3e
000003b0: e5a2 463e 1af5 6c3e 5bb6 a33f 06c0 e73d
000003c0: b793 d53e 3a2d 153e feb9 7d3e 4b83 b3be
000003d0: a694 883d a071 b63d 3a4d b83e e233 14be
000003e0: ca20 333f 88db de3e ed86 fabd 543b bdbd
000003f0: 16ca f83e da6d 86be 43c0 b23d 9c33 c63e
0.5246494 0.32287318 0.18264014 0.0020365906 -0.08193412 0.59093064 -0.12591316 -0.36046267
-0.01170568 0.9254538 -0.05221589 0.337582 -0.13311489 0.2306132 0.63022697 -0.053844064
-0.15928261 0.0601337 0.3287261 0.9394823 -0.17037338 0.10391178 0.3624872 0.39813572
-0.12547867 -0.042807523 0.05117582 -0.029404126 0.22217695 0.2923809 -0.039815865 -0.04922714
0.60145485 0.10200514 0.7212514 0.7558014 -0.09910096 0.9179654 -0.10303176 0.50543356
0.76243365 0.20817058 0.6623857 -0.020194214 -0.3226663 1.1144581 0.34060502 -0.13348554
-0.069140695 0.5200415 -0.2147058 -0.17452307 0.3289224 0.13158822 0.16756149 0.31025875
0.14109331 0.5758538 0.28104466 0.24093737 0.31691802 -0.25822845 0.62723786 0.7571165
0.61090124 0.17689107 -0.20063882 0.39106667 -0.12126895 -0.08754011 -0.29028627 0.29926503
0.15710197 0.04007468 -0.24466175 0.22123347 0.68300796 0.23605998 0.4541039 -0.14224818
-0.2237941 -0.15852526 0.05383241 -0.07328294 0.50293946 -0.3118017 0.4418969 -0.17571206
-0.07636905 0.37853524 -0.20671947 -0.22302313 0.073893525 0.27902597 0.7481078 0.28307283
0.16455044 -0.089716986 0.025684627 0.052413244 0.5088347 -0.22848949 -0.23021458 -0.26382756
0.020366807 0.23723684 0.8964629 -0.01720826 -0.01258393 0.50094134 -0.19627078 -0.30021316
-0.0945279 0.024941895 0.24128729 0.59028816 -0.38465023 -0.1627158 0.17502542 0.68016547
0.12673442 0.08430795 0.679626 0.87034047 -0.35292462 0.008005159 0.13159056 0.63997084
0.50062245 0.46013704 0.29540613 -0.31223467 -0.2198253 -0.091236115 0.009014096 -0.10555378
0.3541697 -0.16749513 -0.10475548 -0.15368472 0.84921324 -0.078488655 0.13692524 -0.10268537
0.08986819 0.02877385 -0.2945403 -0.23574816 -0.16575806 -0.04629583 0.43890062 -0.026302824
0.22668989 0.13074757 0.02300763 -0.057034094 0.8010953 -0.026126994 0.14492759 -0.21498741
0.18814279 -0.25565547 -0.043024797 0.093352914 0.29150826 -0.11860925 0.48776868 0.2711802
-0.013866908 0.39546236 0.14677529 0.69052905 0.29685852 0.62911487 0.3807735 0.05469961
-0.012900895 0.41690838 0.030699408 -0.07139723 -0.34245422 0.06909666 -0.2895627 0.7130356
0.23534602 0.19064793 -0.017900245 0.10397329 0.56724024 0.4427296 -0.15185441 0.75386685
0.05733741 0.4658465 -0.21063203 -0.23359463 -0.09638429 0.9285846 1.0470233 0.8482419
-0.29603764 0.17968649 -0.34008121 0.63351053 0.5717334 -0.05515634 -0.12291541 0.03438111
0.37039575 0.7223253 -0.061711922 0.36286032 0.31822494 -0.14248727 0.66243047 1.0271019
0.28344014 0.53369987 -0.009755821 0.47883525 0.70307064 0.52361715 -0.2113844 0.41474563
0.8707213 0.45729843 0.53617287 0.34555674 0.4206579 0.07632995 0.045462523 0.24706185
0.57653487 0.277642 0.5508099 0.1542667 0.19398077 0.23140374 1.2790025 0.113159224
0.4171426 0.14568034 0.24777982 -0.35061106 0.066689774 0.08908391 0.3599642 -0.14472917
0.6997191 0.43526864 -0.12232766 -0.092398316 0.4859168 -0.26255685 0.08728077 0.3871125

linear2.weight f4 [4, 256]
00000000: 58b8 123e 5fb0 f83d f492 713d e6e4 9b3d
00000010: c915 a03d 8cde 993d df79 a03d 2663 9b3b
00000020: 48b3 ba3d a2d5 013e de58 b83c e38d b73d
00000030: 738a 25bb 6649 e33d 771d 323e 3a4a 293d
00000040: b26e ca3d 7caa d73d 030a a73d 918f 183e
00000050: 1ddf 5fbc 37e7 1b3e 9e14 003e d205 fd3d
00000060: 950b f23d 4f65 463c c11b 943d a58a 393d
00000070: e6c5 b43d 6073 fd3d e313 243d dec3 d13d
00000080: c206 0b3e 013a 1e3d fa88 0e3e 1453 d33d
00000090: e5c4 883d ba4a ec3d 77eb a23d 7f84 183e
000000a0: ee59 043e 61d6 e93d 3403 183e 253e ee3d
000000b0: 88ac 773c 8647 1e3e e06a 7b3d 2f1f f13d
000000c0: f272 003e c7ef ed3d 769e a6bc 8e3a bebb
000000d0: 4c0b 9a3d 558e 293e 542a 0d3e 0c99 d83d
000000e0: 9780 6d3d 18c2 0f3e ae08 8b3d f986 353d
000000f0: 9503 6a3d 3a7f a23d 5623 0e3e 2b96 d93d
00000100: 4363 e93d 9630 ca3d a9c4 533d f103 c83d
00000110: 5abf 843d 1702 213b 32ff 803d 70a8 8c3d
00000120: c803 883d 7ed1 2e3d 8325 c63d ca1e 1b3d
00000130: 4903 0b3e 5741 1c3e 5661 983d a495 a53d
00000140: 8b09 3b3d e476 cc3d f7b0 cf3d 79f2 083d
00000150: ef7b a73d f991 38bd 6a99 f93d 4fca 783d
00000160: 94fb 173d 22d7 5a3d 98b9 ae3c f4ab a43d
00000170: 23a5 333d 6cc1 773d f089 053e 6492 513d
00000180: 1b97 ec3d a1aa 14bd 8be0 dc3d 5e28 883c
00000190: 5b67 bf3d 9956 8c3b 46f7 473c 5744 da3d
000001a0: b6c5 193e 192a 803d 1ffa dd3d dd5b 5c3d
000001b0: 05ab a13d 575f 5a3d dcb1 78bc 4618 76bc
000001c0: 1158 403d 3a12 523d cf6f 803d cb0d da3d
000001d0: 8b04 c63c d2b3 323d 4db9 453d 10f4 173e
000001e0: 37bb d73d 1d93 d23d 14a0 093e e21d 463e
000001f0: 5f97 b9bc 19da 353d 2e70 1c3d 8739 f03d
00000200: d66c c33d 4f3f bd3d 4f80 ca3d 843a a33d
00000210: 979f 91bc c18f a83d 2645 d13d f41e 3f3c
00000220: b4ee f93d 4e46 623a 1dfc db3d d2ed 323d
00000230: 2236 f93d 9753 623d e750 573d 6c8f f13d
00000240: d081 d23d cbea 093e 1241 1e3d f7bc 3d3b
00000250: 61fa ae3d 3b01 833d fbd7 463d 1a86 983d
00000260: b9d2 023e 2525 063d f887 b63d c4e7 983d
00000270: 65cb c23d c6b8 a63c ca53 5c3d 6953 be3d
00000280: e8bd 633d 9b31 6b3d e149 bb3d bdab f63d
00000290: 6ed6 9a3d c584 a43d e86a bd3d 3f8d bb3d
000002a0: 81a6 923d 21c7 683d 21ff 0a3e e43c 8a3d
000002b0: 1b09 143d 98c4 bd3d a2b1 8e3d 19d1 aa3d
000002c0: 46d6 b33d e0f3 d23d de1e b13d 9e78 c13d
000002d0: 4c4f 8bbc 0179 d23d 0201 313d 463f c73d
000002e0: 8953 d33d f4cf bb3d 22ad c43d 5fc4 b33b
000002f0: 4f05 c23d b3da a73d 69ac de3d 0b8d 133e
00000300: 8640 953d 0e60 033e de1e aa3c a78f b43d
00000310: 9794 2abc 9f3f ea3d 68fd 143e 10b9 093e
00000320: d6bb 4abd 1b00 623d 5024 0a3c ca7a 0d3e
00000330: 35bc 173e 7b6c 10bb 3638 5c3d da53 013c
00000340: b1c9 7a3d 41fb 083e 2420 af3d 079b f83d
00000350: 9804 dc3d 05cd ba3d 0307 f63d 0c91 0e3e
00000360: 0ed9 c13d 91f6 ac3d 77c8 853d 8180 a53d
00000370: eb31 0f3e 5dd3 033e 4ed4 993d 271f 7a3d
00000380: 7520 103e 3ac0 ba3d bc15 293e 30e1 f43d
00000390: ad1d 003e e8fc a13d b15c 9b3d 62f9 ad3d
000003a0: da1a 763d 7120 c13d 4a71 353e 56c7 123d
000003b0: 879f e33d 176b bf3d 09b4 073e 0fd3 8c3d
000003c0: a5b4 2c3e c336 f83d d84d 003e 7c29 923d
000003d0: 5529 f53b 4519 833d bd87 0c3e db7f 5b3d
000003e0: 4457 053e 456b 363e c1ca 363d 12f5 1a3d
000003f0: e0ff a93d f9f4 363d 3a0c 0d3d 54d6 ce3d
0.14328134 0.12143015 0.058978036 0.07612018 0.07816655 0.075131506 0.07835745 0.004742044
0.091162264 0.1267915 0.022503313 0.089626096 -0.0025259524 0.11097984 0.17394052 0.041330554
0.09884395 0.10530564 0.081562065 0.14898516 -0.013664034 0.1522492 0.12507865 0.12354626
0.11818615 0.012109115 0.07231856 0.045298237 0.08826809 0.12375522 0.040058028 0.10242437
0.13576797 0.038629536 0.1391944 0.1031858 0.0667818 0.115376905 0.079550676 0.14894293
0.1292493 0.11417843 0.14844972 0.11632947 0.015116818 0.15456972 0.06138122 0.11773526
0.12543848 0.116179995 -0.020339232 -0.00580532 0.07521686 0.16558202 0.13785678 0.105760664
0.05798396 0.14038885 0.06788765 0.044318173 0.057132322 0.07934423 0.13880667 0.106243454
0.11395886 0.09872548 0.05170122 0.09766377 0.0648181 0.0024567896 0.06298675 0.068680644
0.06641346 0.042680256 0.096751235 0.03787116 0.13575472 0.152593 0.0744044 0.08085182
0.045663398 0.09983614 0.10141175 0.033434365 0.08177935 -0.045061085 0.121874645 0.06073981
0.037105158 0.053427823 0.021328732 0.0804061 0.04385866 0.060487196 0.130409 0.051165
0.115522586 -0.036295537 0.10785016 0.016620811 0.09345885 0.004282784 0.012204951 0.10657566
0.15016827 0.062580295 0.108387224 0.053798545 0.078939475 0.05331358 -0.015179124 -0.015020436
0.046958987 0.051286913 0.06271326 0.10647162 0.024172088 0.04362852 0.04827242 0.14839196
0.10533755 0.10281966 0.13439971 0.19347337 -0.022655187 0.044397447 0.03819292 0.117297225
0.09542243 0.09240591 0.09887754 0.07970145 -0.017776294 0.08230544 0.10218267 0.011665095
0.12203732 0.0008631692 0.10741446 0.043683834 0.12168528 0.0552555 0.05256739 0.11794934
0.10278666 0.13468473 0.038636275 0.0028951743 0.0854385 0.06396719 0.04854582 0.07447453
0.12775697 0.032750268 0.08912653 0.07466081 0.09511451 0.020351779 0.053790845 0.09293253
0.05560103 0.057420354 0.09144951 0.12044475 0.075604305 0.08033136 0.092489064 0.091578
0.07160664 0.05683053 0.13573886 0.06749895 0.036141496 0.09266013 0.069674745 0.083406635
0.08781104 0.10300422 0.086484656 0.09446834 -0.017005585 0.10276986 0.04321385 0.09728865
0.103186674 0.09170523 0.09603335 0.0054860557 0.09473669 0.081960104 0.108727284 0.14409272
0.072876975 0.1282961 0.020766672 0.08816462 -0.010411403 0.11437916 0.14549792 0.13449502
-0.04949554 0.05517588 0.008431509 0.13816372 0.14817889 -0.0022037316 0.053764544 0.007893527
0.061227504 0.13377096 0.08551052 0.12138944 0.10743064 0.091211356 0.12013056 0.13922518
0.09465228 0.08445466 0.06532376 0.08081151 0.13983886 0.12873597 0.07511197 0.061064865
0.14074881 0.091186956 0.16512197 0.119570136 0.1251132 0.07909566 0.07586039 0.084948316
0.0600842 0.09430016 0.17718998 0.035834633 0.11114412 0.09346598 0.13252272 0.06876194
0.16865785 0.1211982 0.12529695 0.07136819 0.007481734 0.06401304 0.13723655 0.05358873
0.1302157 0.17814358 0.044626955 0.037831374 0.083007574 0.044667218 0.03443549 0.100994736

linear2.bias f4 [4]
00000000: feeb 033e b098 dc3d 77a9 923d cc13 913d
0.12882993 0.1077131 0.07161229 0.07083854
