model/model.pth (torch, 27456 bytes, 4 tensors)

linear1.weight f4 [256, 20]
00000000: 8b74 b13d b1b9 50be 5a3d 163d 917a 493e
00000010: 313e 4d3e 7774 16be 8a8e 0e3e b9b4 83bd
00000020: 4292 1abe 429e 6d3d 88c8 8dbe 826f 01be
00000030: 113b 5c3e d4b7 59be 0eae bfbc 3b31 393e
00000040: 812f 40bd 1d7f 813e 6fe9 203d 5be3 8fbd
00000050: 2c3c 68be 5218 043e 00d6 123e 9a40 803c
00000060: fa78 983e 1575 64be ec69 2a3d 305e 1f3e
00000070: e2a8 1e3e 3969 1ebe e2c8 d5bd 0474 463d
00000080: 072c 833d eaf2 6a3d f080 40be 75d6 173e
00000090: 25ef c03d 7f36 74bd 293a 5c3d ecab 1c3e
000000a0: 12ed 273e 1db5 823d 5035 2b3e c984 bc3d
000000b0: 9cc2 2a3e 3596 aebd 7e94 4abe 75ea 873e
000000c0: 0916 1fbd 56df 233e 4c53 f4bd e928 46be
000000d0: 97aa 413d d63a 5a3e bb0d 3a3e 327b 02bd
000000e0: d21f 633b a222 6d3e 4b09 743e 8310 983d
000000f0: 0fc8 81be 8ab9 a1bd e8be 85be ea89 8fbd
00000100: f7fa 81bc eb3d 81be 08c4 6cbc c03d 5e3e
00000110: 3501 8c3b 6bcb 9a3d 126a 4c3e e18e 1cbe
00000120: a9d6 883d 7a44 683d 1469 8fbe 6a04 69be
00000130: b4df 85be 5245 483e 7ddf cebd 8e56 4bbe
00000140: d90a 12bd f29c 4abe 54e5 823e d46c b0bd
00000150: 0148 27bd 80f3 c0bd 49cd 54be a992 413e
00000160: dc93 8dbe 26c6 703d 7fa3 25be e009 113e
00000170: 96ae 3d3d cd85 98bc ed3f 37be 4078 5ebe
00000180: 1616 203d 36f0 22be d153 6ebc 30de 5a3e
00000190: 1f0b 3cbd c64a e1bd 1c0e 62be d0bc 84be
000001a0: 8288 653e e907 31bc 341d b2bd cbc9 46bd
000001b0: 3e01 eb3c 5610 f43d 9a60 3f3d e5ca 19be
000001c0: 73e3 1c3e f949 92bd 3d14 5b3e 11d2 adba
000001d0: d5da 893d f89d f9bd 94f2 0dbe 2bfb 1d3e
000001e0: 8159 6fbe ec89 5dbe d779 4d3e a01d c33d
000001f0: 6e95 1dbe d15c d9bd 71ae 193e 29a6 10be
00000200: b67d e83c 8dab ca3d 1e34 6ebe 62e6 01be
00000210: b76a 29bd edea fabd 77d6 0c3e 7d7d ab3d
00000220: a501 45be cd73 bdbc 7c46 053e 190a 9abd
00000230: 7e03 013d 2991 b43d ac90 5cbe fe56 93bc
00000240: 48c6 7ebd ef51 85be ff36 7b3e ff09 b0bd
00000250: e849 64ba 6a19 1ebd 3e12 763d 3bd9 253e
00000260: 3502 40be 1117 493d 9246 a5bd e3a2 393e
00000270: 0d84 01bd 19a4 ac3d b842 1a3e 2dee efbd
00000280: 9022 e53d d1a9 773e 935a 11be 5499 e6bd
00000290: 19d6 2bbd 21ad 243d 0df8 ac3e c3d5 dabd
000002a0: 4d22 09be 8c82 9f3c 2091 c83b b2ca 0e3e
000002b0: 6b89 23be 0705 27bc 367f 2fbd c8bf 1fbe
000002c0: 8a83 10be e049 9f3d 100a ffbd 075f 2fbe
000002d0: 1b3b 853d 09fc 7c3d b250 07bd e99e 03be
000002e0: 5269 2cbe 2aa9 8c3e a73d f4bd 87f9 69be
000002f0: 4db0 85be c81c 81bd 3734 51bb 0f2e dcbd
00000300: 29e5 683e 1e0f bd3d 0dd3 e23c 4903 6b3d
00000310: b2bd 46be 3d8e a3bc 2952 533b 8ca9 fcbd
00000320: efd0 493e 1d46 123e a820 6bbe 71f7 9a3d
00000330: ed91 16bd 78d4 8c3d 8e4c 8ebd 9dee 3fbe
00000340: 32f9 123a d2cc 17bd 448f 81bc 7be0 193e
00000350: de72 1ebe c462 ee3c 008a 463e 37e4 a0bd
00000360: 4e10 213e 143a aabd 65ff 94bd 0751 9b3c
00000370: bd62 0abe d49c 923e 818e 9bbe 360c 323e
00000380: 0a71 a0bd 3b7f 753c ff3d 87bd 144f 1b3e
00000390: 1b7b 32be 48eb f03d a7a1 b9bc e302 1cbe
000003a0: 173d 0d3e 93ee 18be 5de6 15bd f2c7 01be
000003b0: 8725 2c3e 3a31 34be e7b6 f73d 7b92 48be
000003c0: 3995 10be bc24 6cbc eeae 88be 0969 57be
000003d0: 886b f93d e772 87be 0f8c 1d3e 0d40 8e3e
000003e0: e43c aa3c e9b0 5a3d 2e0b 03bd d3c1 46be
000003f0: e8a2 123e 462f 903c 5dde c4bd f5d8 3bbd
0.08664807 -0.20383336 0.036679603 0.19675662 0.20043255 -0.14692865 0.13921562 -0.064309545
-0.15094855 0.058012255 -0.27692056 -0.12640193 0.21506907 -0.21261531 -0.023398425 0.18085186
-0.046920303 0.25292292 0.03928512 -0.070257865 -0.22679204 0.12899902 0.14339447 0.015655804
0.29779798 -0.22310288 0.04160492 0.15563273 0.15494111 -0.15469827 -0.10438706 0.048450485
0.06404882 0.057360567 -0.18799186 0.14827903 0.09420613 -0.059622284 0.053766403 0.15299958
0.16399029 0.06382201 0.16719556 0.09205014 0.166758 -0.085247435 -0.19783208 0.26546064
-0.038839374 0.16003165 -0.1192995 -0.19351543 0.047281828 0.21311507 0.181693 -0.03185577
0.0034656418 0.23157743 0.2383167 0.07425024 -0.25347945 -0.07896717 -0.26122212 -0.07008727
-0.01586674 -0.25242552 -0.014451034 0.21703243 0.004272605 0.0755833 0.19962338 -0.15288879
0.06681568 0.05670593 -0.28009856 -0.2275559 -0.26147234 0.19557694 -0.10101221 -0.19857237
-0.035654876 -0.19786432 0.25565588 -0.08614507 -0.040840153 -0.09421444 -0.20781435 0.18903603
-0.2765187 0.05878272 -0.1617565 0.14163923 0.046309076 -0.018618489 -0.1789548 -0.21725559
0.039083563 -0.15911946 -0.014546351 0.2137382 -0.045909043 -0.1100059 -0.22075695 -0.25925303
0.22415355 -0.010805109 -0.08696976 -0.04853229 0.028687116 0.11917178 0.046722986 -0.15018804
0.1532114 -0.071430154 0.21394439 -0.0013261457 0.06731192 -0.12188333 -0.13862067 0.15427844
-0.23373987 -0.21634644 0.2006601 0.09527135 -0.15389034 -0.106134064 0.1500795 -0.14125885
0.028380256 0.09896002 -0.23262069 -0.1268554 -0.041361537 -0.1225184 0.13753687 0.08373544
-0.19238909 -0.023126507 0.13015169 -0.07521457 0.03149747 0.088167496 -0.21539563 -0.017985817
-0.062200814 -0.26039073 0.24532698 -0.085956566 -0.00087085227 -0.038598455 0.06007599 0.16196148
-0.18750842 0.049094263 -0.08070101 0.18128543 -0.031620074 0.08429737 0.15064514 -0.1171535
0.11188233 0.24185874 -0.14194708 -0.11259714 -0.041952226 0.04020417 0.33782998 -0.10685303
-0.13391991 0.01947143 0.006120816 0.1394451 -0.1597039 -0.01019407 -0.042845927 -0.15600502
-0.14112678 0.077777624 -0.12453091 -0.17126094 0.06505414 0.061763797 -0.03303594 -0.12853588
-0.16837052 0.27472812 -0.11925822 -0.22849093 -0.2611107 -0.06304318 -0.0031921992 -0.107509725
0.22743668 0.09231399 0.027688527 0.05737618 -0.194083 -0.019965285 0.0032245016 -0.12337026
0.19708608 0.14284559 -0.22961676 0.07566727 -0.03676026 0.06876463 -0.069481954 -0.18743367
0.0005606591 -0.037060566 -0.015815385 0.15027039 -0.15473506 0.02909983 0.1938858 -0.078560285
0.15728876 -0.08311859 -0.07275275 0.018959535 -0.13514228 0.28635275 -0.3038216 0.1738747
-0.078340605 0.014983947 -0.06603622 0.15166885 -0.17429774 0.11763626 -0.02266009 -0.15235476
0.13792835 -0.14934759 -0.036596645 -0.1267393 0.1681119 -0.17596903 0.12095433 -0.19587128
-0.14119424 -0.014413055 -0.2669596 -0.21036161 0.12178713 -0.2645485 0.1538546 0.27783242
0.020780988 0.05339137 -0.031993084 -0.19409876 0.14319956 0.017600667 -0.09612725 -0.045861203

linear1.bias f4 [256]
00000000: 156a 5f3f 5e36 b73d 089d 8fbd e17d c03c
00000010: 323e 1c3f 189b 043f 7e48 903d 49ae 073e
00000020: 410b c23e 2b4a c23e 8f35 15bc d44a 4b3e
00000030: 6452 e83e 2383 5cbe e04a ffbd b73a dc3e
00000040: 555d babe 03e0 6e3e b30a af3e 4ba8 963e
00000050: 96bf d33e 352d 153f 4079 1c3f 6317 88be
00000060: 7299 8a3f f74c f43e a124 783f 43d4 21be
00000070: 770e 90bc 04f0 8b3e a14c 613e 53bb 9bbd
00000080: 304f 653f 2f85 963d 6887 d2be c56c 653e
00000090: 7165 ce3e f315 52be 2e59 03be 2ead 163f
000000a0: 9242 ee3e fa6d e2bd 3a2f 293f 58f7 64be
000000b0: e785 113f b23b 3c3e bf04 58bc 4617 513e
000000c0: 2321 903f e883 ad3e d3af 01be d931 3a3f
000000d0: fbc9 86bd 08d0 de3e ac18 90be acfe a63d
000000e0: 7897 e53d 4511 cf3e a0d0 003e 8f68 b93e
000000f0: 206d 503f ca0f 583f 0c29 4f3e bcd3 6e3d
00000100: a959 95be 8fb7 6d3f 09db 24be 29ec bc3c
00000110: 8799 c73c 37e6 033e d2d4 f93e df81 8abd
00000120: ff75 0f3d fdb0 2d3f c503 15be 6d6d a53d
00000130: e3ef bf3e d5d4 d43e 1671 0bbe 032e 20be
00000140: 19cd 293e 0673 da3e b971 e73d 1b44 2c3f
00000150: 8aa5 b83e c9c1 863e 7dda 273f 44a9 533f
00000160: 973d 46be 9ea2 e63e 4e55 393e 3588 a43e
00000170: f593 f83e 745c 043f 3efd 1c3f 15c5 333e
00000180: e3ba 423d 3221 8d3d dbe1 7a3d 32fe 8e3e
00000190: da46 883e a701 34be 5b08 9e3e b94c ce3e
000001a0: f0ad 5c3c ed62 db3e d221 afbe c287 083e
000001b0: ae1c 7a3e bca9 143f 0be6 bb3e d7b0 803d
000001c0: acb0 6e3e 11c9 8d3e ec22 733e ee0f 583e
000001d0: b1e8 033f 0448 9abe f5eb ae3d f6b4 84be
000001e0: bf58 303e 6f31 c0be d5bf 4e3c 0f42 2f3f
000001f0: 8f12 4e3f 66dd ee3e 7985 13ba 200b 9b3e
00000200: c053 f9bb a59e c43d 52d2 973e 7c86 6f3d
00000210: 7e09 b63e d1f6 e8bb b49f 3b3d 0c86 783d
00000220: 439b 1c3f 8918 923c 71cb 063f 67e1 88be
00000230: d53d 693f a026 94bc a238 8f3e 73fa e53e
00000240: de09 523f 9696 223f 258c ef3d 0dbe 26be
00000250: 03fd 013f 17a6 0a3f 9b7b 4bbe 814b 663e
00000260: 7f09 173f e760 1bbe 1a08 0a3f 52ee ed3d
00000270: b750 2a3f d65a 2b3f 1d6d 223e 6f8b 10be
00000280: 0212 653e ba4b 073f cf82 5abd a47d 023f
00000290: 3d40 bcbe d554 233e ba80 1abe f977 e13e
000002a0: 25e0 843e ec78 4d3e 9366 ad3d b761 043f
000002b0: d5d0 3bbe 61a4 f1bd cd63 bb3e 53df ac3e
000002c0: 826c a83e 61ae 243f 30d6 193f 84b3 d63e
000002d0: e5e4 5a3e 9e10 933e 2675 043f eff4 243f
000002e0: 365d 823e 9a1d 69be badb 49be bdc2 a33e
000002f0: 9603 1a3d af08 6abe ba39 e23d 8b44 383e
00000300: 92cc 57be 96b5 7cbc c678 d1bd b1e2 87be
00000310: 1fd5 e33e 4872 113f 4e6e c63e fc8d bb3e
00000320: 666c 1c3e 41ee a63e 8f8c 103f d10b 61be
00000330: b877 e03e 1564 293f b6c2 6b3e 9c95 123f
00000340: e904 023f 93a7 0fbb d729 7fbe 1d9b 453e
00000350: a664 a9be b931 f7bd c715 5d3e 049e 813f
00000360: b1b2 17be 7f1d 9c3e 6fa4 633e 37f4 8cbe
00000370: d685 0b3e dd8c 753e afa1 f63e 6c09 8b3e
00000380: c49e af3d 669f 0d3f 2b3a 4bbe fa0b 123f
00000390: bb39 9dbe 6f0e 123c dccc 8f3d 8baa b83e
000003a0: 220d e33c 27a5 633e f087 39bd 21e9 023f
000003b0: f1b8 d83d d476 813d 4ec7 fd3e 3997 3c3e
000003c0: a0dc 093f fc4e 783e 0234 033f 9060 673e
000003d0: 1c01 0b3f c3f5 b23d f771 933e 3c13 81bd
000003e0: cc70 29be b2e3 85bd 7297 8fbb e78d 2a3d
000003f0: 38c6 153f 761d ad3e f89a 4ebe 8cad 773e
0.87271243 0.089459166 -0.07012373 0.023497524 0.610324 0.51799154 0.07045077 0.13250078
0.3789921 0.3794721 -0.009107008 0.19852763 0.4537536 -0.215344 -0.12465453 0.43013546
-0.36399332 0.23327641 0.3418785 0.29425272 0.41357106 0.58272105 0.6112251 -0.26580343
1.0828078 0.4771497 0.9693089 -0.15803628 -0.017585022 0.27331555 0.22001888 -0.07604089
0.89573956 0.073496215 -0.41118932 0.22404774 0.4031177 -0.20516185 -0.12826988 0.58858
0.46535164 -0.110561326 0.66087687 -0.22359979 0.56844944 0.18382147 -0.013184725 0.20419034
1.1260113 0.338897 -0.12664728 0.7273231 -0.065814935 0.4351809 -0.28143823 0.081540436
0.11210531 0.40442863 0.12579584 0.36212584 0.8141651 0.8439909 0.20230502 0.058307394
-0.29169968 0.92858213 -0.1609918 0.023061829 0.0243652 0.12880789 0.48795182 -0.06763052
0.03502464 0.6784819 -0.14552219 0.08077512 0.37487707 0.41568628 -0.13617358 -0.15642552
0.16582145 0.4266588 0.11300988 0.6729142 0.36063796 0.2631972 0.6556776 0.82680154
-0.19359432 0.45045942 0.18098947 0.32135168 0.48550382 0.5170357 0.61323917 0.1755565
0.04754151 0.06891097 0.06125055 0.2792831 0.26616555 -0.17578755 0.3086575 0.4029291
0.013469204 0.42848912 -0.3420549 0.13333037 0.24425003 0.58071494 0.36698946 0.062837295
0.23309582 0.27692464 0.2374379 0.21099827 0.51526934 -0.3013307 0.08541099 -0.25919312
0.17221354 -0.37537715 0.0126189785 0.6846017 0.8049707 0.4665329 -0.0005627494 0.30281925
-0.0076088607 0.096005715 0.2965265 0.058477864 0.35554117 -0.007109501 0.0458066 0.060674712
0.6117441 0.017833965 0.52654177 -0.26734468 0.91109973 -0.018084824 0.27972895 0.4491764
0.82046306 0.63511026 0.11696652 -0.16283436 0.5077669 0.54159683 -0.1987137 0.2248974
0.58998865 -0.15173684 0.5391861 0.116177216 0.6652941 0.6693548 0.15861936 -0.1411569
0.2237015 0.52849925 -0.053347405 0.5097296 -0.3676776 0.1595033 -0.15088168 0.44036844
0.2595226 0.2006566 0.0846683 0.517116 -0.18341382 -0.11798931 0.3659958 0.33764133
0.32895285 0.6432858 0.6009245 0.41933835 0.21376379 0.28723615 0.51741254 0.6443624
0.2546174 -0.22765198 -0.19712725 0.3198451 0.037601076 -0.22854875 0.11046167 0.17994897
-0.21074131 -0.015424153 -0.10228114 -0.2654014 0.44498536 0.56815004 0.3875603 0.36631763
0.15275726 0.32603648 0.56464475 -0.21977164 0.43841338 0.6616834 0.23023495 0.57259536
0.5078874 -0.002191995 -0.24918304 0.19297452 -0.330846 -0.12070031 0.21590339 1.0126348
-0.14814259 0.30491254 0.22230695 -0.2753007 0.13625273 0.23979516 0.4817023 0.27155626
0.08575204 0.5532135 -0.19846408 0.57049525 -0.30708107 0.008914574 0.07021496 0.36067614
0.027716223 0.2223097 -0.045295656 0.51136976 0.1058215 0.06321493 0.4956612 0.18417062
0.5385227 0.2424888 0.5125123 0.2259543 0.5429857 0.087382816 0.28797886 -0.06302497
-0.16546935 -0.0653757 -0.0043820674 0.041639235 0.5850558 0.3381154 -0.20176303 0.24187297

linear2.weight f4 [4, 256]
00000000: 673f 253e c699 243d 3673 793d 07f4 4c3d
00000010: 23be ea3d b474 8f3d 518a 943d 5837 6e3d
00000020: 71b9 053e 0b70 bf3d 133d 9e3d eb15 ea3d
00000030: 45ed cf3d c220 b73c f5d8 0f3c 5cd7 a63d
00000040: c02b 0d3d d113 a93d dc69 d13d 388d 853d
00000050: b0e7 c93d 41e4 e63d 3523 ef3d 578a ca3b
00000060: 9d78 413e 906f e63d 1e59 283e 5902 23bb
00000070: d347 9d3d 5b49 d33d 0c0d 013e f09c 0c3d
00000080: 42f0 4d3e 1c68 ae3d 7068 113d fb7c eb3d
00000090: bbac bb3d e0ba b3bc 9b81 273d 37e0 093e
000000a0: edb4 e33d c44c 47bc b0c8 d63d 35e0 593d
000000b0: aa7f a43d 969f fe3d f6a7 fb3d 0979 f33d
000000c0: 0288 373e f426 ff3d a90a 723d 60cc 273e
000000d0: ae48 ad3d 1a82 ae3d f0b9 0b3d 58c5 b63c
000000e0: afb7 0b3d 7695 993d 1539 943d 1b77 8c3d
000000f0: 381b 063e d5c3 193e 548a ca3c 10af 7d3d
00000100: 270a f13c 4cb7 1f3e 8245 343d 0ed8 ad3c
00000110: 11d7 6e3d b86b 353d e1b1 e13d 9f38 333d
00000120: d6d1 cf3d 9d94 073e 4696 ad3d 0bd4 063d
00000130: bc87 dd3d a023 103e cee2 0d3d 4aa2 f33d
00000140: f009 613d 107a 043e 055c a63d 3dbb 193e
00000150: 7312 ba3d 0c8e c73d 0107 e03d 6343 183e
00000160: 511d fcbc 8de1 d13d d875 0a3e bf73 a63d
00000170: f6ac 953d 8c4e d63d 6942 ff3d 7198 963d
00000180: 08bd 783d 2d88 243d 8f6a 213c 614c 603d
00000190: d408 293d fd72 863d 48f1 863d f839 263e
000001a0: 8982 c03d 1b7b bd3d f7c9 fc3c 2a92 a63d
000001b0: 991a fb3d ac0d 143e 5df5 a93d 4ae2 6f3d
000001c0: 345c 843d decc fb3d 4b11 c83d 1458 823d
000001d0: 6af1 233e 7c84 2fba 3c7b 473d f0af 20bb
000001e0: f4ef 7a3d 24cc 70bb 3165 743d 1aa6 cb3d
000001f0: 7ef8 123e 0bef 0d3e 54fa 253d 6db8 863d
00000200: 8b0b 803d 6072 0f3d 804c c53d 88ef 663d
00000210: 0c83 013e bdd2 9a3c a1ce d23c 3530 fc3c
00000220: 73e9 fd3d b0a4 903d b0dc d03d 238e df3c
00000230: 107a 213e bd14 793d 48a8 883c ee47 a73d
00000240: d53e 2e3e 3132 b83d dcb6 cd3d 4eef 0b3d
00000250: 85e0 8d3d e415 003e 4b13 e2bc 4f64 7f3d
00000260: db11 d93d 6f8a 663b fa3c 113e 6885 fd3d
00000270: 4769 583e 5b57 d43d 13b1 583d 782a a93d
00000280: 2091 c63d 3db9 0d3e 8be0 ed3c 3199 1e3e
00000290: f315 34bc 3258 f73c 5775 913d 5a3b eb3d
000002a0: e288 6e3d 76bc f33d d3f3 003e 4988 883d
000002b0: dbb0 243d 1619 ca3c ca3a 113d 201a 0b3e
000002c0: 3c3f b33d a368 943d e374 c23d 1650 dd3d
000002d0: ccbc 123e c9a1 e23d a585 ea3d 845c 013e
000002e0: 2f55 763d 7c0e af3c 3e32 69bc 7595 cb3d
000002f0: ee55 9b3d a9e7 e43c 8450 d13d 9894 a03d
00000300: e56c 153d c92a 293d a32f 193d 3ab5 623d
00000310: 364f b43d f49f 0c3e 2d7e c53d 4ebe 4d3d
00000320: ee21 7c3d c0c5 813d bc9e 113e f4ef 063d
00000330: 2c1a d33d 4310 fb3d 5e5b 9b3d 9207 db3d
00000340: 6dd6 6d3d 45d8 c83d 0c9b 16bd e2e6 db3d
00000350: 2067 05bd 4d9e b03c f452 dc3d f530 3c3e
00000360: 96fc 5d3d 5069 c03d 55b3 9e3d eda0 80bc
00000370: 4d66 4c3d 4b8d f93d c963 9f3d b0db c23d
00000380: dab4 9f3d f960 ec3d fa1d ef3c 39f7 cc3d
00000390: fdbd 2bbc de4e 5a3c b487 ce3d 1501 a73d
000003a0: 07e9 8a3d 24e2 a23d 13d0 843d 3202 cb3d
000003b0: a3d4 c23d 8faf b23d fc9c 073e 80b8 a83d
000003c0: a184 153e fe8a ba3d 10de 893d 0b4c d53d
000003d0: b308 013e ca5f b93c 6266 9a3d a477 db3c
000003e0: 7d84 943d 1e4e fb3c 9ca7 8c3c dc1e 663d
000003f0: 72b1 173e bbc2 013e 0786 4a3d 1f6f 813d
0.16137467 0.040185712 0.06090089 0.05003741 0.11462047 0.07004681 0.07252944 0.05815825
0.13059022 0.093475424 0.07726493 0.11429962 0.101526774 0.022354487 0.008779754 0.08146545
0.03446555 0.08255733 0.10225269 0.06521076 0.09858644 0.11274005 0.11676637 0.006181042
0.18893667 0.112517476 0.16440246 -0.0024873225 0.07679715 0.10316726 0.12602633 0.034329355
0.20111182 0.08515951 0.03549999 0.114984475 0.09163805 -0.021939695 0.040895086 0.13464437
0.11118493 -0.012164298 0.10487497 0.053192336 0.080321625 0.12432782 0.122878954 0.1188832
0.17922977 0.124586016 0.059092198 0.16386557 0.08461128 0.08520909 0.03411287 0.022310898
0.03411072 0.074992105 0.0723745 0.06858655 0.1309632 0.1501611 0.024724163 0.06193453
0.029423786 0.15597266 0.0440116 0.021221187 0.058310572 0.04429218 0.11020256 0.04375517
0.10147445 0.13240285 0.08475928 0.032917064 0.10816905 0.1407609 0.034640126 0.118961886
0.054941118 0.12937188 0.0812302 0.15012832 0.0908555 0.0974389 0.10938836 0.14869456
-0.030775698 0.102480985 0.13521516 0.081275456 0.0730838 0.104642004 0.124638386 0.07353295
0.06072715 0.04016893 0.009852066 0.05476034 0.041268185 0.06564901 0.065889895 0.16233051
0.093998976 0.09251996 0.030858023 0.08133347 0.122609325 0.1445834 0.082987525 0.058565415
0.06462899 0.12294935 0.09768923 0.06364456 0.16010061 -0.0006695462 0.04870151 -0.002451893
0.061263993 -0.003674277 0.059666816 0.09943791 0.14352605 0.13860719 0.040521935 0.06578145
0.06252202 0.035021186 0.09633732 0.05638078 0.12647647 0.018899316 0.025733294 0.030784706
0.123980425 0.07062662 0.10198343 0.027289456 0.1576922 0.060810793 0.016681805 0.081680164
0.17016156 0.08993948 0.10044643 0.034163766 0.06927589 0.1250835 -0.02759709 0.06235152
0.10599109 0.0035177728 0.14183417 0.12378961 0.2113391 0.10368224 0.052903246 0.082600534
0.09695649 0.13840194 0.029037734 0.15488125 -0.010991561 0.030193422 0.07102459 0.1148593
0.05823601 0.119011804 0.12593012 0.06666619 0.040207725 0.024670165 0.035456456 0.13584185
0.087522954 0.0724652 0.094949506 0.10806291 0.14329833 0.11066014 0.11451272 0.12632948
0.06013983 0.021369211 -0.01423317 0.09940616 0.07584749 0.027942495 0.10220435 0.07840842
0.036480803 0.04130057 0.037398946 0.055348612 0.08804171 0.13732892 0.09643207 0.050230317
0.061555795 0.06336546 0.14220709 0.03294368 0.10307726 0.12258961 0.07585786 0.10694803
0.05806582 0.09806875 -0.036768958 0.10737397 -0.03256905 0.021559859 0.107580096 0.1837805
0.054195963 0.09395087 0.077490486 -0.015701735 0.04990225 0.121851526 0.077827044 0.09514558
0.077981666 0.115419336 0.029189099 0.100080915 -0.010482308 0.013324467 0.10084477 0.08154503
0.06782728 0.07953289 0.064849995 0.09912528 0.095132135 0.087248914 0.13243479 0.082383156
0.14601375 0.09108542 0.06731808 0.10414895 0.12600975 0.022628684 0.07539059 0.026790448
0.07251833 0.030676898 0.017169766 0.056181774 0.14813784 0.1267194 0.049444225 0.06320023

linear2.bias f4 [4]
00000000: d985 3f3e db65 1b3e a52f 063e 5c39 373e
0.18703403 0.15175574 0.13104112 0.17892975
