model/model0.pth (torch, 27464 bytes, 4 tensors)

linear1.weight f4 [256, 20]
-0.083508044 0.043570716 -0.2285977 0.0062142783 -0.008951092 -0.041501105 -0.061472613 -0.047986683
0.008204542 -0.081893995 -0.2956733 0.041647624 -0.107676744 0.17062654 0.06047866 -0.11425179
0.039035812 -0.002246847 -0.03841038 0.040338784 -0.060859594 0.0010215592 -0.120015495 -0.057166725
0.102774374 0.027236845 0.014130666 0.10533826 -0.126361 0.15215242 0.018627085 0.05972922
0.0844592 0.03289037 -0.05211313 -0.08991113 0.2197081 -0.16692813 -0.030272787 0.017773764
0.18102165 0.011142802 -0.0018442575 0.18295585 -0.011126348 -0.01262081 -0.005136289 0.16710143
0.07459027 -0.21163243 0.13621092 -0.0044291164 -0.1506798 -0.15647985 -0.07596542 -0.035863675
-0.086882904 -0.037976075 0.06771077 0.031784493 0.08549507 -0.0009076534 0.16557294 0.028113965
-0.0030759156 0.012614403 0.022231463 -0.019522585 -0.032398526 0.033201825 -0.13793053 -0.010924848
0.063292354 -0.0843268 -0.09867534 0.097673416 0.039896898 0.06493402 0.09459868 -0.018678755
-0.19305299 -0.017949205 -0.053982686 0.24868038 0.010466999 0.12430417 -0.1060029 -0.00838639
-0.07946823 0.0495021 0.12515408 0.09977474 -0.0033841876 0.017850429 0.06175026 -0.10695717
-0.026574835 -0.029259905 0.035618503 0.017118286 -0.035153545 0.08145157 -0.097556464 -0.051497065
0.093002774 0.0051571573 0.04257552 0.14057449 -0.16024806 0.14349812 0.14143585 0.070124924
0.041947305 0.0066416073 0.0026336424 -0.02877312 0.093257174 -0.1514903 -0.17586023 -0.09719333
-0.06885815 -0.0009830041 -0.061961744 -0.03638938 -0.047766645 -0.07041608 -0.19669396 -0.042569138
0.080305696 -0.13816342 0.10087122 -0.07906865 0.103692524 0.03971035 0.021841435 0.11424868
-0.14769259 0.050285082 0.16581064 0.073859505 -0.019397093 0.09789387 0.08984565 0.060841326
-0.025043104 0.087780334 -0.02034456 0.0070133153 -0.002822073 -0.10721934 0.011101314 0.25789866
-0.0011158647 0.06841548 0.06724372 -0.019930603 -0.078037605 -0.10750502 -0.14279436 -0.15871948
0.041380923 -0.13190751 0.17137086 0.044952128 -0.007370033 0.08124728 0.020453526 0.09788629
-0.1523155 -0.027657714 -0.027683571 0.06592981 0.099446625 0.0741776 -0.11529636 0.0068393783
0.09591648 -0.07567639 -0.056664255 0.014582336 -0.04382141 -0.050268717 0.040332176 0.10553732
0.08368849 -0.11137412 -0.028374966 0.1472034 -0.011171366 0.00818619 -0.12695824 -0.0004815721
-0.123115204 -0.17579606 0.042464122 0.106725566 0.046747413 0.006538697 -0.03794021 0.16412045
-0.07059161 -0.112603925 0.09557437 0.008295634 -0.07458868 -0.015462701 -0.099345185 0.011669576
0.0157763 0.042964447 0.089565806 0.023425903 -0.028081352 0.040363535 0.01092399 0.09426111
0.003684719 0.024230763 0.030100483 -0.09479678 0.09588112 0.0065166415 0.05215114 -0.09038167
-0.0019168159 0.026801694 -0.14177333 0.078794226 0.10910576 -0.045014415 0.08567856 0.09108085
-0.04655515 -0.19714999 0.10656355 0.022313202 0.058388382 -0.0508322 -0.06816858 0.088190615
-0.06273637 0.23552188 0.10948558 -0.14029548 0.19244821 -0.09920894 -0.11430945 0.09761124
0.030454323 0.19977342 -0.06760875 0.014456802 0.009274065 -0.048531014 0.15543932 -0.083008535
00000000: 4406 abbd 3577 323d 8415 6abe 25a1 cb3b
00000010: 9aa7 12bc 10fd 29bd b5ca 7bbd af8d 44bd
00000020: 586c 063c 0ab8 a7bd 7e62 97be b396 2a3d
00000030: a085 dcbd b9b8 2e3e 79b8 773d d8fc e9bd
00000040: 04e4 1f3d d63f 13bb 3454 1dbd 483a 253d
00000050: e947 79bd d7e5 853a afca f5bd a827 6abd
00000060: 5f7b d23d ce1f df3c 4f84 673c 96bb d73d
00000070: c764 01be d8cd 1b3e d497 983c a0a6 743d
00000080: f2f8 ac3d 0db8 063d 9474 55bd 5423 b8bd
00000090: 29fb 603e 35ef 2abe a3fe f7bc 499a 913c
000000a0: bd5d 393e 4d90 363c 03bb f1ba c758 3b3e
000000b0: 494b 36bc 84c7 4ebc 514e a8bb a31c 2b3e
000000c0: c9c2 983d 2cb6 58be e07a 0b3e 1f22 91bb
000000d0: ce4b 1abe 413c 20be c293 9bbd cae5 12bd
000000e0: aaef b1bd cd8c 1bbd f2ab 8a3d 7530 023d
000000f0: 0a18 af3d 97ef 6dba f48b 293e 424f e63c
00000100: 4d95 49bb a4ac 4e3c c21e b63c d4ed 9fbc
00000110: 51b4 04bd a3fe 073d a93d 0dbe 22fe 32bc
00000120: 6c9f 813d 88b3 acbd 4c16 cabd 0009 c83d
00000130: ee6a 233d 21fc 843d f4bc c13d 3004 99bc
00000140: afaf 45be 360a 93bc f31c 5dbd 12a6 7e3e
00000150: c77d 2b3c 2f93 fe3d 0c18 d9bd 1267 09bc
00000160: 3dc0 a2bd b7c2 4a3d 6428 003e b356 cc3d
00000170: 3fc9 5dbb 103b 923c d7ed 7c3d 5c0c dbbd
00000180: 78b3 d9bc 78b2 efbc b5e4 113d a63b 8c3c
00000190: 2afd 0fbd 15d0 a63d afcb c7bd 96ee 52bd
000001a0: 3d78 be3d 5ffd a83b ab63 2e3d c2f2 0f3e
000001b0: 1118 24be 2cf1 123e 8fd4 103e a89d 8f3d
000001c0: f0d0 2b3d d7a1 d93b 3099 2c3b 9bb5 ebbc
000001d0: 9efd be3d 4620 1bbe b414 34be 4c0d c7bd
000001e0: 8005 8dbd 25d8 80ba 99cb 7dbd 080d 15bd
000001f0: f5a6 43bd 4e36 90bd 246a 49be fa5c 2ebd
00000200: 5077 a43d b67a 0dbe 9295 ce3d bfee a1bd
00000210: bf5c d43d 52a7 223d cfec b23c 36fb e93d
00000220: ba3c 17be bbf7 4d3d 44ca 293e a743 973d
00000230: a7e6 9ebc 957c c83d ff00 b83d c134 793d
00000240: 3227 cdbc 2dc6 b33d a2a9 a6bc f4cf e53b
00000250: 87f2 38bb d095 dbbd 49e2 353c 4b0b 843e
00000260: 3542 92ba 6a1d 8c3d 13b7 893d 8145 a3bc
00000270: 2ed2 9fbd 982b dcbd af38 12be 5c87 22be
00000280: 0b7f 293d c312 07be d87b 2f3e b91f 383d
00000290: 5180 f1bb f964 a63d 278e a73c 9b78 c83d
000002a0: 98f8 1bbe 6e92 e2bc a8c8 e2bc 3506 873d
000002b0: acaa cb3d 6dea 973d 7f20 ecbd dd1c e03b
000002c0: dc6f c43d 39fc 9abd c718 68bd c0ea 6e3c
000002d0: 147e 33bd 92e6 4dbd 5a33 253d f323 d83d
000002e0: df64 ab3d 1d18 e4bd 9e72 e8bc 7dbc 163e
000002f0: 1b08 37bc 5f1f 063c 5701 02be 837b fcb9
00000300: d323 fcbd e203 34be dcee 2d3d ef92 da3d
00000310: 377a 3f3d 9142 d63b 3267 1bbd 310f 283e
00000320: 5692 90bd e39c e6bd 7fbc c33d 69ea 073c
00000330: f3c1 98bd 4557 7dbc 7d75 cbbd c031 3f3c
00000340: 4d3d 813c 7dfb 2f3d 476e b73d aee7 bf3c
00000350: dd0a e6bc 3c54 253d 89fa 323c f80b c13d
00000360: 547b 713b 987f c63c 4a95 f63c d024 c2bd
00000370: 525d c43d 8d89 d53b 6f9c 553d 061a b9bd
00000380: ab3d fbba 3a8f db3c 072d 11be de5e a13d
00000390: d772 df3d 0961 38bd 3e78 af3d 9988 ba3d
000003a0: 9db0 3ebd b0e1 49be fe3d da3d 2dca b63c
000003b0: a828 6f3d 6d35 50bd f89b 8bbd 489d b43d
000003c0: ed7b 80bd a62c 713e fa39 e03d 9ea9 0fbe
000003d0: 2511 453e 0f2e cbbd 131b eabd 67e8 c73d
000003e0: 587b f93c 6791 4c3e 7576 8abd 39dc 6c3c
000003f0: 3ff2 173c 75c8 46bd 7c2b 1f3e 6100 aabd

linear1.bias f4 [256]
-0.14930739 -0.298308 -0.272149 -0.36602193 -0.20539568 -0.29731828 -0.2591612 -0.37664983
-0.44479588 -0.48218003 -0.42591518 -0.47576267 -0.3063633 -0.28533822 -0.30016756 -0.31213236
-0.22235595 -0.54452616 -0.30886924 -0.18638565 -0.3295484 -0.38488483 -0.094417304 -0.3792716
-0.4037067 -0.46463284 -0.27882102 -0.43006378 -0.43954566 -0.39106023 -0.5659537 -0.27263242
-0.2383627 -0.29582784 -0.49682787 -0.30429298 -0.22123647 -0.19144298 -0.5890703 -0.28975394
-0.33249587 -0.24124578 -0.3127415 -0.5181643 -0.50905776 -0.29911426 -0.2745943 -0.36049968
-0.22365324 -0.41837257 -0.3927258 -0.48536268 -0.39486814 -0.48547485 -0.3442222 -0.26437786
-0.41192204 -0.36364526 -0.53400004 -0.46124828 -0.4354471 -0.41891032 -0.30966598 -0.24143359
-0.33382046 -0.31933522 -0.2802139 -0.45436338 -0.393846 -0.401139 -0.41300008 -0.45831537
-0.28570953 -0.329374 -0.18547468 -0.19460411 -0.24390763 -0.45789373 -0.3800942 -0.4604382
-0.44526806 -0.3895392 -0.46938935 -0.42550302 -0.46925887 -0.38651842 -0.45449138 -0.3765626
-0.36153388 -0.5334252 -0.27337977 -0.25250667 -0.39434928 -0.31024358 -0.28085843 -0.23789029
-0.4343275 -0.24752218 -0.42380577 -0.27453467 -0.16797863 -0.39565417 -0.5455333 -0.25395182
-0.35369554 -0.43670055 -0.4052113 -0.4108331 -0.42476603 -0.3094547 -0.2731364 -0.4045341
-0.29277107 -0.3358911 -0.40164706 -0.38526404 -0.19381791 -0.4453799 -0.16629341 -0.29920155
-0.43889838 -0.1934412 -0.43143332 -0.54387957 -0.34437957 -0.4046881 -0.47802994 -0.29148108
-0.3158602 -0.5005333 -0.36858565 -0.31072387 -0.30776954 -0.49373454 -0.35269678 -0.25632182
-0.38962424 -0.26664492 -0.25853002 -0.07999269 -0.4050514 -0.38453963 -0.5271802 -0.5163254
-0.42472115 -0.35321626 -0.32344761 -0.25639734 -0.44296396 -0.38367638 -0.32209882 -0.32518363
-0.50829697 -0.098031245 -0.4245045 -0.12594385 -0.18068415 -0.2729237 -0.39271882 -0.18699482
-0.45760322 -0.45133108 -0.23233338 -0.3452834 -0.37749842 -0.45874542 -0.3641193 -0.43627465
-0.38374555 -0.15869914 -0.21723816 -0.23225912 -0.35127938 -0.22767563 -0.37756848 -0.33914542
-0.45856437 -0.23680796 -0.47662237 -0.13797154 -0.52658874 -0.31737494 -0.19989344 -0.2200829
-0.1966484 -0.36611283 -0.29354334 -0.2139221 -0.40774646 -0.44969597 -0.39706403 -0.41437736
-0.18907937 -0.38442463 -0.2763569 -0.34299338 -0.48212394 -0.31192493 -0.27153873 -0.27285734
-0.6394921 -0.29192975 -0.42478797 -0.383455 -0.3489074 -0.17616509 -0.2527113 -0.38598037
-0.34868932 -0.22646734 -0.45574316 -0.2753801 -0.24230996 -0.43560052 -0.41227946 -0.55444807
-0.5493752 -0.5647472 -0.30733213 -0.5664357 -0.39174703 -0.3126646 -0.36297268 -0.31744748
-0.44586587 -0.28140822 -0.2914776 -0.28249225 -0.43275324 -0.037184928 -0.3732611 -0.27771404
-0.4564851 -0.18976292 -0.30295002 -0.4318624 -0.43398297 -0.54741913 -0.03521231 -0.416266
-0.24349174 -0.36622018 -0.3532532 -0.41537362 -0.40383556 -0.39684066 -0.47269994 -0.24059597
-0.3511255 -0.5266682 -0.5169883 -0.4962336 -0.2639881 -0.42775533 -0.32889193 -0.491213
00000000: 09e4 18be d4bb 98be 1d57 8bbe 3a67 bbbe
00000010: 3f53 52be 1a3a 98be c7b0 84be 3fd8 c0be
00000020: 49bc e3be 4de0 f6be 8e11 dabe 2a97 f3be
00000030: a7db 9cbe da17 92be 90af 99be d0cf 9fbe
00000040: 47b1 63be 1166 0bbf 1c24 9ebe e1db 3ebe
00000050: 91ba a8be a00f c5be dc5d c1bd e32f c2be
00000060: a5b2 cebe 5be4 edbe a1c1 8ebe 5231 dcbe
00000070: 210c e1be 0c39 c8be 57e2 10bf 7a96 8bbe
00000080: 5a15 74be bf76 97be 3960 febe 4acc 9bbe
00000090: d08b 62be a109 44be 50cd 16bf a15a 94be
000000a0: e63c aabe 2209 77be a71f a0be 6aa6 04bf
000000b0: 9c51 02bf 8125 99be a097 8cbe 6a93 b8be
000000c0: 5b05 65be ee34 d6be 5b13 c9be 7581 f8be
000000d0: 282c cabe 2990 f8be e43d b0be 895c 87be
000000e0: 72e7 d2be b62f babe 3ab4 08bf bc28 ecbe
000000f0: ecf2 debe 6a7b d6be 8a8c 9ebe 5e3a 77be
00000100: 84ea aabe e87f a3be 3278 8fbe 51a2 e8be
00000110: 2fa6 c9be 1762 cdbe bf74 d3be 50a8 eabe
00000120: 8548 92be b5a3 a8be 13ed 3dbe 4d46 47be
00000130: ecc2 79be 0c71 eabe b59b c2be 8ebe ebbe
00000140: 2dfa e3be af71 c7be cd53 f0be 88db d9be
00000150: b342 f0be bee5 c5be 18b3 e8be d0cc c0be
00000160: f81a b9be 8e8e 08bf 6ff8 8bbe 8e48 81be
00000170: 26e8 c9be 3fd8 9ebe adcc 8fbe 8399 73be
00000180: 2d60 debe 7476 7dbe 12fd d8be cf8f 8cbe
00000190: 9702 2cbe 2f93 cabe 12a8 0bbf f905 82be
000001a0: 9517 b5be 3797 dfbe db77 cfbe b758 d2be
000001b0: ef7a d9be d970 9ebe 89d8 8bbe 181f cfbe
000001c0: 17e6 95be ebf9 abbe afa4 cdbe 5441 c5be
000001d0: 3478 46be d608 e4be d248 2abe f230 99be
000001e0: 4ab7 e0be 7315 46be d4e4 dcbe b13b 0bbf
000001f0: 8552 b0be 4733 cfbe 57c0 f4be 023d 95be
00000200: 6eb8 a1be f322 00bf 42b7 bcbe 3317 9fbe
00000210: f893 9dbe c6ca fcbe ac94 b4be 9d3c 83be
00000220: d47c c7be af85 88be 0c5e 84be 35d3 a3bd
00000230: e662 cfbe 61e2 c4be 48f5 06bf e72d 04bf
00000240: 0d75 d9be c3d8 b4be ed9a a5be 8346 83be
00000250: 2ccc e2be 3b71 c4be 23ea a4be 787e a6be
00000260: c01f 02bf 9bc4 c8bd a758 d9be 6df7 00be
00000270: 4405 39be a8bc 8bbe 7112 c9be 927b 3fbe
00000280: f84a eabe de14 e7be cde8 6dbe fcc8 b0be
00000290: 7947 c1be aee0 eabe d86d babe 645f dfbe
000002a0: 4c7a c4be 0782 22be ae73 5ebe 56d5 6dbe
000002b0: e4da b3be cd23 69be a850 c1be 78a4 adbe
000002c0: f3c8 eabe c97d 72be d907 f4be 6948 0dbe
000002d0: 85ce 06bf f87e a2be deb0 4cbe 695d 61be
000002e0: 335e 49be 2473 bbbe 504b 96be 650e 5bbe
000002f0: 25c4 d0be 8d3e e6be fa4b cbbe 4529 d4be
00000300: 069e 41be 4ed3 c4be a77e 8dbe d49c afbe
00000310: f3d8 f6be a0b4 9fbe 2007 8bbe f5b3 8bbe
00000320: c1b5 23bf d177 95be cf7d d9be 3754 c4be
00000330: fea3 b2be 9f64 34be 6063 81be 389f c5be
00000340: 6887 b2be 0ee7 67be 2b57 e9be 9ffe 8cbe
00000350: 1a20 78be 0807 dfbe 4b16 d3be 4ff0 0dbf
00000360: daa3 0cbf 4693 10bf a35a 9dbe ee01 11bf
00000370: 1193 c8be 9315 a0be 8ed7 b9be 7a88 a2be
00000380: 8848 e4be bd14 90be 8d3c 95be d3a2 90be
00000390: d591 ddbe 394f 18bd 141c bfbe 8930 8ebe
000003a0: 6ab8 e9be 3651 42be 441c 9bbe 121d ddbe
000003b0: 0433 debe a923 0cbf c83a 10bd d120 d5be
000003c0: e655 79be 3681 bbbe 9add b4be daab d4be
000003d0: 89c3 cebe b32e cbbe ba05 f2be ca5e 76be
000003e0: b9c6 b3be bad3 06bf 5859 04bf 5512 febe
000003f0: 7329 87be bf02 dbbe 8664 a8be 4580 fbbe

linear2.weight f4 [4, 256]
-0.03858226 -0.022176826 -0.022527354 0.019415567 0.044145733 0.00446357 0.041010194 -0.014710739
0.019363668 0.027450131 -0.000634511 -0.03318652 -0.0047982614 0.011271563 -0.0039774324 -0.009594071
-0.009927825 0.04144252 -0.00026737037 -0.02337579 0.009561166 0.024093349 -0.0066828034 -0.03075664
0.0042744754 0.012498016 -0.00041933064 -0.029987397 -0.0066717505 0.04744652 -0.0006924921 0.0011310449
0.01165296 -0.004573955 -0.002706324 0.032501392 0.021135177 -0.011090573 0.0651138 -0.019923825
0.023128428 -0.023231948 0.028332882 0.040105745 0.01549129 -0.017493222 0.018956976 -0.017913278
0.017489864 -0.00607014 -0.015711108 0.012777436 0.034473892 -0.032602463 -0.081788786 0.038701758
0.0036390622 -0.0051954538 -0.0275443 0.04954777 0.021701884 -0.054935895 0.0155109465 -0.0053401836
-0.032045636 -0.027840778 -0.0038255143 0.045607455 0.010434997 -0.01821774 -0.0077834195 -0.0010261261
-0.005048918 0.039370775 -0.00980179 0.0023782244 -0.01594525 0.026428066 -0.06815979 -0.04425782
0.0046113455 0.039177015 -0.027290203 0.029091632 -0.012317746 0.023517229 0.00870515 0.0038230587
0.019839888 -0.017123928 -0.04069361 0.042221725 -0.020252736 -0.017318612 0.00043077022 0.001642642
-0.0010766222 0.039284844 -0.033027943 0.05326959 -0.02705387 0.0054812627 -0.035699405 0.010787538
0.04342856 0.07484743 -0.014141108 -0.0107904 -0.013941087 0.03446671 0.04564594 0.019323697
-0.01357944 -0.08402375 0.0038030138 0.023926321 0.013539796 0.006081632 0.012382691 0.03955626
-0.065959305 -0.054366935 -0.035517126 -0.018489331 0.024038343 0.08528668 0.007123157 0.0076899105
0.022651725 -0.060545124 0.020274991 0.033090822 0.0036380002 0.022448499 0.0039640083 0.008834727
-0.046735674 0.0057818787 -0.026864523 -0.0037238642 0.0008490756 -0.03889215 0.020412268 -0.037966657
0.015822954 0.030882549 0.041193116 -0.023709347 0.0029985844 0.037927542 0.022443132 -0.01619505
0.02141483 0.0144375 -0.021255232 -0.0060222493 -0.024469575 0.0141055975 0.017287392 0.015141094
0.006867067 -0.015713044 -0.011030608 0.038859155 0.0010678028 -0.033264793 0.001132483 0.0018446628
0.003208768 -0.02450155 -0.01646927 -0.005938586 -0.016303468 0.038897727 -0.021752935 0.043191776
0.021895053 -0.017077353 -0.02720867 0.024399932 0.0022457263 0.014173831 -0.024185821 0.011389099
0.026792355 0.005097144 -0.0066084717 -0.005793603 -0.047703587 -0.006568298 0.04504435 0.014754879
-0.037455987 -0.055590533 0.0008724928 -0.027218837 0.018350469 -0.03837937 0.02619987 0.0049201506
0.052471768 -0.011475507 -0.0133438455 0.022684062 -0.030974314 -0.0051109353 -0.019599367 0.06991553
-0.01789436 0.06673676 -0.022479316 0.00051747274 -0.003252565 -0.008351247 0.025157025 -0.022697503
-0.008211893 -0.005048289 0.0030579255 0.042227432 -0.017239615 -0.022037989 0.019938298 0.042930357
0.04418407 0.008959819 0.0030494707 0.031761978 0.014247565 0.013814834 0.026574021 -0.07500602
0.016632542 -0.029094085 -0.016686196 0.018611904 -0.0043088314 0.023595888 -0.019411923 0.030165374
-0.010773039 -0.009215788 -0.048285175 0.011355426 0.013751044 -0.0043599987 0.037562594 0.00939616
0.04183302 0.01751079 0.017619388 -0.011196214 -0.016012367 0.018763844 -0.032460902 0.064596534
00000000: 6f08 1ebd 2dac b5bc 498b b8bc 650d 9f3c
00000010: 28d2 343d 2443 923b 4efa 273d 5005 71bc
00000020: 8ea0 9e3c 19df e03c 5055 26ba 97ee 07bd
00000030: bc3a 9dbb 5dac 383c 1f55 82bb 7330 1dbc
00000040: 51a8 22bc a2bf 293d d82d 8cb9 967e bfbc
00000050: 70a6 1c3c 6a5f c53c 6bfb dabb 59f5 fbbc
00000060: e610 8c3b 7ac4 4c3c 9bd9 dbb9 21a8 f5bc
00000070: b39e dabb 4857 423d 5c88 35ba 923f 943a
00000080: 0fec 3e3c 1ee1 95bb 955c 31bb 2e20 053d
00000090: ae23 ad3c 3cb5 35bc 625a 853d 4a37 a3bc
000000a0: d477 bd3c ed50 bebc 5c1a e83c ec45 243d
000000b0: 2ecf 7d3c f24d 8fbc a94b 9b3c debe 92bc
000000c0: e746 8f3c 06e8 c6bb 95b4 80bc 7358 513c
000000d0: 7f34 0d3d 298a 05bd e180 a7bd bc85 1e3d
000000e0: 557d 6e3b a03e aabb 95a4 e1bc 9af2 4a3d
000000f0: 26c8 b13c 7604 61bd a021 7e3c b5fc aebb
00000100: 4942 03bd 5812 e4bc 7bb5 7abb e2ce 3a3d
00000110: 8df7 2a3c 5f3d 95bc 0e0c ffbb 147f 86ba
00000120: 6571 a5bb 4043 213d b097 20bc fcdb 1b3b
00000130: 9d9f 82bc ac7f d83c 5c97 8bbd b047 35bd
00000140: c51a 973b 1478 203d b48f dfbc 9351 ee3c
00000150: 5fd0 49bc 34a7 c03c 0ca0 0e3c 488c 7a3b
00000160: 4387 a23c 7b47 8cbc 58ae 26bd b0f0 2c3d
00000170: 11e9 a5bc c3df 8dbc 00d9 e139 eb4d d73a
00000180: 721d 8dba 25e9 203d 4f48 07bd 3731 5a3d
00000190: 14a0 ddbc 2a9c b33b 8a39 12bd 37be 303c
000001a0: 25e2 313d 9c49 993d 1bb0 67bc 38ca 30bc
000001b0: 2869 64bc f72c 0d3d 3df7 3a3d bb4c 9e3c
000001c0: 4d7c 5ebc a514 acbd fc3b 793b 2201 c43c
000001d0: 05d6 5d3c 6d48 c73b c5e0 4a3c bf05 223d
000001e0: ac15 87bd ddaf 5ebd 687a 11bd f076 97bc
000001f0: 0fec c43c c8aa ae3d 5f69 e93b a5fb fb3b
00000200: 1c90 b93c 2afe 77bd bd17 a63c 3e8a 073d
00000210: 846b 6e3b eae5 b73c 83e4 813b 88bf 103c
00000220: e86d 3fbd ea75 bd3b fd12 dcbc 130c 74bb
00000230: 8094 5e3a 604d 1fbd a137 a73c ed82 1bbd
00000240: 249f 813c 66fd fc3c 1dba 283d 1b3a c2bc
00000250: e683 443b e959 1b3d a9da b73c 7bab 84bc
00000260: 276e af3c 448b 6c3c 741f aebc 4a56 c5bb
00000270: 6b74 c8bc 2a1b 673c 4a9e 8d3c 5a12 783c
00000280: 2205 e13b a4b8 80bc b9b9 34bc c72a 1f3d
00000290: 84f5 8b3a aa40 08bd d36f 943a 9dc8 f13a
000002a0: 324a 523b 79b7 c8bc 90ea 86bc 7898 c2bb
000002b0: da8e 85bc 3953 1f3d 3633 b2bc dce9 303d
000002c0: 415d b33c cee5 8bbc b7e4 debc 5ee2 c73c
000002d0: 092d 133b 5b39 683c 5821 c6bc 5899 3a3c
000002e0: a47b db3c f105 a73b e18b d8bb 44d8 bdbb
000002f0: d664 43bd e13a d7bb 6d80 383d 73be 713c
00000300: 736b 19bd e6b2 63bd 00b8 643a 0afa debc
00000310: b953 963c b033 1dbd 1ca1 d63c 3739 a13b
00000320: a3ec 563d c403 3cbc 25a0 5abc edd3 b93c
00000330: d8bd fdbc a279 a7bb da8e a0bc e02f 8f3d
00000340: 3197 92bc 48ad 883d 8b26 b8bc 02a7 073a
00000350: fc28 55bb abd3 08bc 1b16 ce3c 1df0 b9bc
00000360: 2d8b 06bc 1e6c a5bb 7a67 483b acf6 2c3d
00000370: 183a 8dbc 0389 b4bc a455 a33c bed7 2f3d
00000380: 5bfa 343d 34cc 123c a1d9 473b d918 023d
00000390: 9e6e 693c 9d57 623c c3b1 d93c c29c 99bd
000003a0: f840 883c b856 eebc 7db1 88bc fe77 983c
000003b0: 1931 8dbb 2a4c c13c c105 9fbc 601d f73c
000003c0: 6781 30bc d1fd 16bc adc6 45bd 1c0c 3a3c
000003d0: 0f4c 613c 52de 8ebb 3cdb 193d 5af2 193c
000003e0: 1a59 2b3d ca72 8f3c 8956 903c 5370 37bc
000003f0: 5e2c 83bc a2b6 993c b9f5 04bd 304b 843d

linear2.bias f4 [4]
-0.15103191 -0.15910906 -0.105660036 -0.13305627
00000000: 1ca8 1abe 7ced 22be 4a64 d8bd e73f 08be
