model/model.pth (torch, 27456 bytes, 4 tensors)

linear1.weight f4 [256, 20]
-0.18626457 -0.014719104 0.11905227 0.15180568 -0.16600457 -0.1789406 -0.073074296 -0.101435624
0.009395735 0.17138894 0.13406979 0.0953152 -0.039882034 -0.17225462 -0.030822273 -0.041150708
0.14372388 0.04482888 -0.16329262 -0.118932456 -0.038507104 -0.15345855 -0.16621579 0.20675065
0.054044757 -0.12624022 0.1117018 -0.17319895 0.22167656 -0.033614326 -0.12210536 0.05406668
0.031591997 0.03594916 0.01331367 -0.06078725 -0.17359138 0.008115688 -0.11787047 0.07944736
-0.21855354 0.12557548 -0.062941976 -0.14544152 0.06738762 -0.2012339 -0.106892765 0.106385805
0.062490452 -0.1235438 -0.062250983 0.05846958 -0.12555197 -0.0570766 0.15957218 0.065961845
-0.23448619 -0.18830831 0.16401684 -0.12542807 0.121451296 0.06590398 -0.121878855 -0.058084782
0.020761888 0.039412964 -0.090836175 -0.046097193 -0.107150406 -0.18153247 0.08655472 -0.20991865
0.029277258 -0.101686865 -0.07628015 0.16611023 0.14931212 -0.039484855 -0.11025695 0.22858866
0.2460757 -0.022271892 0.15655948 0.16392611 0.03528788 0.17905472 -0.18481055 0.18517329
0.106958136 -0.20902474 0.1729808 -0.04237903 -0.07122324 -0.12988357 -0.15200472 -0.076840475
0.03800986 0.02561431 -0.1596816 0.0744787 0.08735198 -0.17175077 0.16916245 -0.19070175
-0.03229567 -0.03613966 -0.24422117 0.04061825 0.016426139 -0.032178354 0.0049481983 0.0630682
0.074077375 0.17327596 -0.21914965 -0.055245616 0.17054293 -0.0021079637 -0.077157654 0.22133443
-0.19210906 -0.11592453 0.16753432 0.24734743 0.14294267 -0.17102359 0.17916267 0.16270648
-0.06561138 -0.011933127 -0.023042865 -0.0045996374 -0.11137531 0.03701757 -0.09102439 0.16756405
0.13764633 -0.17218168 -0.0043823915 0.2275888 -0.11743665 0.2186278 0.09320684 0.1569236
0.1332562 -0.20651343 0.13291945 0.12582827 0.10023414 -0.012888318 -0.0682994 -0.13848244
-0.02206251 -0.042460468 0.13578199 -0.18708149 0.03576872 0.15812764 0.07483317 -0.014774976
0.24347131 -0.1381111 -0.18850982 0.05720311 0.0035044446 0.0063187024 0.07052431 0.16820012
0.07136556 -0.0799573 0.07111373 -0.024130475 -0.041885566 0.21712403 -0.11615485 -0.13447797
0.096184984 0.06274185 -0.18031047 -0.13742074 -0.016280517 -0.010688281 -0.06424637 0.17449115
0.088781424 -0.04968321 -0.23822285 0.10303022 0.15799771 -0.007828226 0.16012408 0.18810111
-0.021152975 -0.18128686 -0.06286723 0.056722827 0.20232557 -0.21404804 0.11947469 -0.20228182
0.17355192 0.018102285 0.14829679 0.2380568 0.19895469 -0.08630204 -0.03317599 0.20992407
-0.09692 -0.0065718726 -0.15823239 0.009245397 -0.15306279 0.12231949 0.051635496 0.11712467
0.21307619 0.06815979 -0.23330249 -0.0005803695 -0.005552119 0.20998994 0.07665722 -0.06739639
0.15221855 -0.18007404 0.10732267 -0.13040596 -0.16424435 -0.08908793 -0.16442922 0.1375508
-0.033733677 -0.029790329 0.12045029 -0.05136213 0.0027983673 -0.15092859 0.0711421 0.0998962
0.11097296 -0.067176946 -0.24629854 -0.018907182 -0.035452645 -0.072212406 -0.10059376 0.11098592
-0.23948619 -0.09409551 -0.101149715 -0.020246357 -0.013470036 -0.13495603 0.1191109 -0.068560734
00000000: 24bc 3ebe 6628 71bc add1 f33d f372 1b3e
00000010: 1afd 29be 343c 37be faa7 95bd 7bbd cfbd
00000020: 92f0 193c 9580 2f3e 9749 093e 9e34 c33d
00000030: 585b 23bd 8463 30be fe7e fcbc a58d 28bd
00000040: 5a2c 133e 7d9e 373d 2e36 27be dc92 f3bd
00000050: a0b9 1dbd 3d24 1dbe 7934 2abe 71b6 533e
00000060: 095e 5d3d 1e45 01be eac3 e43d 115b 31be
00000070: 2eff 623e 2daf 09bd 6012 fabd 0675 5d3d
00000080: 9c66 013d 6d3f 133d 9421 5a3c 0dfc 78bd
00000090: f0c1 31be aaf7 043c 1366 f1bd 4cb5 a23d
000000a0: 80cc 5fbe dc96 003e b9e7 80bd 9fee 14be
000000b0: 8502 8a3d 4210 4ebe 98ea dabd cde0 d93d
000000c0: fdf5 7f3d 8804 fdbd e3fa 7ebd cc7d 6f3d
000000d0: b290 00be 27c9 69bd e466 233e 0117 873d
000000e0: 261d 70be e5d3 40be 08f4 273e 3770 00be
000000f0: 75bb f83d aaf8 863d 9f9b f9bd 4fea 6dbd
00000100: d614 aa3c 7d6f 213d 5108 babd 69d0 3cbd
00000110: ac71 dbbd a6e3 39be 9a43 b13d eaf4 56be
00000120: dcd6 ef3c 3441 d0bd c438 9cbd cd18 2a3e
00000130: 47e5 183e dfba 21bd 65ce e1bd 2513 6a3e
00000140: 45fb 7b3e 8b73 b6bc 2151 203e 3fdc 273e
00000150: 068a 103d 1f5a 373e fa3e 3dbe 119e 3d3e
00000160: de0c db3d 950a 56be e121 313e a295 2dbd
00000170: 7ddd 91bd 3300 05be 20a7 1bbe 8a5e 9dbd
00000180: 3ab0 1b3d 1ad5 d13c 9383 23be 4a88 983d
00000190: 98e5 b23d 6fdf 2fbe ec38 2d3e 5247 43be
000001a0: 7748 04bd 2e07 14bd 1d15 7abe 525f 263d
000001b0: 1c90 863c 73cd 03bd 7f24 a23b e729 813d
000001c0: e1b5 973d 416f 313e c468 60be 3a49 62bd
000001d0: cea2 2e3e c325 0abb d504 9ebd 7ea5 623e
000001e0: 3db8 44be d769 edbd 1e8e 2b3e a548 7d3e
000001f0: 905f 123e cf20 2fbe 6b76 373e 879c 263e
00000200: 425f 86bd 2a83 43bc 64c4 bcbc 8eb8 96bb
00000210: bd18 e4bd bc9f 173d ff6a babd e995 2b3e
00000220: 29f3 0c3e 6550 30be 2a9a 8fbb 0a0d 693e
00000230: a082 f0bd f7df 5f3e 3ae3 be3d 95b0 203e
00000240: 5074 083e 4278 53be 091c 083e 20d9 003e
00000250: 8f47 cd3d 8629 53bc 8ee0 8bbd 57ce 0dbe
00000260: 70bc b4bc 07eb 2dbd 6f0a 0b3e 4a92 3fbe
00000270: 3982 123d 36ec 213e 2242 993d be12 72bc
00000280: 8b50 793e ff6c 0dbe b808 41be cf4d 6a3d
00000290: d3aa 653b 1e0d cf3b 0d6f 903d a73c 2c3e
000002a0: 1b28 923d a7c0 a3bd 13a4 913d 46ad c5bc
000002b0: 3390 2bbd c355 5e3e 98e2 edbd 98b4 09be
000002c0: a2fc c43d cd7e 803d 4fa3 38be 06b8 0cbe
000002d0: b85e 85bc e61d 2fbc 9a93 83bd cfad 323e
000002e0: 09d3 b53d 9f80 4bbd b1f0 73be 8201 d33d
000002f0: 27ca 213e f641 00bc 91f7 233e 949d 403e
00000300: 0149 adbc 43a3 39be 89c0 80bd 3256 683d
00000310: 6f2e 4f3e 692f 5bbe 25af f43d f722 4fbe
00000320: 98b7 313e 3e4b 943c 1ddb 173e 29c5 733e
00000330: c7ba 4b3e 20bf b0bd 8ce3 07bd 56f6 563e
00000340: fe7d c6bd dd58 d7bb ac07 22be 017a 173c
00000350: 7ebc 1cbe a482 fa3d be7f 533d 0fdf ef3d
00000360: a530 5a3e 5c97 8b3d d9e6 6ebe f023 18ba
00000370: 8dee b5bb 9a07 573e 76fe 9c3d 1e07 8abd
00000380: 2edf 1b3e 5465 38be fdcb db3d 2489 05be
00000390: ac2f 28be bc73 b6bd 2260 28be 1eda 0c3e
000003a0: 532c 0abd d90a f4bc a4ae f63d 1961 52bd
000003b0: d064 373b 068d 1abe f3b2 913d 6196 cc3d
000003c0: cb45 e33d 1194 89bd af35 7cbe 3ce3 9abc
000003d0: cb36 11bd 19e4 93bd 1a04 cebd 964c e33d
000003e0: de3b 75be 26b5 c0bd 9527 cfbd b0db a5bc
000003f0: 6db1 5cbc ea31 0abe 6af0 f33d 9269 8cbd

linear1.bias f4 [256]
0.20678495 0.18324867 -0.11254369 -0.16928343 0.09260883 -0.0987591 0.08034884 0.07784897
0.2271409 0.23254241 0.05094699 0.067883484 0.014904082 0.031100014 0.011867328 0.072883256
0.09278015 -0.0966959 0.17729792 0.002255099 -0.2128431 0.07962631 -0.015553282 0.03754729
-0.072864726 -0.013193053 -0.08328553 0.14758408 0.11320925 -0.07833967 0.1707998 -0.18677299
-0.25232214 -0.0069724647 0.08945029 -0.02944615 0.13626263 -0.07700791 -0.124698564 0.113852866
0.08234708 0.20402166 0.11526407 -0.1991366 0.13637516 0.13182218 0.0084505 -0.042012483
-0.14420089 0.11398566 0.16061904 0.014045958 -0.20398846 0.22018467 -0.17298274 0.04361089
0.13264859 0.18077601 -0.07305974 0.031815983 0.20370743 -0.082820706 0.07493802 0.31890628
0.17113449 0.0064290925 -0.10102958 0.28407165 0.097344846 0.1456731 0.11262713 -0.18766327
0.2845959 -0.11343979 0.13189633 0.1943288 -0.2256537 0.29665536 0.11864913 0.1931352
0.027532443 -0.1027375 0.061042864 0.013576297 0.0027643053 -0.008140943 -0.15124613 -0.0327696
0.09244494 0.086970635 -0.023513563 0.046647783 0.16809371 -0.061320093 0.123679355 -0.025158118
-0.24139097 -0.19194865 0.09872838 -0.1295459 0.15926908 0.12738867 0.12586996 -0.051083427
0.21261527 0.05632157 0.1470517 -0.05892777 0.22417097 -0.2081999 -0.14319097 0.094180234
0.14104259 0.06825641 -0.0057978234 -0.1802981 -0.012955895 -0.11300549 0.12056328 0.15139084
0.15671702 -0.097406656 -0.15536812 -0.08404757 0.14926952 0.16303794 0.1811299 0.1465945
-0.12572391 -0.06050565 -0.07289939 0.11658028 -0.024807427 -0.08068326 -0.17022702 0.09609438
0.08903062 -0.07798711 0.11553325 0.14503145 -0.088677764 -0.04035196 0.14040133 0.082869574
-0.0461916 -0.028421773 -0.11132425 0.23293826 0.0687408 0.19224334 0.1714012 -0.14920655
-0.21059452 0.009989501 0.035312474 -0.054660887 0.15127102 0.11689552 -0.20700338 0.13200122
-0.08056183 0.039285503 -0.08136684 0.015893297 -0.11011023 0.15819478 0.06922967 -0.05111633
0.06031588 0.056905918 0.20190272 0.0183664 0.06071156 -0.21862052 0.12763108 0.20291102
-0.03533702 -0.10730142 0.08232583 -0.2033117 0.11072446 -0.0786678 0.15745097 0.0151316365
0.21832795 -0.07881135 -0.10779993 0.022035033 0.11669936 0.16397241 0.0030261471 0.15749699
0.15606636 0.22616073 -0.102436654 0.20294458 0.057581104 0.14576821 -0.1582468 0.10985462
0.14322865 0.11192622 -0.031264037 0.11118568 0.21634975 -0.16323107 -0.05763437 0.040202644
-0.12750329 0.1689401 0.18804908 -0.08340253 -0.15138525 -0.1813295 -0.030543936 -0.14195184
0.14129907 0.10165765 0.21498293 -0.008704171 -0.18333967 -0.17375356 -0.0065209344 0.12573694
-0.13011508 -0.008427652 -0.09210207 -0.18039288 -0.17351808 -0.13270478 -0.1578987 0.070393585
-0.022737097 0.07478817 0.034609538 -0.2282068 -0.18414335 -0.06422058 -0.1235198 -0.1077466
-0.20175417 0.112390324 0.18465766 0.019922553 0.22235939 0.16606952 0.23028351 -0.14640898
0.04683249 0.02672209 -0.21170668 0.041845225 -0.19977406 0.10197386 -0.06850086 0.10750499
00000000: 6fbf 533e 8aa5 3b3e 4e7d e6bd a358 2dbe
00000010: b3a9 bd3d 3642 cabd ef8d a43d 486f 9f3d
00000020: a097 683e 991f 6e3e caad 503d 7f06 8b3d
00000030: 4030 743c 75c5 fe3c 2e6f 423c d143 953d
00000040: 8503 be3d 8008 c6bd 968d 353e 48ca 133b
00000050: 8bf3 59be 1e13 a33d 31d3 7ebc 30cb 193d
00000060: 1a3a 95bd ad27 58bc 9b91 aabd 4820 173e
00000070: 40da e73d 8d70 a0bd 25e6 2e3e 6b41 3fbe
00000080: 5e30 81be 4679 e4bb b731 b73d 0d39 f1bc
00000090: 6e88 0b3e 53b6 9dbd f661 ffbd b12b e93d
000000a0: 96a5 a83d 0eeb 503e 920f ec3d 77ea 4bbe
000000b0: eea5 0b3e 65fc 063e f773 0a3c 4815 2cbd
000000c0: 66a9 13be 5071 e93d 5179 243e 0521 663c
000000d0: 5ae2 50be 1778 613e 6322 31be 55a1 323d
000000e0: 08d5 073e 591d 393e 58a0 95bd 7a51 023d
000000f0: ae98 503e e79d a9bd 1b79 993d af47 a33e
00000100: e13d 2f3e 23ab d23b 99e8 cebd d771 913e
00000110: bc5c c73d 542b 153e 0da9 e63d cd2a 40be
00000120: 8eb6 913e 1f53 e8bd d50f 073e 21fe 463e
00000130: c311 67be 36e3 973e 51fe f23d 3cc5 453e
00000140: b88b e13c 0a68 d2bd 1508 7a3d 1e6f 5e3c
00000150: 5929 353b 9761 05bc 44e0 1abe 6b39 06bd
00000160: c653 bd3d a91d b23d 849f c0bc bf11 3f3d
00000170: c220 2c3e c72a 7bbd 9a4b fd3d 6618 cebc
00000180: 322f 77be 308e 44be 1b32 ca3d aea7 04be
00000190: 6f17 233e 2d72 023e 0ee4 003e db3c 51bd
000001a0: d1b7 593e 72b1 663d b994 163e 3f5e 71bd
000001b0: 138d 653e 5b32 55be a7a0 12be 91e1 c03d
000001c0: 786d 103e 04ca 8b3d abfb bdbb 11a0 38be
000001d0: f644 54bc 6c6f e7bd e2e9 f63d 3306 1b3e
000001e0: 6d7a 203e 247d c7bd d218 1fbe 2221 acbd
000001f0: 1cda 183e 6bf3 263e 1e7a 393e de1c 163e
00000200: c5bd 00be c6d4 77bd 464c 95bd a4c1 ee3d
00000210: f238 cbbc 443d a5bd fe4f 2ebe 21cd c43d
00000220: b055 b63d b5b7 9fbd b29c ec3d 2083 143e
00000230: b09c b5bd 1948 25bd 5ec5 0f3e 86b7 a93d
00000240: 6733 3dbd c7d4 e8bc f8fd e3bd 5e87 6e3e
00000250: fac7 8c3d 70db 443e cc83 2f3e 9ac9 18be
00000260: 17a6 57be 01ab 233c d0a3 103d 18e4 5fbd
00000270: cae6 1a3e eb66 ef3d b2f8 53be 542b 073e
00000280: 9afd a4bd d6e9 203d a8a3 a6bd a932 823c
00000290: 7981 e1bd d0fd 213e 49c8 8d3d 5b5f 51bd
000002a0: c90d 773d 2e16 693d 96bf 4e3e 2275 963c
000002b0: afac 783d 0fde 5fbe b9b1 023e e8c7 4f3e
000002c0: 8dbd 10bd d9c0 dbbd 729a a83d f130 50be
000002d0: 81c3 e23d 951c a1bd d43a 213e afea 773c
000002e0: 5d91 5f3e d867 a1bd 36c6 dcbd d082 b43c
000002f0: 1300 ef3d 62e8 273e 5352 463b e446 213e
00000300: dccf 1f3e ae96 673e 4fca d1bd b4d0 4f3e
00000310: 2ada 6b3d 4344 153e 730b 22be 76fb e03d
00000320: 88aa 123e 9339 e53d b80e 00bd 51b5 e33d
00000330: ca8a 5d3e 0c26 27be 0412 6cbd 87ab 243d
00000340: 3990 02be a2fe 2c3e f08f 403e f2ce aabd
00000350: bc04 1bbe 71ae 39be 4737 fabc d35b 11be
00000360: b4b0 103e e331 d03d 7c24 5c3e f09b 0ebc
00000370: 65bd 3bbe 74ec 31be 90ad d5bb 2fc1 003e
00000380: e33c 05be 2214 0abc 03a0 bcbd e9b8 38be
00000390: b9ae 31be c3e3 07be 32b0 21be 832a 903d
000003a0: 2643 babc 8a2a 993d bbc2 0d3d 0baf 69be
000003b0: 1390 3cbe 1486 83bd f3f7 fcbd 40aa dcbd
000003c0: a598 4ebe e62c e63d e616 3d3e 9f34 a33c
000003d0: 2eb2 633e 210e 2a3e 71cf 6b3e 3cec 15be
000003e0: 6dd3 3f3d 49e8 da3c a3c9 58be e665 2b3d
000003f0: 9291 4cbe acd7 d03d 2e4a 8cbd 942b dc3d

linear2.weight f4 [4, 256]
0.077152334 -0.024278687 0.03361065 -0.047268275 -0.04378165 0.06898067 0.021825058 0.05801968
-0.0354737 0.029393258 -0.021321164 0.030418118 0.00454607 0.04070556 -0.011486083 0.01053932
-0.023027482 0.06319456 0.05226725 -0.014616147 0.01120304 -0.023304466 0.015095943 0.060427565
-0.028147247 0.021027751 0.0073273056 0.03300751 0.019755637 -0.0220815 0.014646929 0.01671084
-0.010102285 0.052991044 -0.01885958 0.0017701793 -0.018455539 0.04331153 -0.0361973 -0.03724773
-0.005549533 0.029485416 -0.018766986 -0.00805106 0.07126553 -0.009979924 0.06206303 0.07375319
-0.028284984 0.028196622 0.004671104 -0.024713714 -0.010693672 -0.03705029 -0.023462813 0.06394232
-0.0054271636 0.0023136444 0.031729072 0.04263793 -0.007967066 0.012400047 0.016948061 0.069793455
0.055309784 0.0151247475 0.041534632 0.07746066 0.050357006 -0.018301545 0.039594803 0.03735269
0.08136788 0.096724175 0.084669165 -0.009481067 -0.02801268 0.0544934 -0.043608766 0.04824371
0.025719948 -0.025877027 0.034429178 0.049919378 -0.0017423104 -0.0021100135 0.036392957 0.03560985
0.041998453 -3.4535153e-06 0.04226844 -0.038952615 0.002389803 0.030922126 0.06385536 -0.0036662254
-0.047673598 0.042689316 -0.03288056 -0.0072226985 -0.033391055 -0.016038751 0.06902675 0.031147337
0.03417989 -0.016456574 0.052995853 0.029847546 0.05683132 -0.014369279 -0.009213643 0.05096508
0.027760508 -0.007935996 0.023305029 0.016484123 -0.041386507 -0.051810883 0.027782395 0.032412104
0.103761226 0.027634576 0.018695692 0.058645505 0.03580264 0.009953028 -0.020349083 0.060527727
-0.0076265936 -0.058289416 -0.031368192 0.03747112 -0.04695063 0.010941456 -0.044260863 0.070370324
0.051900487 -0.016499879 0.041367326 0.041328162 0.03270189 0.016070005 0.0281503 -0.0027486507
-0.059115276 -0.035337273 -0.026295286 0.016669255 -0.04958956 0.024744524 0.062463515 0.033530142
-0.037903823 0.01674561 -0.04501821 0.0057286676 0.071232036 0.06695644 -0.02015336 0.03783244
-0.05073973 -0.0062240427 -0.010001941 0.008104691 0.03441139 0.044580787 0.04512226 0.054139774
0.013441387 -0.03390928 -0.00865315 -0.02003157 -0.016454512 -0.006316213 -0.0042576767 0.028266476
0.019117698 0.030255971 0.017078586 -0.027459597 -0.045513175 -0.0046316036 0.036065556 0.0048266132
0.024336495 0.048903443 0.0088192 -0.013128458 -0.035751585 0.076697215 0.017857632 0.012251474
0.03190455 -0.016366519 0.013307051 0.018856987 0.061864927 0.023515692 0.036678303 0.014900119
0.021108465 0.08342468 0.024974048 0.014349447 0.058028266 -0.001606992 -0.0027672856 0.004618211
-0.06547239 0.031976417 0.07592954 -0.019264366 -0.0068578464 0.011583123 -0.010503103 -0.010403971
-0.022824949 0.09000898 0.0061295372 0.061001427 -0.0052331598 0.0057897475 0.037789933 0.012650409
0.011796043 -0.023404248 0.028044894 -0.0029472152 -0.007819047 0.036468193 -0.017451255 0.07886229
0.0019327893 0.015533265 0.05835021 0.047463845 0.053985402 0.054877773 0.06480946 0.04012854
0.025714075 0.05828006 -0.021433359 -0.018282836 0.03246756 -0.030655295 0.032578673 0.07084029
0.04675182 0.0401301 -0.011201486 -0.004270263 -0.005709921 0.008935022 0.060032506 0.028480913
00000000: 0b02 9e3d 19e4 c6bc 52ab 093d 619c 41bd
00000010: 6354 33bd bd45 8d3d 77ca b23c 0ba6 6d3d
00000020: df4c 11bd 21ca f03c b9a9 aebc 6b2f f93c
00000030: 33f7 943b e0ba 263d 2030 3cbc 1dad 2c3c
00000040: 21a4 bcbc 266c 813d 2f16 563d 9078 6fbc
00000050: f58c 373c 02e9 bebc f954 773c e582 773d
00000060: 0e95 e6bc 6442 ac3c e519 f03b e232 073d
00000070: 93d6 a13c 43e4 b4bc acf9 6f3c 2ce5 883c
00000080: 0e84 25bc 230d 593d 687f 9abc 5c05 e83a
00000090: 1230 97bc 6e67 313d 9f43 14bd 1391 18bd
000000a0: dbd8 b5bb 668b f13c 39bd 99bc 98e8 03bc
000000b0: aaf3 913d d682 23bc ce35 7e3d ea0b 973d
000000c0: e9b5 e7bc 9afc e63c 0f10 993b 6a74 cabc
000000d0: 8334 2fbc 0bc2 17bd 1635 c0bc 31f4 823d
000000e0: 59d6 b1bb 83a0 173b 58f6 013d 1ca5 2e3d
000000f0: 4c88 02bc 9129 4b3c a9d6 8a3c dfef 8e3d
00000100: 838c 623d cacd 773c 3820 2a3d b2a3 9e3d
00000110: 2643 4e3d 1fed 95bc 292e 223d 22ff 183d
00000120: 34a4 a63d 5317 c63d 0767 ad3d 7a56 1bbc
00000130: d97a e5bc 7934 5f3d 1b9f 32bd 329b 453d
00000140: a4b2 d23c 0ffc d3bc 9c05 0d3d 4378 4c3d
00000150: 3c5e e4ba 2748 0abb c810 153d a2db 113d
00000160: 9206 2c3d f1c2 67b6 ac21 2d3d c78c 1fbd
00000170: 3e9e 1c3b 6650 fd3c 99c6 823d 0e45 70bb
00000180: 6445 43bd feda 2e3d c4ad 06bd 63ac ecbb
00000190: 0fc5 08bd b363 83bc e65d 8d3d b328 ff3c
000001a0: 3600 0c3d f0cf 86bc 2e12 593d d782 f43c
000001b0: f5c7 683d 206d 6bbc d2f4 16bc c2c0 503d
000001c0: 016a e33c fb05 02bc 30ea be3c b609 873c
000001d0: e684 29bd a637 54bd e897 e33c 8ec2 043d
000001e0: c480 d43d e861 e23c b527 993c 4536 703d
000001f0: caa5 123d 0612 233c 1fb3 a6bc eceb 773d
00000200: 81e8 f9bb e2c0 6ebd ef7b 00bd 517b 193d
00000210: 4e4f 40bd cb43 333c e14a 35bd 511e 903d
00000220: 9b95 543d c12a 87bc c970 293d b847 293d
00000230: 6bf2 053d 3ea5 833c 759b e63c b522 34bb
00000240: dc22 72bd d1bd 10bd 3669 d7bc f68d 883c
00000250: 6c1e 4bbd 07b5 ca3c bed9 7f3d e756 093d
00000260: 0a41 1bbd 172e 893c 0465 38bd 8cb7 bb3b
00000270: 1ae2 913d 7520 893d a918 a5bc 30f6 1a3d
00000280: 77d4 4fbd 0ef3 cbbb 2edf 23bc 8ac9 043c
00000290: f5f2 0c3d 589a 363d 1ed2 383d abc1 5d3d
000002a0: 4339 5c3c 75e4 0abd f1c5 0dbc 3f19 a4bc
000002b0: 9dcb 86bc 3cf8 cebb fb83 8bbb 198f e73c
000002c0: b89c 9c3c 5fdb f73c 64e8 8b3c f3f2 e0bc
000002d0: 066c 3abd b5c4 97bb 7ab9 133d 9128 9e3b
000002e0: 545d c73c fa4e 483d 687e 103c be18 57bc
000002f0: 4170 12bd 6e13 9d3d 2b4a 923c 68ba 483c
00000300: 58ae 023d 1413 86bc d105 5a3c f879 9a3c
00000310: 1466 7d3d fba3 c03c fd3b 163d a11f 743c
00000320: a9eb ac3c 8fda aa3d 6096 cc3c f119 6b3c
00000330: 0caf 6d3d b4a1 d2ba 595b 35bb 5d54 973b
00000340: 6316 86bd b4f9 023d f280 9b3d 4ed0 9dbc
00000350: c9b7 e0bb 24c7 3d3c 3515 2cbc 6b75 2abc
00000360: 63fb babc a156 b83d 49da c83b a2dc 793d
00000370: ed7a abbb ecb7 bd3b 9ec9 1a3d a943 4f3c
00000380: 3144 413c 44ba bfbc 68be e53c 1126 41bb
00000390: 761b 00bc ac5f 153d eff5 8ebc 8d82 a13d
000003a0: a655 fd3a 3c7f 7e3c a100 6f3d 7369 423d
000003b0: cc1f 5d3d 84c7 603d d2ba 843d d35d 243d
000003c0: 53a6 d23c 12b7 6e3d 0395 afbc e3c5 95bc
000003d0: b4fc 043d d020 fbbc 3771 053d b714 913d
000003e0: d67e 3f3d 765f 243d 7086 37bc 90ed 8bbb
000003f0: 4a1a bbbb 3364 123c a5e4 753d ce50 e93c

linear2.bias f4 [4]
0.0021630814 0.08068254 0.019952022 0.024155034
00000000: 7cc2 0d3b e33c a53d 6c72 a33c c7e0 c53c
