model/model.pth (torch, 27456 bytes, 4 tensors)

linear1.weight f4 [256, 20]
00000000: 315c f5bd 3961 1e3e d032 403e 42b6 4abe
00000010: 753b c4bc b179 f0bd e26e e23d 0427 81bc
00000020: f572 193e 0b21 72bc e15d a9bd be10 1cbe
00000030: f34d 673e 63d5 07be 6a82 953d 0adf 293e
00000040: c661 823d 4360 e2bd dce9 443d ab2f 053e
00000050: 9271 4dbe e60a 02bd 4215 ad3d b9f8 d73d
00000060: c022 633d df6d ae3d 7e08 c63c 087d c53d
00000070: 3ac9 c3bd 2f9b 843d bfd2 1c3e 983c 1ebe
00000080: e493 39bd 89e3 a9bd d6ad ff3d 05c8 e93d
00000090: fb94 143e a286 71be feea 0ebe 0280 1dbe
000000a0: 3672 47be 2690 383e 6131 febc 4025 69be
000000b0: 055a 52be 2aef 9ebc e777 2fbe 593e 4a3e
000000c0: 9233 d8bc 0482 fd3d 2a35 9fbb fbd8 123d
000000d0: 7bbc aabd fcab 11bd 1f4a 1c3e 30c5 e7bc
000000e0: 0413 f43d 9bab 1cbe 893d e63d 51ee b2bd
000000f0: eec1 493e bec6 2d3e 3a02 b9bd 5999 273c
00000100: e7c8 a4bd 13ad 253e e851 15be 2d83 2a3e
00000110: 8447 733d 3640 e03d 4cd9 21be 8851 373e
00000120: d470 edbd 4fae abbd 3312 b4bd 1464 5e3e
00000130: aed3 763e 9af4 d33d 6ca0 653e 836b a53d
00000140: 60e1 56be 9e3c 973d eb22 403e c3b8 663c
00000150: 31f9 5c3e d74e 50bc bf73 523d a295 313e
00000160: 4915 10bc bb9c 603e 0ac2 5c3d 4035 54bb
00000170: 5909 43be 517f 2e3e 38fe 49be ecbf 80bd
00000180: 6845 88bd e915 eb3d e32d 57bc 822f f8bc
00000190: 971f 553d 8ff9 b3bd bbc2 23bc bb5e 39be
000001a0: a2f6 683e a51a 9a3d 48bb 2abc c852 b0bd
000001b0: cce3 92bd 6d7f f7bd 7d0d bbbd 2591 263e
000001c0: 535c 423e 739f 643d 3837 19bd abd9 63bd
000001d0: 21aa 92bc b97d fdbc 4610 ffbd 7804 ebbb
000001e0: 93d6 963d dd12 833e 3be3 16bc 3772 0b3d
000001f0: a3b0 6abd 89a4 c4bd aefd 47be 6bd1 72bd
00000200: 537b f23d 1e4f cebd 7cee 0e3e e448 063e
00000210: 90d2 eebc a5c8 203e dc31 fe3d c201 1abe
00000220: bc00 03bc 69e3 31be a79d 183e a754 10be
00000230: 6850 ee3d 680b df3d 9a0b 2b3e 4535 cabc
00000240: 6707 59be 7261 d33d bec5 80bd cf69 abbd
00000250: fb68 193d 135b 6fbe d035 1a3e 54a2 813d
00000260: 6ca6 0c3e a5d9 733e 1ad6 3d3e 8b0e 2e3e
00000270: 3304 7b3e 1fd7 8d3c 09c7 f0bd 01f9 f53d
00000280: db11 523e 5152 e03d 6102 d4bb aabd 36bc
00000290: 7691 d63d 73f8 173e 3588 21be f5ae 45bd
000002a0: f730 21bc f75f 24be de2c 97bd 2e80 1fbe
000002b0: 3aca 073e 5e47 2abb cd4d abbd e424 3e3e
000002c0: 4ec5 23be b31b ad3c 2d63 2abe 2aa2 52be
000002d0: ef99 83bd 638c fc3d 4f4c 013e 0c15 0abe
000002e0: 2737 793d 02d3 b83d 45ff 3cbe 051f 313e
000002f0: f6f2 29be b373 81bd 280b 1abe ef46 983d
00000300: c902 813d 57a1 1dbe fc06 d83c e52d 8abd
00000310: 10e0 7fbd 7053 853c f573 d03d a8d9 40be
00000320: 5967 56be f093 253e 8f92 32be 452b 233d
00000330: 3b92 193e 1b13 c7bb 4e57 223d ec17 dfbd
00000340: a2c1 c4bd 41b5 55be ac97 383e 7ec0 013d
00000350: a631 8d3a 79b9 e6bd a4dc 26be e625 d6bd
00000360: d2f8 f83d 4dae 093e fd73 a03d 7b75 0fbe
00000370: bbd4 2abe fc2b f1bd b625 543e db45 a4bc
00000380: 0dc6 28bd 9a73 973b c5ba a4bb 2f85 82bd
00000390: 71d1 ff3d 149b 3cbe b0eb 0dbe 491b 9bbd
000003a0: 39d0 c8bd 6301 a6bd 92cb fdbd 5c31 b2bd
000003b0: 8e0c ca38 f1f0 58be 0aa5 273e 5037 91bc
000003c0: 8a12 a3bd 4c40 9d3d 25f9 18be f7fd 4f3e
000003d0: f80a df3d 424c 003e 75c8 c93d ebf3 fc3d
000003e0: dd3f 50be 0f52 c7ba e8de 44bd afbe dc3d
000003f0: 4d4a 82bd 6458 c13d db15 44be 5919 553e
-0.11980475 0.15466775 0.18769383 -0.19796088 -0.023954133 -0.11741961 0.110563055 -0.015765674
0.14985259 -0.014778386 -0.08269859 -0.15240762 0.22588329 -0.13264994 0.07300265 0.16588989
0.06366305 -0.11053517 0.04807459 0.13006465 -0.20062855 -0.031748675 0.0845132 0.10545487
0.055453062 0.0851705 0.024173971 0.096429884 -0.09559865 0.064749114 0.15314768 -0.15452802
-0.045307055 -0.08295352 0.124843284 0.11415104 0.14509957 -0.23586515 -0.1395683 -0.15380862
-0.19477162 0.18023738 -0.031029405 -0.22768116 -0.20542152 -0.019401152 -0.17135583 0.19750346
-0.026391778 0.12378314 -0.0048586326 0.03585146 -0.08336731 -0.035564408 0.1526265 -0.028292269
0.119176894 -0.15299837 0.11242206 -0.087368615 0.19702885 0.16970345 -0.09033628 0.010229432
-0.080461316 0.16179304 -0.14582026 0.16651602 0.059394374 0.10949747 -0.15805548 0.17902195
-0.11593786 -0.08382856 -0.08792534 0.21717864 0.24104187 0.103493884 0.22424477 0.08077147
-0.20984411 0.07384609 0.1876332 0.014082137 0.21579434 -0.012714109 0.051379915 0.17342237
-0.008794137 0.21934788 0.053895988 -0.0032380372 -0.19046535 0.17040755 -0.19725883 -0.06286606
-0.06653863 0.114787884 -0.013133499 -0.030296091 0.05203208 -0.08787834 -0.009995158 -0.18102543
0.22750333 0.07524613 -0.010420628 -0.08609539 -0.07172355 -0.120848514 -0.09133432 0.16266306
0.18980531 0.055816125 -0.037406176 -0.055627506 -0.01790339 -0.030943738 -0.12454276 -0.0071721636
0.073651455 0.2560033 -0.009209449 0.03404447 -0.05729736 -0.09601695 -0.19530365 -0.059281748
0.118399285 -0.10073684 0.13958162 0.13113743 -0.029153138 0.1570154 0.12411854 -0.15039733
-0.007995781 -0.17371906 0.1490389 -0.14094792 0.1163643 0.108908474 0.16703644 -0.024683604
-0.2119423 0.103213206 -0.06287716 -0.08369791 0.037453633 -0.23374586 0.1505959 0.0632979
0.1373536 0.23813494 0.18538705 0.16997735 0.2451332 0.017314492 -0.11756713 0.12010384
0.20514624 0.109532006 -0.00647001 -0.011153618 0.10476963 0.1484087 -0.15774615 -0.048262555
-0.009838334 -0.16052233 -0.073816046 -0.1557624 0.13260737 -0.002598248 -0.08364449 0.1856876
-0.15993235 0.021131372 -0.16639395 -0.20569673 -0.06425845 0.12331464 0.12626766 -0.13484591
0.060843613 0.090246215 -0.18456753 0.1729699 -0.16596588 -0.06320896 -0.15043318 0.074354045
0.06299359 -0.15393578 0.026370518 -0.06747035 -0.062469542 0.016275138 0.10178367 -0.1883303
-0.20937862 0.16169715 -0.1743872 0.039836187 0.14997189 -0.0060752756 0.03963404 -0.108932346
-0.09607245 -0.20869924 0.18026608 0.031677715 0.0010772243 -0.11265845 -0.16295105 -0.10456447
0.12156834 0.13445397 0.07834623 -0.14009659 -0.16682713 -0.117759675 0.2071751 -0.020052841
-0.0412045 0.004621935 -0.0050271475 -0.06373059 0.1249112 -0.18418533 -0.13859439 -0.075735636
-0.0980534 -0.08105733 -0.123923436 -0.08700821 9.634449e-05 -0.21185662 0.16371551 -0.01772657
-0.079625204 0.07678279 -0.14938791 0.20311724 0.10890764 0.1252909 0.09852687 0.12351211
-0.20336862 -0.001520695 -0.048064142 0.107785575 -0.06361828 0.09440687 -0.19148962 0.2081045

linear1.bias f4 [256]
00000000: 8cda aabd 0be8 d6bc 4f34 cb3d 7af2 ec3b
00000010: c7b7 0fbe 98f4 a1bd 6f74 34be 6c50 313e
00000020: e664 28be 8e70 04bd 51d1 40bd 150d 0cbe
00000030: 7e4e 3e3e 85c9 8abc 3d25 2bbd 33a8 babd
00000040: 224b ca3d 1023 093d 8843 6c3c c48d 543e
00000050: ecf8 e13d 2776 d03d c7ac fb3d 8cd5 0dbe
00000060: 9c61 39be 396f 8fbd 58d6 2c3e 70e4 f2bd
00000070: 5f11 f0bd 46f5 633d acd3 f5bd ec2b 0a3e
00000080: cd0c d7bd c66d e5bd 3f06 0d3e 79d0 873e
00000090: 5e29 74be e1c7 de3d 955e 383e f1b7 4f3e
000000a0: 5a06 0bbe 2c16 fd3d f9ed 2dbd 76f1 52be
000000b0: 259b 73be 3797 c23d 4f86 f8bd 6431 4ebe
000000c0: fdcb 7d3e 759a 5d3d 05bd 093d 5cb7 54be
000000d0: 8036 203e ace6 6c3e c3cc c63d bd11 10be
000000e0: d7c8 99bd 4023 b33e 6c04 1ebd e4a1 1bbe
000000f0: 661d 2dbc 8d31 663e 0d75 bebc 6e3c 90bd
00000100: c41d f23c aafb 4cbe 5803 e93c f94f 483e
00000110: 76a6 4f3e 74a8 ddbd 9b9a 7c3e 057c 0e3e
00000120: 1c0c 91bd b076 583e 7c3e 74bd 82a6 6c3e
00000130: b3dd 603d 1c86 4b3e 47c8 d7bd 442d 983e
00000140: e1e7 e53a 6cbd 723e a5ac 66be 31d0 e23c
00000150: 64bc cc3d bc2d 65bd 853a e3bc f821 813e
00000160: 56d3 293c 71bc 2fbd b23f 3bbd 55aa 62be
00000170: fce6 1a3e 3f77 0d3e f814 183d 8cb0 26be
00000180: 4f0b 5b3e 7051 05be c6ba 70bd 995a 323e
00000190: 4015 9dbd c4c8 403e cabb f1bd 83c7 413e
000001a0: 82d0 58be 2aa1 4d3e b99f 49be 9f6e 9dbc
000001b0: 2b27 9b3d 06c5 a83b 24b1 3cbd 8437 20be
000001c0: c990 663d 12a8 3e3d e159 043e 61fb 10be
000001d0: 2795 40be a92d 2bbe e575 7a3d ccf3 aa3c
000001e0: 9271 083e f585 2e3e 12a7 843d 0c9c 32bc
000001f0: 9139 3b3e 1214 fd3c 0e1e 83be 1f46 133e
00000200: 6866 4abe b71a 55be b90c cfbd bef2 58bc
00000210: 9776 05be f0ae 7f3d 978d 0dbe 3780 ffbd
00000220: dfb1 8c3e abd2 08be 66af eabd d657 63be
00000230: d3fd a1bd 9faa 813e 6e52 41be 6432 073e
00000240: 1319 de3d 9f02 5a3e 31cf fcbd b664 7ebd
00000250: a3d4 093e f418 63be c156 1abc 8d5f 7fbb
00000260: 5642 a73d eadf c53c 2b3f 64be d16d e83d
00000270: 428c 8cbe da48 f13d af76 8d3b 7eae 54be
00000280: a725 c23e 7523 403e e066 55be 27a2 4abe
00000290: d87c 2abe b5de 14be 2245 cdbd 1043 c43d
000002a0: a9c6 62be db5a a3bd 5d3c 49be cb19 523d
000002b0: f76c 78bd cf56 913c 5221 e1bd 7ac5 3fbe
000002c0: 0340 8a3e 6ccb 893e 25b4 3ebd 0776 bd3e
000002d0: 3446 ca3d b2f9 67be fba7 9bbc 6d01 603e
000002e0: fe7d 7a3e de5e adbd f2e0 783d 3678 133e
000002f0: 3a72 45be d5f0 a13d b8d9 0a3e a270 c6bd
00000300: 905b e2bd c633 25bd 6d2d 5fbe 23de a6bd
00000310: 2107 29be 2ef1 133d c7f7 35be ec2e 13be
00000320: f043 5d3d a3ff 12bd d494 0d3e 2fc1 cabd
00000330: f203 74be 8338 9f3c 2e29 293e be68 2fbe
00000340: e5af 03be 17bb c63d 07b4 53be fd88 e03d
00000350: e51e 873c cc76 52bc d4be fa38 47a2 4abe
00000360: 9cde 923e e697 5e3e f915 9e3d 2cd9 1abe
00000370: e9a4 f9bd fca9 6d3e af35 d2bd adc3 fb3c
00000380: 6756 2bbe 42a6 a9bd 41bd 573d ca6a 12be
00000390: 5ba8 95bd cb46 283d 5f0c acbd b4f1 92bc
000003a0: 96db 153e 5ef1 c23d 79b9 203c 84f0 003e
000003b0: 3870 c93c b659 03bd 76e4 453e 72a6 09be
000003c0: af82 983c 803e b5bc 120c 1dbd eb9a 20be
000003d0: 5750 22bd d0eb 30be 8c68 353e 5346 41be
000003e0: bc47 7abd eacf ffbc d960 66be 13e2 c5bc
000003f0: 294c 85bd 8195 6bbe 00da 373e 8b6a 013e
-0.08342466 -0.026233694 0.099220864 0.007231054 -0.14034949 -0.07907981 -0.17622541 0.17315835
-0.1644474 -0.032333903 -0.04707462 -0.13676865 0.1858463 -0.016941795 -0.04178356 -0.09114113
0.09877612 0.033480704 0.014420398 0.20757204 0.11033806 0.10178786 0.12288814 -0.13850993
-0.18103641 -0.07003636 0.1687864 -0.11859977 -0.11722063 0.055653833 -0.12003264 0.13493317
-0.105004884 -0.11202578 0.13771914 0.2652624 -0.23843905 0.108779676 0.1800483 0.20285012
-0.13576642 0.123577446 -0.042463277 -0.20599923 -0.23789652 0.09501498 -0.12134992 -0.20136029
0.24784847 0.05410238 0.03362753 -0.20773071 0.1564579 0.2313487 0.09707024 -0.14069267
-0.0750901 0.3498783 -0.038578436 -0.15198475 -0.010566091 0.2247984 -0.023249174 -0.07042776
0.029555209 -0.20017877 0.028443977 0.19561757 0.20278344 -0.108231455 0.24668352 0.13914497
-0.07082388 0.21139026 -0.059629902 0.23110393 0.05489893 0.19875377 -0.10536247 0.29722035
0.0017540419 0.23705071 -0.22526796 0.027687164 0.0999687 -0.05595182 -0.027737865 0.2522123
0.010365328 -0.04290432 -0.04571504 -0.22135289 0.15127176 0.1381502 0.037129372 -0.16278285
0.21391033 -0.13019347 -0.05877187 0.17417373 -0.07670069 0.18826586 -0.11803396 0.18923764
-0.2117329 0.2008101 -0.19689836 -0.019217787 0.0757583 0.00515044 -0.046067372 -0.15646178
0.05629042 0.046547003 0.12924911 -0.14158393 -0.18806897 -0.16716637 0.06114759 0.020868205
0.13324574 0.17043288 0.06477179 -0.010901462 0.18283679 0.03089336 -0.25608867 0.14382218
-0.19765627 -0.20810972 -0.101098485 -0.013241468 -0.1303352 0.062422693 -0.13823543 -0.12475627
0.27479455 -0.13361613 -0.11459236 -0.22201476 -0.07909741 0.25325486 -0.188791 0.13202816
0.10844626 0.21290062 -0.12344206 -0.062107764 0.1346002 -0.22177488 -0.009420098 -0.0038966865
0.081669495 0.024154622 -0.22289722 0.11349071 -0.27450758 0.117814735 0.0043171267 -0.20769688
0.3791935 0.18763526 -0.20840025 -0.19788419 -0.16649187 -0.14538081 -0.10022952 0.09583104
-0.22146095 -0.07976314 -0.19651933 0.05129413 -0.060650792 0.017741589 -0.109926835 -0.18727675
0.27001962 0.2691301 -0.046558518 0.3700411 0.098766714 -0.22653845 -0.019000998 0.21875544
0.24462125 -0.0846536 0.0607614 0.14401326 -0.19281855 0.07907263 0.13559616 -0.09689452
-0.110526204 -0.040332578 -0.21794672 -0.08147838 -0.16506626 0.03611868 -0.17770301 -0.14373368
0.05401987 -0.035888325 0.13826305 -0.09900128 -0.2382963 0.019436127 0.16519615 -0.171298
-0.12860067 0.09703653 -0.20674144 0.109636284 0.016494224 -0.012845706 0.000119564735 -0.19788466
0.28685462 0.21737632 0.07719035 -0.15121907 -0.12189657 0.23209375 -0.102641456 0.030732954
-0.16732179 -0.08283664 0.05267072 -0.1429855 -0.07307502 0.04108314 -0.08400797 -0.017937519
0.14634547 0.095186934 0.009809845 0.1259175 0.024589643 -0.032067977 0.19325432 -0.134424
0.018617002 -0.022124529 -0.03834159 -0.15684097 -0.0396274 -0.17277455 0.17715663 -0.18874483
-0.061103567 -0.03122707 -0.22497882 -0.024155652 -0.06508667 -0.2300625 0.17954254 0.12638299

linear2.weight f4 [4, 256]
00000000: 8c5b ae3a f190 953d e1dc 3d3d f6e1 403d
00000010: 17fa 99bb b00c ddbc df08 b83c f9aa 853d
00000020: c031 91bb 2ab6 e63c e476 b33d 31e7 26bb
00000030: 6d86 db3c ec3f 883c d020 e43c 4eee c0bc
00000040: 6085 613b f411 b03c b4bd b33b a948 6abc
00000050: 1565 223d 1e99 283d 3730 6c3d d795 8b3d
00000060: 78fd d33c 4d73 213c 6dc3 aa3c 0ca2 093d
00000070: 818a 873c 14b5 d83b 892b ae3c 155c 0e3d
00000080: 22f7 a23c 81c1 b8bb e2f0 3c3d 0320 893d
00000090: e23d e23c f82f 2f3c 3411 f7bc 64b1 9f3d
000000a0: b135 b33c 0bb2 803c 3ec3 28bc 3be3 0cbc
000000b0: 05fc dd3c 7001 ca3d faf3 023d a7b0 cdb9
000000c0: 7220 993d 4f7f 1c3d 2e42 3e3d 93af d73c
000000d0: 25ff 883d 792a 583d 9d2c 173c be56 13bc
000000e0: d22d 903b fa9f 363d 99a3 47bc c821 203d
000000f0: 6f13 13bd 9436 593d 5930 3e3d 933b e83c
00000100: b4bb 253d f9f1 6e3d 3916 673b 7d9c 883d
00000110: 392b d73c 8412 bd3c e0d5 9b3b 7890 823d
00000120: 123d cdbc dbbd a7bc 1c2d 453d 943a aa3d
00000130: e88b 02bd 9534 023d 9bf7 323d b1d5 c83d
00000140: b539 883c c200 e7bb 53e6 81bb 144e 843d
00000150: e5a0 96bc 9908 3a3d 84ec 6c3d 9569 7f3d
00000160: f6a7 833c 5201 953d d77c b23d 20a1 fbbc
00000170: 4b2e c5bc 4557 123d a4d6 52bc 7a1b 30bc
00000180: 4575 d93c dc0b 1ebd 450e bf3c bf57 003c
00000190: 4b86 823c 5da7 083d 44fa 2b3d cc70 d43c
000001a0: 4e90 d8bc 86ef a83d 402b 1ebb b074 193d
000001b0: 9d28 9a3d 3f2f d9bc 62cc 7b3b 3f35 cc3d
000001c0: a1da a63d 31c0 e139 2a85 303d ac5e 97bc
000001d0: 7129 713b 3a4d 8d3d 660e 653d 6566 14bd
000001e0: e7e8 813d 6ecc 3bbc cfcd 733d 1a63 a43c
000001f0: 6662 b33d d038 30bc 4f02 e4bc 76e9 fcba
00000200: ea42 44bd d442 ac3d f5b1 573c 1864 e03c
00000210: 46d5 823d 86ff 80bc 59fb 8b3d 17ab e6bb
00000220: a27b 4a3d 28a6 723b 4fab 553d 3aa5 813d
00000230: 0bce cfbc 4ea0 bd3d f163 7e3c 0f4b ca3c
00000240: 83d1 5c3c 0fb2 ab3d c117 ef3b 9747 573d
00000250: 229c 583c e2f5 f03c 3f7f 163d 6cb5 3a3c
00000260: f74a f33c 36a0 e4bc 7310 0b3d 1cc9 b13d
00000270: 22ad 663c 9823 8a3d d0be 3f3d dece 463c
00000280: 8ce4 343d 1c7f 883d d0e0 b23d 3bff 083d
00000290: 9427 b33b c5eb 7e3d 7c31 02bc 8d4d b73d
000002a0: f9b7 e03c 3db2 a73c abfd 89bb 4dcc 3e3d
000002b0: 2844 2e3b b5bb b23c 9249 ac3d 92cd 89bc
000002c0: 1b73 7c3d cbae 8c3d 7325 263d bb4e 8b3d
000002d0: 8a5b e8bc a1e6 953b ab6c b23c 789b 36bd
000002e0: 37d9 bd3d f8ad 303d 00e2 0b3d 46e0 d33c
000002f0: 7207 e93c f827 82bc c9e6 293c f66e 633d
00000300: 1e91 1a3d bb0d 81bc bcac 263c aaaa ac3d
00000310: 7af7 aebc 8e9d 83bb d26b b3bc f1ab 923d
00000320: 16b9 a5bc 3e1a 3a3d 7c2d 013d ab12 2b3d
00000330: 3c1c ee3a 3c09 2dbc 3feb 133d 81b9 df3c
00000340: a9c7 6cbd a6ef 903c 6981 803b e4e1 483d
00000350: ea8a c73d 0932 373d ff90 a6bb 4715 b13c
00000360: 82b8 643d d115 213d 3229 933b 65a4 f3bc
00000370: fc91 823d e4a7 a33d c3f3 143b fca8 ba3d
00000380: 584f b9bc e5b0 af3d 44c3 533c d78e 853d
00000390: ac6f 893c e3f3 d8bc 7342 c93b 9e75 f6bc
000003a0: 5619 7a3d b660 b33c 9e4c d7bb 94bc 9c3d
000003b0: 6dec 9a3c 3b4a 07bd a1fb 0b3b 1987 8f3d
000003c0: abd3 cdbb 256b ef3c 16ea 3ebb dad9 15bd
000003d0: a882 f23b a6e9 d83c a900 93bc f302 873d
000003e0: 333b 3fbd 3caa 833d 6ca5 6c3a fb68 df3c
000003f0: 5128 af3c 4019 dd3c e8e3 7b3c 7f85 643d
0.001330243 0.07303036 0.046353225 0.047090493 -0.0046990025 -0.026983589 0.022465168 0.06526751
-0.0044309795 0.028163034 0.08762911 -0.002546739 0.026797498 0.016632043 0.027847677 -0.023551133
0.0034411773 0.021492936 0.005485261 -0.01429955 0.03964718 0.04116165 0.05766317 0.06815689
0.0258777 0.00985415 0.02084514 0.033601806 0.016545536 0.006613383 0.021260994 0.034755785
0.019893233 -0.005638302 0.04612816 0.06695559 0.027617399 0.010692589 -0.03015957 0.077975065
0.021876188 0.015709898 -0.010300456 -0.008599098 0.027097711 0.098635554 0.031970955 -0.00039232263
0.074768916 0.03820735 0.046449833 0.026328837 0.0668929 0.05277488 0.009226945 -0.008992849
0.0043999935 0.04458616 -0.012185001 0.039094716 -0.035907205 0.053030565 0.046432827 0.02834872
0.04046221 0.05833623 0.0035261048 0.06670473 0.026265727 0.023080118 0.0047557205 0.063752115
-0.025053535 -0.020476272 0.048138723 0.08311954 -0.031871706 0.031788427 0.043693166 0.098063834
0.01662908 -0.007049651 -0.0039642244 0.06460205 -0.018387267 0.045418356 0.057842746 0.06235655
0.016071301 0.072756425 0.087152176 -0.030716479 -0.024069926 0.035727758 -0.012868557 -0.010748738
0.026545176 -0.03858553 0.023322234 0.00783342 0.015933177 0.033362735 0.04198672 0.025932692
-0.026435997 0.082488105 -0.0024134666 0.037464797 0.075272776 -0.026511787 0.0038421382 0.099710934
0.08147169 0.00043058538 0.043095745 -0.01847776 0.0036798383 0.068994954 0.055921935 -0.036230464
0.06343251 -0.011462314 0.059522446 0.020066787 0.087590024 -0.010755733 -0.027833132 -0.0019295651
-0.047915377 0.08411184 0.013164987 0.027391478 0.06388335 -0.015746843 0.0683505 -0.0070394385
0.04943431 0.0037025306 0.052165326 0.063303426 -0.025366804 0.09259091 0.015526758 0.024693994
0.013477686 0.08383571 0.007296533 0.052558508 0.013220819 0.029414121 0.036742445 0.011395793
0.029698832 -0.027908426 0.033951234 0.08680937 0.014079364 0.0674507 0.046812832 0.012134282
0.04416327 0.06664869 0.08734286 0.03344653 0.0054673646 0.062236566 -0.007946368 0.089503385
0.027431475 0.020470733 -0.004211148 0.046581555 0.0026590917 0.021818021 0.0841247 -0.016821656
0.06163321 0.068692766 0.040563058 0.06802126 -0.028363962 0.0045746122 0.021780333 -0.04458186
0.09269946 0.04313466 0.034151077 0.025863778 0.028445933 -0.0158882 0.010369965 0.055525742
0.03773605 -0.015753618 0.010173019 0.08430989 -0.02135824 -0.0040165847 -0.021901999 0.071617015
-0.020229857 0.045435183 0.031537518 0.04176585 0.0018166373 -0.010561284 0.03611302 0.027310135
-0.0578076 0.017692398 0.003921677 0.04904355 0.09743293 0.04472545 -0.005083203 0.021616591
0.055840023 0.039327446 0.004490995 -0.029741475 0.063755006 0.07991007 0.00227283 0.091142625
-0.022620842 0.08578662 0.012924973 0.06521385 0.016776882 -0.026483482 0.0061419546 -0.030085381
0.06105932 0.021896701 -0.006570413 0.07653156 0.018911565 -0.033029776 0.00213597 0.0700819
-0.0062813363 0.029225895 -0.0029131225 -0.036584713 0.0074008293 0.0264786 -0.01794465 0.065923594
-0.046687316 0.06428954 0.00090273353 0.027271738 0.021381529 0.02698958 0.015374161 0.055791374

linear2.bias f4 [4]
00000000: e02e 473d 04ac 473c 6351 8a3d de0b ac3b
0.048628688 0.012187008 0.067538045 0.005250438
