model/model.pth (torch, 27456 bytes, 4 tensors)

linear1.weight f4 [256, 20]
0	0xbd0f3db6	-0.03497096
1	0x3e2eb435	0.17060931
2	0xbe000901	-0.12503435
3	0x3dfa12a7	0.12210589
4	0x3c07e583	0.008294466
5	0xbe260f07	-0.1621667
6	0xbd2270dc	-0.039658412
7	0xbcdc3de1	-0.026884975
8	0xbd253b2d	-0.040339638
9	0x3d65a56d	0.056065965
10	0x3e87ff3d	0.2656192
11	0x3df48d9e	0.11941074
12	0xbe1544f6	-0.14577088
13	0x3d1c6590	0.038182795
14	0xbdb5a9fd	-0.08870313
15	0x3e1ce5e0	0.15322065
16	0x3d9bedd6	0.07613723
17	0xbce94817	-0.028476758
18	0x3e58bfe9	0.21166958
19	0x3e13d7f6	0.14437851
20	0x3d6191fd	0.055070866
21	0x3d364e05	0.044508
22	0xbe39461f	-0.18093155
23	0xbdc7bd24	-0.097528726
24	0x3d19124f	0.037370976
25	0xbe82e5ff	-0.25566098
26	0xbe38b442	-0.18037513
27	0xbe5a7369	-0.21333088
28	0xbd387ab6	-0.0450389
29	0xbe14b918	-0.14523733
30	0x3a9a9273	0.0011792913
31	0xbe278334	-0.16358644
32	0x3e1f4291	0.15552737
33	0x3ca6aebb	0.02034699
34	0xbd7e8f7a	-0.06214855
35	0x3da0c92e	0.07850872
36	0x3e7d42cc	0.24732512
37	0xbe212f02	-0.15740588
38	0xbc40e3c0	-0.01177305
39	0xbe00432f	-0.12525629
40	0x3e0ef388	0.13960087
41	0xbe91ce0f	-0.28477523
42	0x3e5db629	0.2165152
43	0xbe775cda	-0.24156514
44	0x3e853313	0.2601553
45	0xbda38d4f	-0.07985937
46	0x3e88e723	0.26738843
47	0x3e4e2653	0.20131807
48	0x3e542b68	0.20719683
49	0x3da1afe5	0.07894877
50	0x3dbb880c	0.09156808
51	0x3e53fc9a	0.20701829
52	0x3e82f6ee	0.25579017
53	0xbe0ace6d	-0.13555308
54	0xbd93bba9	-0.07213528
55	0x3df605dd	0.12012837
56	0xbe1be795	-0.1522506
57	0xbe2c51ee	-0.16828129
58	0x3bd11db9	0.006381717
59	0x3e7d9015	0.24761994
60	0x3bea1630	0.0071437582
61	0x3d7a11f8	0.061052293
62	0xbdfa2a6d	-0.12215123
63	0xbd17e722	-0.03708566
64	0xbe047e4c	-0.12938803
65	0x3d1fdf2c	0.039031193
66	0x3e28d410	0.16487145
67	0xbe500069	-0.20312656
68	0x3e42edf6	0.19036087
69	0xbce938ee	-0.028469529
70	0x3c685af9	0.014181846
71	0xbe587201	-0.21137239
72	0xbddd01bd	-0.10791347
73	0x3d6554fa	0.055989243
74	0xbe2493ae	-0.1607196
75	0x3df64009	0.120239325
76	0xbdfdd451	-0.12394012
77	0x3e3b89ea	0.18314329
78	0xbdb68cef	-0.089136
79	0x3e404328	0.18775618
80	0xbdd4194a	-0.10356386
81	0x3d13d9c3	0.036096346
82	0x3e5c6a35	0.2152489
83	0x3ddb64ad	0.10712562
84	0xbe2fa5a8	-0.17153037
85	0x3de42bad	0.11141143
86	0x3d3bab20	0.045817494
87	0xbe03de53	-0.12877779
88	0x3cfb9a3e	0.030713197
89	0x3e5ca97b	0.21549027
90	0xbd0c9b4a	-0.034327783
91	0xbe3d4d93	-0.18486623
92	0xbdadc4e4	-0.084848195
93	0x3d811a9c	0.063039035
94	0x3e52a655	0.20571263
95	0x3e314a74	0.17313558
96	0xbe626e4f	-0.22112392
97	0xbe53143a	-0.20613185
98	0xbd1d7bdc	-0.0384482
99	0x3da16397	0.078803234
100	0xbde2523a	-0.1105084
101	0xbe060f58	-0.1309179
102	0xbc287413	-0.0102815805
103	0x3c224230	0.009903476
104	0xbdd91a6f	-0.10600745
105	0xbddd11db	-0.10794421
106	0x3e041353	0.12897997
107	0x3e444120	0.19165468
108	0x3c69db46	0.01427347
109	0x3c6a6540	0.014306366
110	0xbdd6af41	-0.10482646
111	0xbe3841d0	-0.17993855
112	0xbe10d7d7	-0.14144836
113	0x3e4698a3	0.19394164
114	0x3e031cd8	0.12803972
115	0xbd877aab	-0.06615194
116	0xbb6ee3c2	-0.0036451672
117	0xbe10b285	-0.141306
118	0xbe5b4d3b	-0.2141618
119	0x3d585290	0.052813113
120	0xbd9de952	-0.07710518
121	0x3e5d3689	0.21602835
122	0x3e1eabf3	0.15495281
123	0xbd814950	-0.063128114
124	0x3e195554	0.14973956
125	0xbe1b1bb5	-0.15147288
126	0x3d1329a9	0.035928402
127	0x3e1e886d	0.1548173
128	0x3e5e8edc	0.21734184
129	0xbd4f33eb	-0.050586622
130	0xbd39cde3	-0.045362365
131	0xbe3c6458	-0.18397653
132	0x3e55dc6a	0.20884863
133	0xbe1fecf0	-0.15617728
134	0x3e8d811f	0.27637574
135	0xbe0ceb94	-0.13761741
136	0xbd8714eb	-0.06595787
137	0x3dd41508	0.10355574
138	0x3da5fce1	0.081048734
139	0xbd9ee5b2	-0.07758655
140	0xbe349580	-0.17635155
141	0xbe7599a8	-0.23984396
142	0x3e4b4915	0.19852097
143	0x3dbe476b	0.09290966
144	0xbe0f4563	-0.13991313
145	0x3c2e0f21	0.010623724
146	0xbde084f1	-0.109628566
147	0xbe4efd20	-0.20213747
148	0xbd8e02c2	-0.0693412
149	0xbd37e755	-0.04489835
150	0xbdc75112	-0.0973226
151	0x3e449311	0.19196726
152	0x3e43ce35	0.1912163
153	0xbdfd2240	-0.12360048
154	0xbd80f4e0	-0.06296706
155	0xbe0fd47a	-0.14045897
156	0x3e369fe3	0.1783443
157	0x3d23ac18	0.039959043
158	0xbe1c01bd	-0.15235038
159	0x3e1e082b	0.15432803
160	0x3e814424	0.252473
161	0x3ced7b0e	0.028989341
162	0xbe69b27f	-0.22821997
163	0x3e04080c	0.12893695
164	0xbddee3a3	-0.10883262
165	0x3e4f11cb	0.20221631
166	0xbd10235b	-0.035189968
167	0x3e8261cd	0.2546524
168	0x3bae2232	0.005314135
169	0x3cba61d8	0.022751734
170	0x3e43b017	0.19110142
171	0x3e54d026	0.20782527
172	0x3e83ab52	0.25716645
173	0xbdc08958	-0.09401196
174	0x3e0077a0	0.12545633
175	0x3e5709e7	0.20999871
176	0x3d53969f	0.051657315
177	0xbd26cc0c	-0.040721938
178	0xbe2f7759	-0.17135371
179	0x3e504674	0.20339376
180	0x3ccff632	0.02538595
181	0x3e1812d9	0.1485094
182	0x3e4bd14d	0.1990406
183	0x3ddf346d	0.10898671
184	0x3db34e69	0.0875519
185	0xbe07397c	-0.13205522
186	0x3e6a8e0d	0.2290575
187	0xbbe1cc03	-0.006890775
188	0xbd536569	-0.051610384
189	0x3dbfa723	0.09358051
190	0xbdf18fcc	-0.11795005
191	0xbe39f66b	-0.18160407
192	0xbe434b7d	-0.19071765
193	0xbc9798aa	-0.018505413
194	0xbcdd7e6e	-0.027037825
195	0x3dc00a76	0.09376995
196	0xbe4155ac	-0.18880337
197	0xbd708d7c	-0.05872868
198	0x3dc8fd89	0.09813983
199	0x3d298bb4	0.041392997
200	0x3e1b3bb9	0.15159501
201	0x3d9384e5	0.07203082
202	0xbdf049f0	-0.117328525
203	0x3dfb992f	0.12285077
204	0xbd59ce5d	-0.05317532
205	0x3de47ed3	0.11157002
206	0xbe55da13	-0.2088397
207	0xbc8d292a	-0.017231543
208	0x3c3d63b6	0.0115594175
209	0xbd911629	-0.07084305
210	0xbcc5a8b7	-0.024128301
211	0x3e33a8dd	0.17544885
212	0xbc6c88db	-0.014436926
213	0x3e2853d7	0.16438232
214	0x3d882d83	0.06649306
215	0x3dc800bd	0.09765766
216	0xbdbf9e02	-0.093563095
217	0x3e09fad8	0.13474596
218	0x3e326b3b	0.17423718
219	0x3d8aadc6	0.06771426
220	0x3e523d68	0.20531237
221	0x3e212983	0.15738492
222	0xbe0aa956	-0.13541159
223	0x3c7874d5	0.015164574
224	0x3e3cf6f2	0.18453577
225	0xbc6ab87b	-0.01432621
226	0x3e0eabab	0.13932674
227	0xbe636785	-0.22207458
228	0x3e867a31	0.262651
229	0x3c4fd5ab	0.01268522
230	0x3e459454	0.19294864
231	0x3c98cca9	0.018652277
232	0xbde77cc3	-0.11303093
233	0x3b9b6b77	0.0047430354
234	0x3e133431	0.14375378
235	0x3d33e291	0.043917242
236	0x3e81f239	0.25380114
237	0xbe607134	-0.21918184
238	0xbe3159d3	-0.17319421
239	0x3da1ce0c	0.079006284
240	0x3befa0d0	0.0073128715
241	0xbd31c313	-0.043398928
242	0xbd97343b	-0.07383009
243	0xbcf6d0e3	-0.030128902
244	0xbe6d210a	-0.23157135
245	0xbe3bd4a9	-0.18342842
246	0xbde7fa11	-0.11326993
247	0xbd58d829	-0.05294052
248	0xbd7d2c5d	-0.061809886
249	0x3e4d7450	0.20063901
250	0x3dbb33ec	0.09140763
251	0xbca672b7	-0.020318372
252	0x3d9395d3	0.07206311
253	0xbd657e5a	-0.0560287
254	0x3db8d0b2	0.090241805
255	0xbd61d506	-0.055134796

linear1.bias f4 [256]
0	0xbeaf629f	-0.3425493
1	0x3e4bb445	0.19892986
2	0x3ee46f75	0.44616285
3	0xbdcf83f1	-0.10132588
4	0x3dd20304	0.102544814
5	0x3c662fac	0.014049452
6	0x3ec6641b	0.3874825
7	0x3ca0b2f9	0.01961659
8	0x3d14d494	0.036335543
9	0xbd1694c0	-0.036762953
10	0x3e89cfbd	0.26916304
11	0x3dba6cea	0.09102805
12	0x3d49d029	0.049270783
13	0x3e6b0bb3	0.22953682
14	0xbe15d45d	-0.14631791
15	0x3e61d615	0.22054322
16	0xbe3244ab	-0.17409007
17	0xbdfec1d7	-0.12439316
18	0x3e9fac45	0.3118612
19	0xbe1a2b8d	-0.15055676
20	0xbe0922b0	-0.13392138
21	0x3ea0cc89	0.31406048
22	0x3d37a9f2	0.044839807
23	0x3decff4a	0.1157213
24	0x3eb60890	0.35553408
25	0x3daeaf97	0.08529585
26	0x3e16374a	0.14669529
27	0xbd2ce8c7	-0.04221418
28	0x3e2f19c2	0.1709967
29	0x3e921121	0.28528693
30	0xbe095216	-0.1341022
31	0xbd978e2d	-0.07400165
32	0x3b9ff80d	0.004881865
33	0x3ecb96cc	0.39763486
34	0x3ed79c9f	0.4211168
35	0x3e7a3dfa	0.24437705
36	0x3dcea568	0.100901425
37	0x3e773ef6	0.24145111
38	0x3e86e722	0.26348215
39	0x3eab18d1	0.3341737
40	0x3ec0a513	0.37625942
41	0xbc2e6226	-0.010643518
42	0xbd03897f	-0.03211355
43	0x3def2523	0.11677005
44	0xbe8a7884	-0.2704507
45	0x3e9669a4	0.29377472
46	0x3a710a2c	0.0009194936
47	0x3d5880d8	0.05285725
48	0x3e45cb48	0.19315827
49	0x3e94b4ca	0.2904418
50	0x3e2f3276	0.17109093
51	0xbe0bfc25	-0.13670404
52	0xbd5b7c16	-0.053585134
53	0x3d8b702b	0.06808504
54	0xbe124e9b	-0.14287798
55	0x3e02f58a	0.12788978
56	0xbe1bb348	-0.15205109
57	0x3ea42d09	0.3206561
58	0xbdcea266	-0.10089569
59	0x3ea4ce08	0.3218844
60	0x3e543655	0.20723851
61	0x3d39677e	0.045264713
62	0x3dcdc07b	0.10046478
63	0xb93c4483	-0.000179546
64	0x3ec72863	0.38898
65	0x3c9be37d	0.019029373
66	0x3eb4f5cc	0.35343778
67	0xbe0f2b0b	-0.13981263
68	0x3dfe67d8	0.124221504
69	0xbe5cc215	-0.21558411
70	0xbd7fa210	-0.062410414
71	0xbcd3556a	-0.025797565
72	0x3e40c5fe	0.18825528
73	0x3e798f02	0.2437096
74	0xbd896c39	-0.06710095
75	0x3e7a1519	0.2442211
76	0xbbd370f0	-0.006452672
77	0xbe83dd3a	-0.2575472
78	0x3ea0fb88	0.31441903
79	0x3d2355bd	0.03987669
80	0xbc594865	-0.013261889
81	0xbdbaef60	-0.091276884
82	0x3e398369	0.18116535
83	0x3e7a35c3	0.24434571
84	0xbd517f09	-0.05114654
85	0xbe08dc6b	-0.13365333
86	0x3d531be1	0.05154026
87	0xbe397c8f	-0.18113922
88	0xbdc41c49	-0.095757075
89	0x3dc1c267	0.094609074
90	0x3e89dcd3	0.26926288
91	0x3e13ebd1	0.14445426
92	0x3ea2e6ee	0.3181681
93	0xbe3c7846	-0.18405256
94	0xbc527055	-0.012844165
95	0xbe023ce0	-0.12718534
96	0xbe88624c	-0.26637495
97	0xbcff49af	-0.031163065
98	0x3ec79a51	0.38984922
99	0xbdfa54dd	-0.12223218
100	0x3e5fb804	0.2184754
101	0x3c068dbc	0.008212503
102	0x3de0a417	0.10968798
103	0xbe536048	-0.20642197
104	0x3dc0483b	0.09388777
105	0x3d92dcb5	0.07171003
106	0xbe477a78	-0.19480312
107	0x3e6752a6	0.22590122
108	0x3e5a44cd	0.21315308
109	0x3b7723a1	0.0037710445
110	0xbe65738e	-0.22407362
111	0x3e5237bf	0.20529078
112	0xbe3826fe	-0.17983624
113	0xbe00b044	-0.1256724
114	0xbb8de974	-0.0043308083
115	0xbdd8fbc3	-0.10594895
116	0xbe73dad0	-0.23813939
117	0xbc9d4df7	-0.019202216
118	0x3eaeb7a2	0.34124476
119	0xbe21d246	-0.15802869
120	0x3d658779	0.0560374
121	0x3df6b3c5	0.12046007
122	0x3e9bcf7f	0.30431744
123	0x3d112d8a	0.03544382
124	0x3ba67ff1	0.00508117
125	0x3d47d2a1	0.048784856
126	0x3db6bf8a	0.08923252
127	0x3dd80275	0.10547344
128	0x3e313059	0.173036
129	0xbe87d0c7	-0.26526472
130	0xbdd5aa8b	-0.10432919
131	0x3e828bd1	0.25497296
132	0x3e085bde	0.13316295
133	0x3e2ed889	0.17074789
134	0xbd5aedea	-0.05344955
135	0x3ddcc01d	0.1077883
136	0xbe2ad735	-0.16683657
137	0x3a99d952	0.001173774
138	0x3e229ecd	0.1588089
139	0xbd9c3cba	-0.0762877
140	0x3dc53c9b	0.096307
141	0xbc912a48	-0.017720357
142	0xbd209168	-0.03920117
143	0x3dc8d9a5	0.098071374
144	0x3e56b7d4	0.20968562
145	0x3d85f5e3	0.0654104
146	0x3ebd5d3f	0.36985204
147	0x3e1e0edb	0.15435354
148	0x3e94b3fc	0.29043567
149	0x3e400682	0.18752483
150	0x3db51580	0.088419914
151	0xbdd88e67	-0.10574036
152	0xbd4be0cc	-0.04977493
153	0x3d93ab2f	0.07210385
154	0xbd9fafda	-0.07797213
155	0x3e6e8184	0.23291594
156	0x3f15dd81	0.58541113
157	0x3e064cd3	0.13115244
158	0x3e175ab1	0.1478069
159	0xbe47d245	-0.19513805
160	0x3e26f62b	0.16304843
161	0x3b79074e	0.0037998739
162	0x3e880952	0.2656961
163	0xbd7d5993	-0.061853003
164	0xbd4bec98	-0.04978618
165	0x3bc01c25	0.00586273
166	0x3e805ca4	0.2507068
167	0xbdd1f209	-0.10251243
168	0xbd8a6958	-0.06758374
169	0x3e17506e	0.14776775
170	0xbdec7fa0	-0.1154778
171	0xbde03c64	-0.109490186
172	0x3df04c7a	0.11733337
173	0x3e7c03f4	0.24610883
174	0x3dd097c1	0.10185195
175	0x3ee3201f	0.44360444
176	0x3e4449ce	0.19168779
177	0x3c895248	0.016762868
178	0x3d9d3c07	0.07677465
179	0x3e78fbf2	0.2431486
180	0x3d25b0d7	0.04045185
181	0xbe66ed8f	-0.22551559
182	0xbe524b0a	-0.20536438
183	0x3dd36d99	0.103236385
184	0x3e8bdcb9	0.27316836
185	0x3e43fa0e	0.19138357
186	0xbe1f6cd5	-0.1556886
187	0x3ee48463	0.44632253
188	0x3e4cf5ef	0.20015691
189	0x3e6d351c	0.23164791
190	0x3db553c1	0.088538654
191	0xbd43cf13	-0.047804903
192	0xbdda478f	-0.1065818
193	0xbe2fc0de	-0.17163417
194	0x3e025a6d	0.12729807
195	0xbdc18c4b	-0.09450587
196	0x3e564f5a	0.20928708
197	0xbe65920e	-0.22418997
198	0x3d5ad45f	0.05342519
199	0x3c52a69a	0.012857104
200	0x3e2d6713	0.16933851
201	0x3e97b116	0.29627293
202	0x3dde14ab	0.10843786
203	0xbd894dcf	-0.06704294
204	0x3d467c23	0.04845823
205	0xbd0c3199	-0.034226988
206	0x3d861b61	0.06548191
207	0xbc82bdf9	-0.015959727
208	0x3ddfbde7	0.10924893
209	0xbdcb2a61	-0.099201925
210	0x3d3aafd3	0.045577835
211	0x3e2ecc27	0.17070065
212	0x3e782dc3	0.24236207
213	0x3e3bea70	0.1835115
214	0x3e1d521a	0.1536335
215	0x3d8ee09b	0.06976434
216	0xbac8edae	-0.0015329623
217	0x3e986fb8	0.29772735
218	0x3e9c6980	0.3054924
219	0xbcbbc40e	-0.022920635
220	0xbd796ad5	-0.0608929
221	0xbdcc087c	-0.09962556
222	0xbcccb7f4	-0.02499006
223	0xbe68cfef	-0.2273557
224	0xbd1858c8	-0.037194043
225	0x3c412593	0.011788744
226	0xbda3bb50	-0.079947114
227	0x3d9b6c5b	0.075890265
228	0xbe6141ca	-0.21997753
229	0xbe2b3cf5	-0.16722472
230	0xbe6add16	-0.229359
231	0xbc3c9861	-0.011510939
232	0xbe17bf56	-0.14819083
233	0x3eb1007f	0.3457069
234	0xbcf64d85	-0.030066261
235	0xbe435b17	-0.19077717
236	0xbe000ea2	-0.12505582
237	0x3e2906fb	0.16506569
238	0x3e892aca	0.26790458
239	0x3e804686	0.25053805
240	0x3ee363da	0.44412118
241	0xbe1791d6	-0.14801726
242	0x3e365416	0.17805514
243	0xbdaab25f	-0.08334803
244	0xbd194083	-0.03741504
245	0x3d758e77	0.05995032
246	0x3e4d6536	0.2005814
247	0x3ef3aff2	0.47595173
248	0xbc7321bc	-0.014839586
249	0xbd127360	-0.03575456
250	0x3d1a01ea	0.03759948
251	0x3e12c9a7	0.14334737
252	0xbe0befc3	-0.1366568
253	0x3d9f54c9	0.07779843
254	0x3e893022	0.26794535
255	0x3e4d0724	0.20022255

linear2.weight f4 [4, 256]
0	0x3bae092c	0.005311152
1	0x3d28516e	0.041093282
2	0x3dc91cf1	0.09819973
3	0x3d20276b	0.039100092
4	0x3d8b1790	0.067916036
5	0x3d9b043e	0.075691685
6	0x3c915dbe	0.017744895
7	0x3d80b882	0.06285192
8	0x3dc1b956	0.09459178
9	0x3d6368af	0.055519756
10	0x3cdb088f	0.02673748
11	0x3da61afa	0.08110614
12	0x3d69c18e	0.057069354
13	0x3d285948	0.04110077
14	0x3d55e4ab	0.052220028
15	0x3daef9d5	0.085437454
16	0x3d1b8482	0.037968166
17	0x3c1108bd	0.008852181
18	0x3d714a24	0.058908597
19	0x3db554c6	0.0885406
20	0x3da863ac	0.08222136
21	0x3cff0af3	0.03113315
22	0x3d9731d8	0.07382554
23	0x3d432eed	0.047652174
24	0x3d94f73b	0.07273718
25	0x3dc6825d	0.096928336
26	0x3c723562	0.014783235
27	0x3da6937e	0.08133601
28	0x3d0a098b	0.033700507
29	0x3da743fc	0.08167264
30	0x3bd8caba	0.0066159638
31	0x3d043d6b	0.032285135
32	0x3d83f61f	0.06443428
33	0x3dfbf9d8	0.12303513
34	0x3deba056	0.11505191
35	0x3d963b4d	0.073355295
36	0x3cfdcc7a	0.030981291
37	0x3de94ad1	0.11391223
38	0x3c661a16	0.014044305
39	0x3cfac1ab	0.030609926
40	0x3dc0aba5	0.094077386
41	0xbcdaa966	-0.026692104
42	0x3d7c5654	0.061605766
43	0x3ce796ec	0.028270207
44	0x3d2c0211	0.04199416
45	0x3d9c85cb	0.076427065
46	0x3dbc0507	0.091806464
47	0x3d7e0e16	0.062025152
48	0x3da51f04	0.080625564
49	0x3dcf5a43	0.10124638
50	0x3dae7196	0.085177585
51	0x3d3f9345	0.046771307
52	0xbc8970a3	-0.016777342
53	0x3deac7b2	0.1146387
54	0x3d553579	0.05205295
55	0x3d77b4c1	0.060475115
56	0x3cf96e5d	0.030448133
57	0x3ddbf6cd	0.10740433
58	0x3d2561c9	0.04037646
59	0x3da7b659	0.08189077
60	0x3dede255	0.11615435
61	0x3d9734a1	0.07383085
62	0x3d81696f	0.06318938
63	0x3dae733d	0.08518074
64	0x3d889ea2	0.06670882
65	0x3d5c8dc9	0.053846154
66	0x3df3fb10	0.11913121
67	0x3dd14673	0.10218515
68	0x3de8e43a	0.11371656
69	0x3c271504	0.010197882
70	0xbb9e50ef	-0.0048314254
71	0x3c17d21c	0.009266403
72	0x3db42575	0.08796207
73	0x3d73fff3	0.059570264
74	0x3d094a6f	0.03351825
75	0x3d2afe53	0.04174645
76	0x3e0e01ba	0.13867846
77	0x3c607d02	0.013701679
78	0x3def3e67	0.11681824
79	0x3df5c75f	0.12000918
80	0x3bbdac8f	0.005788393
81	0x3d694b0f	0.056956347
82	0x3d25e78f	0.040504035
83	0x3dacf709	0.08445556
84	0xbc1e0721	-0.009645254
85	0x3d99fae6	0.07518558
86	0x3d838113	0.06421103
87	0x3c1961c4	0.009361688
88	0x3c882631	0.016619774
89	0xbc716491	-0.01473345
90	0x3dcd5868	0.10026628
91	0x3d0878f5	0.03331848
92	0x3d13fe40	0.036131144
93	0xbcc36c5e	-0.023855384
94	0x3c72cefa	0.014819855
95	0x3cb889d4	0.02252666
96	0x3d3610ef	0.044449743
97	0x3cd074ac	0.025446258
98	0x3dc8afde	0.09799169
99	0x3dacc0bd	0.084351994
100	0x3dd23674	0.10264292
101	0x3d390c35	0.045177657
102	0x3d8616ef	0.06547343
103	0x3c36e65d	0.011163321
104	0x3daf2338	0.08551639
105	0x3cd7148d	0.026254917
106	0x3d20aa55	0.03922494
107	0x3dc69a83	0.096974395
108	0x3db49149	0.088167734
109	0x3dae4aa3	0.085103296
110	0xbd3217d1	-0.043479744
111	0x3df254d7	0.11832588
112	0x3cba5537	0.022745712
113	0x3dc986b8	0.09840149
114	0x3d0c5e4c	0.034269616
115	0x3e12b4e5	0.14326818
116	0xbce9bc24	-0.028532095
117	0x3d3d70de	0.046250217
118	0x3da02b8c	0.07820806
119	0x3bf3a6c2	0.0074356506
120	0x3d943907	0.072374396
121	0x3daedb3a	0.08537908
122	0x3dabbc3d	0.08385513
123	0x3d8b2638	0.06794399
124	0x3bfa8ad7	0.0076459455
125	0xb7fd9720	-3.0230323e-05
126	0x3c999753	0.018748915
127	0x3c03d1d0	0.008045629
128	0x3d0032cd	0.031298447
129	0xbc462627	-0.012094057
130	0x3d5e984f	0.05434447
131	0x3def97cd	0.116988756
132	0x3c9f59e8	0.01945205
133	0x3da4ea0d	0.08052454
134	0x3dd040e6	0.101686284
135	0x3d09fa08	0.033685714
136	0x3c680420	0.01416114
137	0x390e7a1f	0.00013587669
138	0x3ddd779f	0.108138315
139	0x3dc40e5e	0.09573053
140	0x3daa7750	0.08323538
141	0x3c98736d	0.018609727
142	0x3da25c9d	0.07927821
143	0x3d27d943	0.04097868
144	0x3d7a9daf	0.061185535
145	0x3ab023e1	0.0013438427
146	0x3d4ba087	0.049713638
147	0x3d4d5fd7	0.050140228
148	0x3d725b70	0.059169233
149	0x3db0a8c8	0.086259425
150	0x3d9fe9e4	0.07808283
151	0xbb61b2c4	-0.0034438828
152	0x3d2102ea	0.03930942
153	0x3d3e6c64	0.046490088
154	0x3d33abac	0.04386489
155	0x3d95b9ff	0.073108666
156	0x3dc31836	0.09526102
157	0x3d7a3206	0.061082862
158	0x3ccf9bdf	0.02534288
159	0xbcf63b70	-0.030057639
160	0x3d42a81e	0.04752361
161	0x3d409b76	0.04702326
162	0x3dee017a	0.116213754
163	0x3d8b5f7a	0.0680532
164	0x3dcca4ee	0.09992395
165	0x3d1c00f8	0.03808686
166	0x3d88d3b2	0.06681003
167	0x3db5f781	0.08885098
168	0x3cc9b914	0.024624385
169	0x3dd44582	0.1036482
170	0x3cb31e0e	0.021864917
171	0x3dbc000b	0.09179696
172	0x3d4cd253	0.05000527
173	0x3dff26ea	0.12458594
174	0x3da5f9cb	0.08104285
175	0x3d6e4076	0.058166943
176	0x3b92ca51	0.0044796844
177	0x3dbc2f7f	0.09188747
178	0x3cdaa76f	0.026691167
179	0x3d95bb07	0.07311063
180	0xbc3ac905	-0.011400466
181	0x3b617483	0.0034401722
182	0x3bd901e2	0.006622539
183	0x3da0f8bc	0.07859942
184	0x3d5b1cb3	0.053494167
185	0x3d883fe7	0.066528134
186	0xbbdfb228	-0.006826658
187	0x3df5ae68	0.11996156
188	0x3d896d0e	0.06710254
189	0x3dbfe192	0.09369196
190	0x3c715dfb	0.014731879
191	0x3d61281c	0.054969892
192	0x3db1fb3f	0.086904995
193	0xbd191157	-0.037370052
194	0x3d9f2351	0.07770408
195	0x3d66ff9e	0.05639612
196	0x3ce80f84	0.02832771
197	0x3d82317d	0.063570954
198	0x3d90545d	0.07047341
199	0x3d90a959	0.070635505
200	0x3d49150d	0.04909234
201	0x3df13c89	0.11779124
202	0x3cf5178b	0.029918453
203	0x3d86e0dd	0.06585858
204	0x3d9066d1	0.07050861
205	0x3dea5e6e	0.11443792
206	0x3d429a95	0.047510702
207	0x3dcde3e0	0.10053229
208	0x3c90d601	0.01768017
209	0x3d92307e	0.071381554
210	0x3d13563a	0.035970904
211	0x3bef95f4	0.007311577
212	0x3d9099b2	0.07060565
213	0x3dd6599f	0.104663126
214	0x3d8c6860	0.068558455
215	0x3d26709b	0.040634733
216	0x3da5611d	0.080751635
217	0x3d9049fc	0.070453614
218	0x3d869bb5	0.065726675
219	0xba4f1a37	-0.00079003297
220	0x3d518b5d	0.051158298
221	0x3c094a1a	0.008379484
222	0x3d7b27e2	0.061317332
223	0xbcfbd3c7	-0.030740632
224	0x3d3fb391	0.046802107
225	0x3da29a5f	0.079396
226	0x3d5bde1e	0.053678624
227	0x3ce37ee0	0.02777046
228	0x3d1ad023	0.03779615
229	0xbc837f61	-0.01605195
230	0x3ce146f0	0.027499646
231	0x3d6c2fec	0.05766289
232	0x3d13bc8c	0.036068484
233	0x3e04ba42	0.12961677
234	0x3c669652	0.014073925
235	0x3d489cc6	0.048977636
236	0x3d880aa0	0.066426516
237	0x3d3f8454	0.046757057
238	0x3e119e48	0.14220536
239	0x3c7a7195	0.015285869
240	0x3dec5806	0.11540227
241	0x3d93ebaf	0.072226875
242	0xbbc397ae	-0.0059690094
243	0x3db0b047	0.08627372
244	0x3d79600c	0.060882613
245	0x3d2b04be	0.04175257
246	0x3ce50fa4	0.02796156
247	0x3dc2aa84	0.095051795
248	0x3c22b47c	0.009930726
249	0x3cebf102	0.028801445
250	0xbc12bcbf	-0.008956133
251	0x3dcbefa9	0.09957821
252	0x3d0ebc39	0.034847472
253	0x3d58e86e	0.052956037
254	0x3da3e9a5	0.080035485
255	0x3e0636bd	0.13106818

linear2.bias f4 [4]
0	0x3d4481a6	0.047975205
1	0x3dd3d4cc	0.10343322
2	0x3dc944dd	0.09827588
3	0x3daa3036	0.08309977
