model/model.pth (torch, 27456 bytes, 4 tensors)

linear1.weight f4 [256, 20]
0	0xbdc9f6db	-0.09861537
1	0x3d5c0b52	0.053721733
2	0xbdde0b21	-0.108419664
3	0x3d3fae0f	0.046796855
4	0xbd80228d	-0.0625659
5	0x3e695b7b	0.22788803
6	0x3d27b8ad	0.040947605
7	0x3d5d1da1	0.053983334
8	0xbdd01fb9	-0.101623006
9	0x3e3ab5d5	0.18233426
10	0x3e3b4242	0.18286994
11	0x3e1b94f9	0.15193547
12	0x3dd2bcbf	0.10289907
13	0x3e5abdce	0.21361467
14	0xbe6bcd8f	-0.23027633
15	0x3e1b6050	0.15173459
16	0xbd45e12c	-0.048310444
17	0xbe1ebfe7	-0.15502892
18	0x3d6631a4	0.056199685
19	0x3dc5cbed	0.096580364
20	0xbc78d30e	-0.015187038
21	0x3d9d7264	0.07687834
22	0xbe281f2d	-0.16418143
23	0xbbfba654	-0.00767974
24	0xbe1fd610	-0.15609002
25	0x3e232fee	0.15936252
26	0xbe39b982	-0.18137172
27	0xbd25e4e9	-0.04050151
28	0x3d5c67a4	0.053809777
29	0x3d29603d	0.041351546
30	0x3d78797c	0.06066273
31	0x3e1c4964	0.15262371
32	0xbae2fbc7	-0.0017317467
33	0xbd69997f	-0.05703115
34	0xbe499996	-0.19687495
35	0x3dcdf4a9	0.10056431
36	0xbe01010b	-0.12598054
37	0x3e0affc5	0.13574131
38	0xbdbcf23a	-0.092258886
39	0x3a85dfc5	0.0010213783
40	0xbd8664b6	-0.06562178
41	0x3da2d52b	0.07950815
42	0xbe54d91d	-0.20785947
43	0x3ce635e5	0.02810187
44	0x3e1852a5	0.14875276
45	0xbdca8b7d	-0.098898865
46	0x3d7eeff3	0.062240552
47	0xbdd19143	-0.102327846
48	0x3e398314	0.18116409
49	0x3e5e0c22	0.21684316
50	0xbd9f994d	-0.07792912
51	0x3e41da43	0.18930916
52	0xbe468ab4	-0.19388849
53	0x3d01aff5	0.031661946
54	0xbdc03d69	-0.09386713
55	0xbd2f67d4	-0.042823628
56	0x3e293a4c	0.16526145
57	0xbde429c0	-0.11140776
58	0x3d187b01	0.03722668
59	0x3e096179	0.13416089
60	0xbdcc3c7a	-0.099724725
61	0x3deba0a8	0.11505252
62	0xbe1e7f07	-0.15478145
63	0xbde72d3c	-0.11287925
64	0xbe35a403	-0.17738347
65	0x3e207307	0.1566888
66	0x3e48ea64	0.19620663
67	0xbd49d0ae	-0.049271278
68	0xbe204dce	-0.1565468
69	0xbd543622	-0.051809438
70	0x39a07b0e	0.0003060926
71	0x3c9a7743	0.018855697
72	0xbe502163	-0.20325236
73	0x3e0c5b0d	0.13706608
74	0xbd1f9bb2	-0.038966842
75	0x3e154cd7	0.14580093
76	0xbe058a82	-0.13041118
77	0x3e0adebb	0.13561527
78	0xbd1eb255	-0.03874429
79	0x3d211760	0.039328933
80	0x3e1bba5e	0.15207812
81	0x3dae0dc1	0.08498717
82	0x3ca01250	0.019539982
83	0xbe405add	-0.18784662
84	0x3d36be6a	0.044615187
85	0x3cc647d6	0.024204176
86	0x3ccc7b4d	0.024961138
87	0xbb361d86	-0.0027788593
88	0xbd3022d5	-0.04300197
89	0xbda7b1e1	-0.081882246
90	0x3e597da1	0.2123933
91	0xbe119870	-0.14218307
92	0x3dc39c58	0.095513046
93	0xbc58a2fa	-0.01322245
94	0xbde89004	-0.11355594
95	0xbe4ae12d	-0.1981246
96	0xbe370950	-0.17874646
97	0xbc5c5773	-0.013448584
98	0x3e04c436	0.12965474
99	0x3e43daf9	0.191265
100	0x3e5997d4	0.21249324
101	0xbcdeaf2c	-0.027183138
102	0xbe208a9b	-0.15677874
103	0xbe303ea3	-0.17211394
104	0xbe73cf29	-0.23809494
105	0xbe4d6340	-0.20057392
106	0x3df4398e	0.1192504
107	0x3dc2acc1	0.095056064
108	0xbe126708	-0.14297116
109	0xbb968cb7	-0.0045944112
110	0x3e1fac05	0.15592964
111	0xbdd4e862	-0.10395886
112	0xbd991709	-0.07475097
113	0x3d86aca8	0.065759
114	0xbe34fed6	-0.17675337
115	0xbd8e81d0	-0.069583535
116	0x3e58d217	0.21173893
117	0xbd92a919	-0.07161159
118	0xbcb7fb52	-0.022458706
119	0x3cc83895	0.024441043
120	0x3e2f89ca	0.17142406
121	0xbd733853	-0.059379887
122	0xbe2c624a	-0.1683437
123	0xbb9d9114	-0.0048085544
124	0xbdd5da8a	-0.10442074
125	0x3def88bf	0.11696004
126	0x3da1d2bc	0.079015225
127	0xbde9ec5e	-0.114220366
128	0xbd96a275	-0.07355205
129	0xbd5f89d6	-0.05457481
130	0xbc7d257b	-0.015450831
131	0xbd51f2d4	-0.05125697
132	0x3c2992c2	0.010349931
133	0x3e1ee6b8	0.155177
134	0x3e3c3077	0.18377863
135	0xbd80033f	-0.06250619
136	0xbdb30bd8	-0.087424934
137	0x3d06ea52	0.03293831
138	0x3d9abb15	0.07555214
139	0xbe0c74ae	-0.13716385
140	0xbe3459d0	-0.17612386
141	0x3df3a0d6	0.118959114
142	0x3dc259b1	0.094897635
143	0xbe498229	-0.19678558
144	0xbddf0374	-0.108893305
145	0xbe13cecd	-0.14434357
146	0x3dae2c12	0.085044995
147	0xbdff770c	-0.12473878
148	0xbe3959aa	-0.1810061
149	0x3db2e538	0.08735126
150	0x3e006d6f	0.12541746
151	0x3decd85e	0.11564706
152	0xbda2d2db	-0.07950374
153	0x3e0ff88f	0.14059661
154	0x3c3f6a32	0.011683034
155	0x3e356b28	0.17716658
156	0x3e2382d8	0.15967882
157	0x3cf82ac5	0.030293832
158	0xbe4a25d1	-0.19740988
159	0x3e3bf6e3	0.18355899
160	0xbd2206eb	-0.03955738
161	0xbe1db639	-0.15401544
162	0x3c24022a	0.010010282
163	0x3df06512	0.11738028
164	0xbe692c97	-0.22770916
165	0x3e45c13e	0.19311997
166	0xbe2ccda8	-0.16875327
167	0xbe07e034	-0.1326912
168	0x3e22320a	0.15839401
169	0x3e10980a	0.14120498
170	0x3de88320	0.11353135
171	0xbd55ce42	-0.052198656
172	0x3cb06e0b	0.021536848
173	0xbe044245	-0.12915905
174	0xbe017228	-0.12641203
175	0x3e245c38	0.16050804
176	0xbc694952	-0.014238672
177	0x3e6bc67f	0.23024939
178	0x3d2a2479	0.04153869
179	0xbe3e9b7a	-0.18613997
180	0x3d81e103	0.06341746
181	0x3dc55603	0.09635546
182	0xbd439618	-0.047750562
183	0x3e0cc8ad	0.13748427
184	0xbd7e69c8	-0.0621126
185	0x3d47d07d	0.048782814
186	0xbe00b25e	-0.12568042
187	0x3daed26d	0.08536229
188	0x3dbb4a63	0.091450475
189	0x3dee9a32	0.11650504
190	0xbe0a6b25	-0.13517435
191	0xbbc8e824	-0.006131189
192	0x3e2df52a	0.16988054
193	0xbdced01f	-0.1009829
194	0xbe502483	-0.20326428
195	0x3da1b9fb	0.07896801
196	0x3c64da3f	0.01396805
197	0xbe054547	-0.13014708
198	0xbd97ace8	-0.07406026
199	0xbd85570f	-0.06510746
200	0x3e0a2811	0.13491847
201	0x3d0866cf	0.03330117
202	0x3c430774	0.011903632
203	0xbce9c535	-0.028536418
204	0x3ddeeacb	0.10884627
205	0x3d832e58	0.06405324
206	0x3e173a17	0.14768253
207	0xbe508362	-0.20362619
208	0xbe5a6585	-0.21327789
209	0xbdd1d4e2	-0.10245682
210	0x3e5c2525	0.21498545
211	0xbe487a07	-0.195778
212	0x3e26e597	0.16298519
213	0x3d6fc40d	0.058536578
214	0x3dc641d7	0.09680527
215	0xbd0507ef	-0.03247827
216	0x3e604221	0.21900226
217	0xbe30246e	-0.17201397
218	0x3dbe2ec9	0.09286267
219	0xbda1715c	-0.0788295
220	0xbcbdf4f1	-0.023188086
221	0xbd70f168	-0.058823973
222	0xbdaf6e2d	-0.08565936
223	0x3e2e67d4	0.17031795
224	0xbe5d7ec7	-0.21630393
225	0xbde5a5fa	-0.11213298
226	0x3c0739f6	0.008253565
227	0xbd52cbd8	-0.05146393
228	0xbcde14f5	-0.027109602
229	0xbdd577f4	-0.1042327
230	0xbd13e2da	-0.036105014
231	0x3e0e4465	0.13893278
232	0x3d21ccfb	0.039502125
233	0xbd738d21	-0.059460763
234	0x3dc1cdce	0.09463082
235	0x3dc40f1e	0.09573196
236	0xbe2cdff0	-0.168823
237	0x3dbfd646	0.09367041
238	0xbe3bf680	-0.18355751
239	0xbcb1df19	-0.021712827
240	0xbe1ab91f	-0.1510968
241	0x3e5068c4	0.20352465
242	0xbe1906b3	-0.14943962
243	0xbe6688ba	-0.22513095
244	0xbd3ec1cc	-0.046571538
245	0x3dc82014	0.097717434
246	0x3caceb88	0.021108404
247	0x3de07ee6	0.10961704
248	0xbdbbb1a6	-0.09164743
249	0x3e43e9f4	0.19132215
250	0xbdd7d28b	-0.10538205
251	0x3e471077	0.19439875
252	0x3e49ca52	0.19706085
253	0x3e53f7d2	0.20700005
254	0xbe4102cc	-0.18848723
255	0x3e084e22	0.13311055

linear1.bias f4 [256]
0	0xbbb3ff2e	-0.0054930663
1	0xbdee9287	-0.116490416
2	0xbddc0413	-0.107429646
3	0xbe6e339d	-0.23261876
4	0xbc9a3e22	-0.018828455
5	0x3dbbe294	0.09174076
6	0xbdbc9dde	-0.09209798
7	0xbe05224a	-0.13001361
8	0xbd91b792	-0.071150914
9	0x3d129571	0.03578705
10	0x3e31c998	0.17362058
11	0x3dc9af79	0.09847922
12	0x3e2e7ebe	0.17040536
13	0x3e246e2f	0.16057657
14	0x3e2c7a51	0.16843535
15	0xbe446691	-0.19179751
16	0x3c355d9d	0.011069682
17	0xbdd9df75	-0.10638324
18	0x3dd9cf52	0.10635246
19	0xbdf04cfc	-0.117334336
20	0x3e54ba96	0.20774302
21	0x3d804816	0.06263749
22	0xbe0d4345	-0.13795193
23	0xbe0a04d1	-0.134784
24	0xbdf884a6	-0.12134676
25	0xbc7de779	-0.015497082
26	0x3e0f3673	0.13985614
27	0x3dd45fea	0.10369857
28	0xbe4164d5	-0.1888612
29	0x3e29c881	0.16580392
30	0xbd80647e	-0.06269167
31	0xbd5beb9f	-0.053691503
32	0xbe01ad9d	-0.12663884
33	0x3e04c8eb	0.12967269
34	0xbd02437f	-0.03180265
35	0xbe224f79	-0.15850629
36	0x3e646b24	0.22306496
37	0x3e582bc2	0.21110442
38	0x3e2099c7	0.15683661
39	0x3d4d5a9a	0.050135233
40	0xbdd9cabe	-0.10634373
41	0x3e323a85	0.17405136
42	0xbc4b930b	-0.0124251945
43	0xbd04763d	-0.032339323
44	0xbe0306c0	-0.12795544
45	0xbe1944f0	-0.14967704
46	0xbcedcf4f	-0.029029517
47	0x3e3e2b03	0.18571095
48	0xbccbd311	-0.024880918
49	0x3e342890	0.17593598
50	0x3d4baf3b	0.04972766
51	0xbdf0cd4d	-0.11757908
52	0x3e393b6d	0.18089075
53	0xbcee48d1	-0.029087456
54	0xbe50464d	-0.20339318
55	0x3cbe78a8	0.023250893
56	0xbe5aaea7	-0.21355687
57	0x3e43f653	0.19136934
58	0xbe27151b	-0.16316645
59	0x3e4924a4	0.19642884
60	0xbce47224	-0.027886458
61	0xbe406210	-0.18787408
62	0x3e359ff3	0.17736797
63	0x3e1e77ad	0.1547534
64	0xbe1334aa	-0.14375558
65	0xbd92b9fd	-0.07164381
66	0x3e17b9d2	0.14816979
67	0xbdba9eba	-0.09112306
68	0x3be5402d	0.0069961757
69	0xbe35b2d2	-0.17743996
70	0xbe6b2ad1	-0.22965552
71	0xbd2ccd76	-0.04218813
72	0x3e432fc0	0.19061184
73	0xbe4a9d98	-0.1978668
74	0xbdb0d2cd	-0.08633957
75	0xbe5ae124	-0.21374947
76	0x3e1049e7	0.14090692
77	0xbe501b78	-0.20322978
78	0x3e01a50f	0.12660621
79	0x3ca5cfc6	0.020240676
80	0x3e2023cd	0.15638657
81	0xbe491ec9	-0.1964065
82	0xbe3a589b	-0.18197863
83	0x3e66d72b	0.22543018
84	0x3e1238b5	0.14279445
85	0xbe2f8c62	-0.17143396
86	0xbccaedec	-0.024771653
87	0xbe0a7d78	-0.13524425
88	0xbd2cb180	-0.042161465
89	0x3d4acfc0	0.049514532
90	0xbe1d6e09	-0.15374006
91	0xbc0d0762	-0.008607717
92	0x3bade0e9	0.0053063524
93	0xbe26aaf6	-0.16276154
94	0xbe0b4444	-0.1360026
95	0x3e57e0ce	0.2108185
96	0xbdbf0b77	-0.093283586
97	0x3e655726	0.22396526
98	0x3a925a71	0.001116587
99	0xbe48a9a7	-0.19595967
100	0xbd84b34c	-0.06479511
101	0xbdecda9b	-0.11565133
102	0xbdc92826	-0.09822111
103	0x3e5b00ff	0.21387099
104	0xbb383932	-0.0028110263
105	0xbe3febda	-0.18742314
106	0x3e242101	0.16028215
107	0xbe41ba37	-0.18918692
108	0x3e25999a	0.16171876
109	0xbe2c52f6	-0.16828522
110	0x3d85c3a4	0.06531456
111	0xbd6fbc9e	-0.05852949
112	0xbe1d4ff5	-0.15362532
113	0x3e3b1b1e	0.18272063
114	0x3d12eb47	0.03586891
115	0x3e344b9e	0.1760697
116	0xbd40b7ca	-0.047050275
117	0xbc90dc77	-0.01768325
118	0xbdd9a284	-0.106267005
119	0x3e6c7dbc	0.23094839
120	0x3e40d0d7	0.18829666
121	0x3dc7bd56	0.0975291
122	0xbcd54a27	-0.026036335
123	0xbe494381	-0.19654657
124	0x3d90f394	0.07077709
125	0xbcd63fc0	-0.026153445
126	0xbda9e9f6	-0.08296578
127	0x3e422a81	0.18961526
128	0xbd75b788	-0.059989482
129	0xbe22a5de	-0.15883586
130	0x3dccd353	0.100012444
131	0x3d2171c4	0.039415136
132	0x3d809356	0.06278102
133	0xbd301850	-0.042991936
134	0xbdbfb0ff	-0.09359931
135	0xbe6f5288	-0.23371327
136	0x3dc73476	0.09726803
137	0x3deacc65	0.114647664
138	0xbc135988	-0.008993514
139	0x3dee9ac7	0.11650615
140	0xbd8e6704	-0.069532424
141	0xbdeb7767	-0.114973836
142	0x3e25e4a4	0.162005
143	0x3dd2986a	0.10282977
144	0xbcba0bed	-0.022710765
145	0x3c1609a7	0.009157575
146	0xbe437033	-0.1908577
147	0x3e1cb5fa	0.15303794
148	0x3e20b46e	0.15693828
149	0x3e0562de	0.13025996
150	0xbe2f7802	-0.17135623
151	0x3debae52	0.11507858
152	0xbd9a7018	-0.075409114
153	0xbbeecff2	-0.0072879726
154	0x3e1929fb	0.1495742
155	0x3e2e576b	0.17025535
156	0x3e8504a1	0.25980094
157	0xbe3d1590	-0.18465257
158	0x3c7b5382	0.015339734
159	0x3d993d38	0.0748238
160	0x3c50b873	0.012739289
161	0xbd1a263f	-0.03763413
162	0xbda101e7	-0.07861691
163	0xbe0c6e22	-0.13713887
164	0xbdaf718b	-0.085665785
165	0xbe075a22	-0.13217977
166	0x3e437d13	0.19090681
167	0xbe1b27ac	-0.15151852
168	0xbdabcb89	-0.083884306
169	0x3ddb37a1	0.1070397
170	0x3e3847de	0.17996165
171	0x3d8a4bfc	0.06752774
172	0x3e4cccac	0.19999951
173	0xbd156aa5	-0.036478657
174	0xbdc384b3	-0.09546795
175	0x3e352943	0.17691521
176	0x3e37637e	0.17909047
177	0xbe58a683	-0.21157269
178	0x3e0cacbb	0.13737766
179	0xbe75881c	-0.23977703
180	0x3cfdbfc5	0.030975232
181	0xbe16d9b4	-0.14731485
182	0xbd5ab551	-0.053395573
183	0xbe1efd01	-0.15526201
184	0xbd70bde6	-0.05877485
185	0xbc9eca09	-0.019383447
186	0x3c6110cd	0.013736916
187	0x3e39d609	0.18148054
188	0x3e155bdd	0.14585824
189	0xbe5d1aa1	-0.2159219
190	0x3d8070bc	0.062715024
191	0xbdc20eb7	-0.09475463
192	0x3e357c80	0.17723274
193	0xbd88fbd5	-0.06688658
194	0x3a7e5426	0.000970187
195	0x3e2a4025	0.16626032
196	0xbb8cbce7	-0.00429498
197	0x3de40485	0.111336745
198	0x3dd70654	0.10499254
199	0xbe24c94e	-0.16092417
200	0x3e13e85c	0.14444107
201	0x3ad17ea7	0.001598318
202	0xbdf099f9	-0.11748118
203	0x3d9181ef	0.07104861
204	0xbe05c410	-0.13063073
205	0xbe4f626b	-0.20252387
206	0xbd995c3c	-0.074882954
207	0x3cb43737	0.021998985
208	0xbe77bdfb	-0.24193566
209	0x3dbc53ca	0.09195669
210	0xbe48de37	-0.19616018
211	0xbba882ce	-0.0051425463
212	0x3e2a13ce	0.16609117
213	0x3d834816	0.06410234
214	0x3e34759f	0.17622994
215	0xbd46eb93	-0.048564505
216	0xbdf69a77	-0.120411806
217	0xbe1eed9b	-0.15520327
218	0x3e5b6874	0.21426564
219	0x3cc4da9d	0.024030024
220	0x3e52d0ec	0.2058751
221	0xbd851f60	-0.06500125
222	0xbe3e7d2f	-0.18602441
223	0x3db3577d	0.087569214
224	0x3c276d1b	0.010218884
225	0xbe66ba45	-0.22531994
226	0x3df586a7	0.119885735
227	0xbdf53499	-0.11972923
228	0xbd90edd8	-0.07076615
229	0x3d31cc7b	0.0434079
230	0xbd930917	-0.07179468
231	0x3da5f858	0.081040084
232	0x3d14cdf4	0.036329225
233	0xbde0c620	-0.10975289
234	0xbe14fe53	-0.14550142
235	0x3e09f8a9	0.13473763
236	0x3c85d911	0.016338857
237	0x3cda2848	0.026630536
238	0x3b5ac8e5	0.0033383903
239	0xbd84122f	-0.06448781
240	0x3d38eafd	0.045145977
241	0x3c70be11	0.014693753
242	0xbd4029a8	-0.046914726
243	0x3e365f87	0.17809878
244	0xbe6b53c2	-0.2298117
245	0xbc9cf031	-0.019157501
246	0xbd688c23	-0.05677427
247	0xbda7c270	-0.08191383
248	0xbd2f4753	-0.04279263
249	0xba7bfc1c	-0.00096124574
250	0x3e193b17	0.14963947
251	0xbdff96b7	-0.124799185
252	0x3e1cf471	0.15327622
253	0xbdceb097	-0.100922756
254	0xbe4b9c1e	-0.19883773
255	0x3ddd071a	0.1079237

linear2.weight f4 [4, 256]
0	0xbbdb184d	-0.0066862465
1	0x3b1aa108	0.0023594517
2	0xbb697bbd	-0.0035626732
3	0xbc9a9b6f	-0.018872945
4	0xbc188e3d	-0.009311256
5	0x3d409d25	0.047024865
6	0x3d27d904	0.040978447
7	0x3d4e9d51	0.050442997
8	0xbd64c0d8	-0.055847973
9	0xbc0023cd	-0.007821036
10	0xbd0e74fe	-0.03477954
11	0x3d6e7250	0.058214486
12	0x3cd14ceb	0.025549373
13	0xbd1019a7	-0.035180714
14	0x3d0825e9	0.03323928
15	0xbd0121a5	-0.031526227
16	0x3c5ac2fb	0.013352151
17	0x3cbda53c	0.023150079
18	0x3c3873b6	0.011258056
19	0xbbd557af	-0.006510697
20	0x3d909995	0.070605434
21	0x3d69cf3a	0.057082392
22	0x3da79022	0.08181788
23	0xbd176884	-0.03696491
24	0x3d715588	0.05891946
25	0x3cb83360	0.022485435
26	0xbce9b66e	-0.028529372
27	0x3d52ecd7	0.0514954
28	0xbca5daff	-0.020246027
29	0xbcb740a9	-0.0223697
30	0xbccb128c	-0.024789117
31	0x3b7c01e1	0.0038453268
32	0x3c8c5991	0.017132552
33	0xbd861cf7	-0.06548493
34	0x3d39adc7	0.045331743
35	0xbd43637d	-0.0477023
36	0x3c2c599b	0.0105194105
37	0x3c1611df	0.009159534
38	0x3c8b1b13	0.016980683
39	0x3c5d63b8	0.013512544
40	0xbcdd6b2e	-0.027028646
41	0xbc8b6c8f	-0.017019538
42	0x3d673672	0.056448407
43	0x3d0317f0	0.03200525
44	0x3d43727d	0.047716606
45	0xbc94938a	-0.018136758
46	0xbaa9d2fb	-0.0012956554
47	0x3db4ece3	0.08834245
48	0xbd1b1fd5	-0.037872154
49	0x3ce8d96a	0.028423984
50	0xbc07a377	-0.008278719
51	0x3d217177	0.03941485
52	0x3d1bd0bb	0.038040858
53	0x3d33a5c3	0.043859255
54	0x3c52fbb0	0.01287739
55	0xbc3bf0ab	-0.011470954
56	0xbbdb89c2	-0.0066997716
57	0xbaff140c	-0.001946093
58	0x3da99320	0.08280015
59	0xbcfb2c4d	-0.030660773
60	0x3b8d3f64	0.0043105353
61	0x3d523793	0.05132253
62	0xbc5384df	-0.012910097
63	0x3d18f06c	0.03733866
64	0x3d807d63	0.062739156
65	0x3d9462da	0.07245417
66	0xbc051ee4	-0.008125041
67	0x3c4cc5de	0.012498347
68	0x3bb5e7a5	0.005551296
69	0xbd35f25a	-0.044420578
70	0x3dadc3f2	0.08484639
71	0x3d5f0dbb	0.054456454
72	0x3d515f80	0.051116467
73	0x3bdaef93	0.0066813915
74	0x3c85e3e5	0.01634402
75	0xbd0d0077	-0.03442427
76	0xbc91fabb	-0.017819753
77	0xbcf65ca9	-0.03007348
78	0xbc6bbe9a	-0.014388705
79	0xbd49237a	-0.0491061
80	0x3d47d834	0.04879017
81	0x3d5d0cc9	0.05396727
82	0x3d6d338c	0.057910487
83	0xbc8a5057	-0.016884012
84	0x3cde9b6f	0.027173726
85	0x3d1c18f1	0.038109723
86	0x3d3f3dc8	0.04668978
87	0xbccc645e	-0.024950203
88	0xbca71d0b	-0.020399591
89	0x3b6affd9	0.0035858063
90	0xbc29b365	-0.010357712
91	0xbc326010	-0.010887161
92	0x3d8a5e85	0.067563094
93	0x3b8349cd	0.0040066005
94	0x393e457b	0.00018145696
95	0x3d226601	0.03964806
96	0xbc47812a	-0.012176791
97	0x3d9a0b09	0.07521636
98	0x3cbe2360	0.023210227
99	0xbd4d45e8	-0.050115496
100	0x3ca81cc3	0.020521527
101	0x3d4c9ae3	0.0499524
102	0x3bddb0c1	0.0067654555
103	0xbaa5a8c6	-0.0012638799
104	0x3d72d0a4	0.059281006
105	0x3d00deee	0.031462602
106	0xbd1548b9	-0.036446307
107	0x3d2b9045	0.041885633
108	0x3d5a5b26	0.053309582
109	0x3bffffbd	0.007812469
110	0x3d314ebf	0.04328799
111	0xbc481dd9	-0.0122141475
112	0xbc9520fc	-0.018204205
113	0x3d7e297d	0.062051285
114	0x3d80e506	0.06293683
115	0x3d7e461a	0.062078573
116	0xbbbb31ad	-0.005712709
117	0x3d008228	0.031374127
118	0x3d56c63a	0.052435137
119	0xbaf8643c	-0.0018950771
120	0x3d82b41d	0.0638201
121	0xbd0d46d9	-0.034491394
122	0xbd065e58	-0.032804817
123	0xbcda2578	-0.026629195
124	0x3d82cf89	0.063872404
125	0x3d8c54a6	0.06852083
126	0xbcb8f43e	-0.022577401
127	0x3d6f13cb	0.058368485
128	0xbd704841	-0.058662657
129	0x3d3ec1ca	0.04657153
130	0x3cf17775	0.029475907
131	0x3c584b7d	0.013201592
132	0x3cfce0ad	0.030868853
133	0x3d30f0ba	0.043198325
134	0xbd284140	-0.041077852
135	0x3d22b58b	0.039723914
136	0x3d3200f0	0.043457925
137	0x3d4e6a2f	0.050394233
138	0xbb0a498a	-0.0021100962
139	0xbd06bdcc	-0.03289585
140	0x3d2c59be	0.042077772
141	0x3d707362	0.058703788
142	0xbd06fe73	-0.032957505
143	0xbc0fd025	-0.008777653
144	0x3cf3cef7	0.029761774
145	0x3bb2810f	0.005447514
146	0xbc353652	-0.011060314
147	0x3d9749b5	0.073871054
148	0xbc3c2eb5	-0.011485745
149	0x3c965e09	0.018355386
150	0x3d9a9c3b	0.0754933
151	0x3d3424c2	0.043980367
152	0x3b9031a0	0.004400447
153	0xbac51030	-0.0015034731
154	0xbd343e37	-0.044004645
155	0xbceeff77	-0.02917455
156	0x3d140603	0.036138546
157	0xbd5889ea	-0.0528659
158	0xbbaf2b10	-0.0053457096
159	0x3c3d808c	0.0115662925
160	0xbd6b4808	-0.05744174
161	0x3d728d3c	0.059216723
162	0xbd446c74	-0.04795499
163	0x3c246563	0.010033938
164	0xbbe72e49	-0.007055078
165	0xbd11c9f5	-0.03559299
166	0x3d464dc8	0.04841402
167	0x3d7354a0	0.059406877
168	0x3d84b6a0	0.064801455
169	0x3c9361e1	0.017991008
170	0x3c94076e	0.018069949
171	0xbccab572	-0.024744723
172	0xbc0d21e7	-0.00861404
173	0x3d765e77	0.060148682
174	0x3d1ada85	0.037806053
175	0x3a999d29	0.0011719811
176	0xbcdbfbb1	-0.026853414
177	0xbd6d9077	-0.0579991
178	0x3c5795ca	0.013158271
179	0xbcc877c8	-0.024471179
180	0x3ae04f2d	0.001711344
181	0x3c8967dc	0.016773157
182	0x3d4dfd00	0.050290108
183	0x3ce517d4	0.027965464
184	0x3d8f2fe5	0.06991557
185	0x3da05cc5	0.078301944
186	0x3d3e99c9	0.04653338
187	0x3d118624	0.035528317
188	0xbce6b6e5	-0.028163383
189	0xbceab13e	-0.028648969
190	0x3d392f83	0.045211326
191	0x3cb8f3c1	0.022577168
192	0x3bdda2eb	0.006763806
193	0x3d6cd789	0.057822738
194	0xbd118b05	-0.03553297
195	0x3d5b73b5	0.053577144
196	0x3ce57f01	0.028014662
197	0xbc97049b	-0.018434813
198	0xbbbf8889	-0.0058451337
199	0xbaf63616	-0.0018784429
200	0x3cfef220	0.031121314
201	0x3d2707bb	0.040778857
202	0xbb1aaf79	-0.0023603125
203	0x3c9b017a	0.018921603
204	0x3c8894eb	0.016672572
205	0x3d7ce2fc	0.061739907
206	0xbbb42ff8	-0.0054988824
207	0xbc9dc47f	-0.019258736
208	0xbd525282	-0.051348217
209	0xbcb8dd88	-0.022566572
210	0xbbc7e0f1	-0.006099813
211	0xbd58a7f0	-0.052894533
212	0x3c92b41c	0.017908148
213	0x3ac2d3e6	0.0014864176
214	0x3d084620	0.03327
215	0x3c203e92	0.009780543
216	0xbce09c69	-0.027418332
217	0xbd1a8589	-0.037725005
218	0x3c9763e3	0.018480247
219	0x3d76973a	0.060202815
220	0xbd4b0c60	-0.04957235
221	0x3cb16382	0.021653894
222	0x3d277e6c	0.04089205
223	0x3b9d974f	0.004809297
224	0x3b88c796	0.004174183
225	0x3c5ec673	0.013597119
226	0x3d6c9892	0.05776269
227	0xbc6ea2bb	-0.014565165
228	0xbcb0bbbc	-0.021573894
229	0x3d28d673	0.04122014
230	0x3d5ee92d	0.054421593
231	0xbcf8eea4	-0.03038723
232	0x3c80e17b	0.015732517
233	0x3d1a7023	0.0377046
234	0x3d75c032	0.059997745
235	0xba2de4c5	-0.00066335156
236	0x3cee20c6	0.029068362
237	0x3c9534fa	0.018213738
238	0xbcf29928	-0.029614046
239	0xbce2c628	-0.027682379
240	0x3d088e22	0.033338673
241	0x3ca32580	0.019915342
242	0x3d630dee	0.055433206
243	0x3d1ee82c	0.038795635
244	0xbd236b9a	-0.03989754
245	0xbd507c10	-0.050899565
246	0xbce4f18c	-0.02794721
247	0x3d96975c	0.07353088
248	0x3ca7034b	0.020387312
249	0x3d93a083	0.072083496
250	0x3d3eaa36	0.046549045
251	0xbd147c38	-0.036251277
252	0xbc81e2eb	-0.015855273
253	0x3ce61473	0.028085923
254	0x3c101ca9	0.008795896
255	0x3d8f3289	0.06992061

linear2.bias f4 [4]
0	0x3beb9f63	0.0071906312
1	0x3d4c2581	0.049840454
2	0xbcc9dd8a	-0.02464177
3	0x3d6115f2	0.05495257
