model/model.pth (torch, 27456 bytes, 4 tensors)

linear1.weight f4 [256, 20]
0.042659324 0.0277808 -0.1873222 0.15042692 0.23908061 0.11124891 0.20317864 0.17916368
-0.15093426 0.2155966 0.09674918 0.14347756 -0.13084252 0.25462162 -0.051742487 0.09381686
-0.12688415 -0.0741029 0.08156002 -0.092121 -0.123060875 -0.04041958 -0.113012195 0.20291166
0.21355934 -0.07327223 0.06418238 -0.22586331 -0.111934215 -0.013447885 -0.015434463 -0.1033959
-0.05380675 -0.04098808 -0.06264086 -0.032858938 0.10957457 -0.045316793 0.022778168 -0.027318748
-0.028014645 0.08255934 -0.20683251 -0.10295572 0.055131417 0.06748253 0.08080559 0.04099307
-0.21007128 -0.101231545 -0.14117578 -0.20056501 0.023112768 0.15339768 -0.16276783 -0.1416417
0.09844429 0.08107753 -0.063660204 -0.196385 -0.22658399 0.08268172 -0.027728332 0.2143883
-0.04394381 -0.19769378 0.096314915 0.06462035 0.14094871 -0.2351721 -0.025929494 -0.10676661
0.034969147 -0.09968297 -0.05311067 -0.13934544 0.21056998 -0.10705829 -0.12957534 -0.12110581
-0.1103359 -0.009032892 0.19926938 -0.11554249 -0.046499945 0.014110103 -0.18015622 0.104657784
-0.12722239 -0.12221062 -0.1856561 -0.040410355 0.037424095 0.114093885 0.23253001 0.10365951
0.005046238 -0.07909191 0.021164149 0.08645185 0.0589243 0.06264229 0.18628646 0.21718617
-0.107173264 -0.18440743 -0.08183505 0.037669465 0.1900101 0.098590344 -0.16974564 -0.06420015
0.20747997 0.20186806 0.03182422 -0.12120482 -0.06358885 0.042937234 -0.054890197 0.15210293
0.25726828 -0.111080915 0.2601247 0.21889888 8.488875e-05 0.114957415 0.08966742 0.13042898
-0.042827703 0.117667854 0.0056822603 0.25237828 0.012153208 0.07682061 0.17530869 -0.19804813
0.15817297 -0.06601734 0.061825912 0.16456136 -0.20496121 0.23613246 0.1553647 -0.005718298
-0.19151983 -0.12132972 0.031008303 -0.17359386 0.06558182 0.20632792 -0.09212129 -0.17337348
-0.13466036 -0.19677101 -0.0060048806 0.13427523 -0.056705788 -0.09317669 -0.16194572 0.084888764
0.00026160383 -0.06768131 0.12370003 0.11718765 0.019007402 0.080417395 -0.005890812 -0.01223319
0.086743444 -0.10749341 -0.1928129 0.112421036 -0.17770639 -0.003914133 0.08689569 0.16339505
-0.08086977 -0.15595648 -0.04913764 -0.19358964 -0.008365915 0.11357438 -0.16892035 0.21043105
-0.22388446 -0.10829692 -0.0062853866 -0.03344067 -0.076463275 -0.048061263 -0.1080214 0.057372253
0.10212122 0.08626256 -0.20213099 -0.03716568 -0.0855461 -0.14913766 0.16909575 -0.19494446
-0.19052269 -0.18837509 -0.21362515 0.054856166 0.14165181 0.15227176 0.19002871 0.21455145
0.06250297 -0.025391351 -0.07452984 -0.04154653 0.14419313 0.14856642 -0.0761893 0.016752597
-0.18365803 -0.11003309 0.07176928 -0.24380283 0.050523043 0.19031619 -0.17432922 0.15385735
0.020577097 -0.22012202 0.14554256 -0.15203558 -0.18522519 0.12578604 0.14206193 -0.012595253
0.1044077 -0.10545397 -0.19861409 0.13944028 0.09514323 0.15584499 0.0016215694 -0.19706605
0.16987091 -0.124070525 -0.016394598 0.040808577 0.0977849 -0.043040566 -0.1038685 -0.19595994
0.104028985 -0.07704482 0.17480835 0.08296925 -0.09905843 -0.021578027 -0.15796165 0.097006
00000000: 8bbb 2e3d 8f94 e33c 64d1 3fbe 8409 1a3e
00000010: 8cd1 743e 78d6 e33d 100e 503e af76 373e
00000020: 838e 1abe 5bc5 5c3e 6f24 c63d c8eb 123e
00000030: 95fb 05be c45d 823e eeef 53bd 0e23 c03d
00000040: ebed 01be 43c3 97bd f108 a73d efa9 bcbd
00000050: 5707 fcbd 008f 25bd f072 e7bd 13c8 4f3e
00000060: 4daf 5a3e c00f 96bd 0d72 833d b648 67be
00000070: c43d e5bd 8554 5cbc d4e0 7cbc 3bc1 d3bd
00000080: 7764 5cbd 1ee3 27bd da49 80bd 1897 06bd
00000090: a268 e03d 1a9e 39bd 4899 ba3c 91cb dfbc
000000a0: f87e e5bc df14 a93d e7cb 53be 73da d2bd
000000b0: 7bd1 613d 4834 8a3d 677d a53d 59e8 273d
000000c0: ed1c 57be 7c52 cfbd 6290 10be ea60 4dbe
000000d0: fd56 bd3c 4814 1d3e 9cac 26be 860a 11be
000000e0: 299d c93d fa0b a63d 4860 82bd 2619 49be
000000f0: a205 68be 0955 a93d 8726 e3bc 9b88 5b3e
00000100: 6dfe 33bd 3d70 4abe c140 c53d ad57 843d
00000110: dc54 103e f4d0 70be 176a d4bc 74a8 dabd
00000120: cf3b 0f3d 9626 ccbd 938a 59bd 92b0 0ebe
00000130: a89f 573e 6041 dbbd 66af 04be 5306 f8bd
00000140: caf7 e1bd b2fe 13bc 460d 4c3e 8aa1 ecbd
00000150: ba76 3ebd 102e 673c df7a 38be d256 d63d
00000160: 9646 02be 9049 fabd a21c 3ebe 5485 25bd
00000170: 024a 193d 0eaa e93d 591c 6e3e 704b d43d
00000180: ea5a a53b f0fa a1bd 7060 ad3c ab0d b13d
00000190: 9b5a 713d 9a4a 803d e1c1 3e3e 0d66 5e3e
000001a0: a87d dbbd 4dd5 3cbe 2299 a7bd 4c4b 1a3d
000001b0: 0292 423e bce9 c93d cdd1 2dbe 5e7b 83bd
000001c0: a175 543e 80b6 4e3e 1d5a 023d 3c3a f8bd
000001d0: df3a 82bd f4de 2f3d 8bd4 60bd dfc0 1b3e
000001e0: abb8 833e 647e e3bd 112f 853e 0727 603e
000001f0: 4d06 b238 cb6e eb3d 8da3 b73d 2d8f 053e
00000200: 1a6c 2fbd d8fb f03d 4132 ba3b ba37 813e
00000210: 401e 473c 2054 9d3d 1f84 333e 21cd 4abe
00000220: 18f8 213e 1934 87bd 2b3d 7d3d c682 283e
00000230: 5ae1 51be b5cc 713e ed17 1f3e 8f60 bbbb
00000240: c61d 44be b77b f8bd 2005 fe3c 97c2 31be
00000250: c34f 863d a047 533e 16aa bcbd d188 31be
00000260: 68e4 09be 577e 49be 97c4 c4bb 727f 093e
00000270: 5444 68bd 6cd3 bebd 19d5 25be 29da ad3d
00000280: df27 8939 809c 8abd 7156 fd3d 1400 f03d
00000290: 69b5 9b3c e0b1 a43d b607 c1bb b86d 48bc
000002a0: 8ca6 b13d 8125 dcbd bf70 45be 003d e63d
000002b0: aaf8 35be 2142 80bb 5ef6 b13d 0851 273e
000002c0: 0d9f a5bd 0eb3 1fbe 8d44 49bd 5d3c 46be
000002d0: 3111 09bc af99 e83d 75f9 2cbe 3d7b 573e
000002e0: f841 65be c7ca ddbd a5f5 cdbb 16f9 08bd
000002f0: c798 9cbd e3db 44bd 533a ddbd 2bff 6a3d
00000300: ee24 d13d 6daa b03d 6dfb 4ebe 0a3b 18bd
00000310: cb32 afbd 8bb7 18be 7027 2d3e 859f 47be
00000320: 6118 43be 66e5 40be 8dc0 5abe dcb0 603d
00000330: 2c0d 113e 21ed 1b3e e396 423e 60b3 5b3e
00000340: 8f01 803d 8601 d0bc 1aa3 98bd b22c 2abd
00000350: 5da7 133e cc21 183e 2309 9cbd be3c 893c
00000360: da10 3cbe 0759 e1bd c6fb 923d 73a7 79be
00000370: 40f1 4e3d 3fe2 423e 5c83 32be c88c 1d3e
00000380: 4d91 a83c ab67 61be 1c09 153e 37af 1bbe
00000390: acab 3dbe 0ece 003e af78 113e 525c 4ebc
000003a0: b4d3 d53d 40f8 d7bd 7e61 4bbe 6fc9 0e3e
000003b0: 74da c23d d495 1f3e d78a d43a afcb 49be
000003c0: a4f2 2d3e b018 febd f74d 86bc e526 273d
000003d0: 7343 c83d 4e4b 30bd 02b9 d4bd b9a9 48be
000003e0: 260d d53d adc9 9dbd f600 333e c8eb a93d
000003f0: 25df cabd 67c4 b0bc b3c0 21be 15ab c63d

linear1.bias f4 [256]
0.0071701333 0.1361901 -0.082172506 -0.018831927 -0.1055593 0.033193868 0.029461425 0.07248193
-0.24200895 0.15401018 -0.09779074 0.18102965 0.013796787 0.031915814 0.18183996 -0.19387913
-0.18682112 0.16801156 0.07072423 -0.23986512 -0.12065417 0.18721513 0.36984715 0.21005802
0.10757838 0.04397059 -0.023619749 0.35106176 0.02289328 0.16375229 -0.11984385 -0.135282
0.03864287 0.093566835 -0.2202922 0.027666448 -0.08153427 0.10002984 0.08738608 0.005514752
0.14896782 -0.1159633 -0.2209271 0.061420504 -0.12669314 -0.2288723 -0.23125607 -0.12603791
0.2235746 0.081136726 0.14633001 -0.021172402 0.18637986 -0.10197853 0.24661191 -0.105886176
-0.020844754 -0.039488178 -0.28223592 -0.0437045 0.20179865 0.34834862 0.18067089 -0.09917299
-0.038862415 0.22888635 0.037306983 0.13289703 -0.037413787 0.18580852 0.23373736 0.107773475
0.11353041 -0.09321397 -0.023272756 0.19133733 0.087132275 -0.087790824 0.000803681 0.08135213
-0.099659316 -0.11683852 0.03860329 0.14820965 0.103632785 -0.052347876 -0.14641412 -0.035207324
0.16233979 -0.20674373 0.037612177 -0.07103391 -0.00058823026 0.01687713 0.015746523 0.011476123
0.26823533 0.04491369 0.07919129 0.15007408 0.11925288 -0.04799942 0.14360294 -0.0121147735
0.0997051 0.3552883 -0.082481235 0.20239186 0.014774209 -0.1534617 0.10044225 0.041825645
-0.0577649 -0.021511642 0.008353014 0.07024517 -0.08242813 -0.049039494 -0.20249684 0.020288475
-0.096151784 0.111686714 0.12591174 -0.20534179 -0.005813843 -0.113788776 0.16623141 0.08327115
0.0035749706 -0.20147264 -0.17339343 0.32044578 -0.16521363 -0.08529754 0.09731864 -0.11949297
0.031404603 0.010294321 0.012282634 -0.03453269 -0.09617211 0.03771162 0.21675253 0.16018245
0.23049796 -0.12899986 -0.17072324 0.34656268 -0.11829382 -0.064769894 0.083717205 0.2696923
0.037212018 0.30631638 -0.09155928 0.2515813 -0.16785507 -0.002422561 -0.043889094 0.20508415
0.28665635 -0.02320376 0.115139276 -0.049184136 0.10522179 -0.1619148 0.079432905 0.018448012
0.074731216 0.17940791 0.16185528 0.049944803 -0.1670249 0.06696855 0.26786876 -0.01259152
0.10858557 -0.19299662 -0.086311184 0.16077413 0.031519044 -0.027950067 -0.21418856 0.18495195
0.17988561 0.17508186 -0.041749835 -0.086758286 0.19293298 -0.123670414 0.18770126 -0.060629718
0.002146456 -0.13913688 -0.029162375 0.06858747 0.16333455 0.1402202 -0.034404065 -0.027567983
0.2312171 0.06332951 -0.06297824 -0.06306653 0.23552737 -0.20876925 0.20538102 0.2608143
-0.10275771 0.05569954 0.10025515 0.22845583 0.1175332 0.22139372 -0.06183521 0.30597603
-0.17974493 -0.17002457 0.096165955 0.13895854 0.2416632 0.32128906 0.1283947 0.2539166
-0.13882942 0.059852853 -0.17835915 0.18342704 -0.14090405 -0.030805094 -0.17976324 -0.13009627
-0.167352 0.24546562 0.22843178 0.158794 0.23176242 -0.08729095 -0.13545619 0.19685428
-0.15220137 0.12996311 0.15641327 0.19428009 -0.20295343 -0.12819639 0.13844618 0.03537468
-0.18013614 0.34916407 -0.22959314 0.058762047 -0.1577257 0.14764963 0.17843744 -0.024269454
00000000: 70f3 ea3b 6b75 0b3e 0f4a a8bd 6a45 9abc
00000010: 792f d8bd 4bf6 073d 1659 f13c 6871 943d
00000020: 32d1 77be d8b4 1d3e 8346 c8bd d65f 393e
00000030: eb0b 623c 28ba 023d 4134 3a3e 4088 46be
00000040: 094e 3fbe 390b 2c3e ddd7 903d 349f 75be
00000050: 8919 f7bd 53b5 3f3e 9b5c bd3e 7319 573e
00000060: 0e52 dc3d 811a 343d 347e c1bc 5ebe b33e
00000070: b08a bb3c aeae 273e b170 f5bd 5d87 0abe
00000080: fc47 1e3d f89f bf3d 4794 61be bfa4 e23c
00000090: 70fb a6bd 72dc cc3d 79f7 b23d 18b5 b43b
000000a0: 058b 183e 2b7e edbd b73a 62be 1194 7b3d
000000b0: d9bb 01be 805d 6abe 64ce 6cbe 1510 01be
000000c0: bdf0 643e 032b a63d 89d7 153e bf71 adbc
000000d0: 5dda 3e3e 1fda d0bd d587 7c3e dada d8bd
000000e0: 9ec2 aabc 5bbe 21bd 3a81 90be 7d03 33bd
000000f0: 4ea4 4e3e c05a b23e ca01 393e 351b cbbd
00000100: 322e 1fbd 2f61 6a3e 35cf 183d 2916 083e
00000110: 333f 19bd 9744 3e3e d958 6f3e 57b8 dc3d
00000120: a282 e83d f7e6 bebd 82a6 bebc efed 433e
00000130: 6872 b23d adcb b3bd 1eae 523a f29b a63d
00000140: 2f1a ccbd 0949 efbd 7c1e 1e3d 45c4 173e
00000150: 6d3d d43d ba6a 56bd 95ed 15be 8e35 10bd
00000160: 673c 263e a1b4 53be 3a0f 1a3d 3a7a 91bd
00000170: 7733 1aba e841 8a3c dafe 803c 5906 3c3c
00000180: 2456 893e 6bf7 373d 0b2f a23d 05ad 193e
00000190: db3a f43d 0a9b 44bd a60c 133e 0b7d 46bc
000001a0: 3032 cc3d 59e8 b53e eceb a8bd d03f 4f3e
000001b0: 860f 723c 1025 1dbe abb4 cd3d 5e51 2b3d
000001c0: e39a 6cbd 2f39 b0bc 14db 083c b3dc 8f3d
000001d0: 14d0 a8bd a3dd 48bd 555b 4fbe 0434 a63c
000001e0: 3aeb c4bd 01bc e43d 02ef 003e 1e45 52be
000001f0: 0d82 bebb 170a e9bd 9138 2a3e 118a aa3d
00000200: 0e4a 6a3b d84e 4ebe 0c8e 31be 7811 a43e
00000210: c32d 29be 7ab0 aebd ff4e c73d bbb8 f4bd
00000220: 1da2 003d 83a9 283c 1a3d 493c 2672 0dbd
00000230: e2f5 c4bd 8077 1a3d 60f4 5d3e de06 243e
00000240: a807 6c3e 8a18 04be 13d2 2ebe aa70 b13e
00000250: 0844 f2bd 14a6 84bd ed73 ab3d 1c15 8a3e
00000260: a16b 183d 80d5 9c3e 6f83 bbbd 44cf 803e
00000270: 33e2 2bbe d4c3 1ebb 0dc5 33bd 9401 523e
00000280: 9fc4 923e d015 bebc 24ce eb3d 4e75 49bd
00000290: 867e d73d fecc 25be b8ad a23d 4920 973c
000002a0: ae0c 993d b5b6 373e 64bd 253e ec92 4c3d
000002b0: 9308 2bbe cf26 893d 1826 893e aa4c 4ebc
000002c0: 1c62 de3d e8a0 45be ebc3 b0bd f9a1 243e
000002d0: 1d1a 013d 8af7 e4bc 3f54 5bbe 0b64 3d3e
000002e0: ef33 383e a948 333e e001 2bbd 54ae b1bd
000002f0: 3990 453e ea46 fdbd c234 403e de56 78bd
00000300: 8eab 0c3b e679 0ebe efe5 eebc 9677 8c3d
00000310: 2c41 273e e295 0f3e 47eb 0cbd 40d6 e1bc
00000320: 2dc4 6c3e e7b2 813d bcfa 80bd 0629 81bd
00000330: 162e 713e 9bc7 55be 674f 523e 7489 853e
00000340: a272 d2bd 3325 643d 9252 cd3d 53f0 693e
00000350: 3fb5 f03d 09b5 623e eb46 7dbd e4a8 9c3e
00000360: 0e0f 38be ec1a 2ebe a8f2 c43d 264b 0e3e
00000370: 8f76 773e 0080 a43e e679 033e 5b01 823e
00000380: 4d29 0ebe 4428 753d c8a3 36be 4cd4 3b3e
00000390: 2749 10be f75a fcbc db13 38be f537 05be
000003a0: 535e 2bbe 575b 7b3e 05ea 693e e59a 223e
000003b0: 2153 6d3e 99c5 b2bd 07b5 0abe 2b94 493e
000003c0: adda 1bbe 0d15 053e cd2a 203e 5cf1 463e
000003d0: 06d3 4fbe ea45 03be d6c4 0d3e 0ae5 103d
000003e0: 9c75 38be a2c5 b23e 771a 6bbe 79b0 703d
000003f0: d982 21be 7731 173e 4eb8 363e bcd0 c6bc

linear2.weight f4 [4, 256]
0.036520604 0.03708397 0.022101393 0.096878074 0.0111988 0.05952978 0.06067667 0.003241636
0.030451676 0.061944827 0.008547606 0.031259492 -0.04945194 0.039184008 -0.060480647 0.03090475
0.051368818 0.0016288564 0.09904297 0.02059431 -0.075016014 0.0315776 0.08985164 0.054169647
0.008924065 0.10357672 0.021743879 0.06996904 -0.0024807109 -0.00567678 -0.00069378485 -0.054815337
0.049997684 0.06567677 -0.032554362 -0.010971525 0.07815115 -0.040906068 0.01010821 0.026520537
0.068770625 -0.030685479 0.062595084 0.06580366 0.048190504 -0.008695318 0.029829817 -0.018886957
0.018212678 0.00783836 0.06904156 -0.027432445 0.07970843 0.018953199 0.067153044 0.06066803
0.08513482 0.07860879 -0.012764418 0.083047956 -0.011515722 0.0842538 0.019403975 0.02974019
-0.0066893864 0.051905144 0.04724172 0.04073188 0.082908675 -0.0005607631 0.08318359 0.00898327
0.06883246 0.05846812 0.035765015 0.023719693 0.050256975 0.010126227 0.022357067 -0.0072102593
0.045795903 0.0607229 -0.02282361 -0.0037764264 0.034447506 0.023791004 0.058399446 0.057137575
0.008514094 0.066393696 0.07606496 0.020341393 -0.016988391 0.021711556 0.021708867 0.056034926
0.1070546 0.052378017 0.048569683 0.04718209 0.0983516 0.012238359 0.007958926 0.02910119
-0.021441855 0.09629273 0.059896413 0.09082138 0.043349106 0.053117238 0.05111714 -0.0060811774
0.049119063 0.05946971 0.01650545 0.03766244 0.058326837 0.03274828 0.002101267 0.07139586
-0.018841425 0.021026952 0.0029896216 -0.051329035 0.05439232 0.051401336 0.06923081 0.09907607
-0.00057764596 -0.015846703 0.088777915 0.060464837 -0.02616014 0.03553629 0.07191405 0.080374986
-0.004174342 0.032557305 0.10527946 0.037663784 0.037684005 0.083718754 0.060936466 0.05315729
0.09282341 0.07134361 -0.0295036 0.10098929 0.045447517 0.059922744 0.07047924 0.03951068
-0.03228616 0.11379241 0.059612986 0.041499216 -0.04398317 0.0014454481 0.031070728 0.02288484
0.06765394 0.0857264 -0.03619261 0.063276015 0.024174236 0.0019283448 0.005581215 0.0003421423
0.059504576 0.06135719 0.035194706 0.05406464 -0.049622126 -0.0013782383 0.06820038 0.061095543
0.02677111 0.052679658 -0.04011326 0.09510995 0.058786333 0.06485088 0.024423225 0.017240858
0.07379826 0.011689644 0.058495205 0.077012055 0.07866476 -0.00054207875 -0.015393251 0.040194847
0.053274263 0.034238517 0.04807585 0.0066691968 0.06415844 0.036528993 0.07255319 -0.030053318
0.05821251 0.00581866 0.04507489 -0.012118243 0.018676586 0.05448101 0.033886354 0.07272338
-0.038483582 0.06513416 0.070422664 0.07947142 0.060454126 0.05599423 0.064126916 0.020529388
0.029721268 0.0010671826 -0.0035756326 0.011527771 0.020805508 0.10073072 -0.018132083 0.0056371503
0.005758205 0.033547826 -0.0045484053 0.068192266 -0.0030686958 0.04975501 -0.057917498 0.048811592
0.064444326 -0.008196609 0.09008821 0.03302138 -0.0040661814 -0.018486954 0.009077606 0.05794536
-0.042168386 -0.019152775 0.091067776 -0.03360716 0.048909187 -0.015107501 0.07877024 0.060982797
0.0394869 0.07061406 0.02731049 0.019083975 0.03850965 0.054619532 0.043160416 0.039209813
00000000: a196 153d 5ce5 173d fb0d b53c 0368 c63d
00000010: 2c7b 373c 80d5 733d 1a88 783d a171 543b
00000020: cb75 f93c dcb9 7d3d 420b 0c3c f409 003d
00000030: 1e8e 4abd 697f 203d 8eba 77bd f52b fd3c
00000040: 1c68 523d 5a7f d53a 0ad7 ca3d 66b5 a83c
00000050: ffa1 99bd 8357 013d 2304 b83d fee0 5d3d
00000060: 3e36 123c 0820 d43d 3820 b23c ee4b 8f3d
00000070: 6c93 22bb 4804 babb 1ddf 35ba 0c86 60bd
00000080: 5fca 4c3d 8b81 863d b957 05bd e9c1 33bc
00000090: b60d a03d 1f8d 27bd e89c 253c 9941 d93c
000000a0: 9dd7 8c3d 1d60 fbbc da31 803d 12c4 863d
000000b0: 6863 453d cf76 0ebc a95d f43c d2b8 9abc
000000c0: c132 953c 776c 003c a965 8d3d 02ba e0bc
000000d0: 2c3e a33d bd43 9b3c 8987 893d 0a7f 783d
000000e0: 2a5b ae3d a5fd a03d d921 51bc 0c15 aa3d
000000f0: 70ac 3cbc 428d ac3d 16f5 9e3c b3a1 f33c
00000100: a432 dbbb 7d9a 543d 8980 413d 79d6 263d
00000110: 06cc a93d 2d00 13ba 285c aa3d 912e 133c
00000120: 08f8 8c3d 447c 6f3d 567e 123d cd4f c23c
00000130: 42da 4d3d 79e8 253c 2b26 b73c 0a44 ecbb
00000140: 7c94 3b3d 93b8 783d 94f8 babc ec7d 77bb
00000150: d418 0d3d 5ae5 c23c 4234 6f3d 1709 6a3d
00000160: b37e 0b3c 6bf9 873d f2c7 9b3d fea2 a63c
00000170: 3d2b 8bbc 6fdc b13c cbd6 b13c e184 653d
00000180: 713f db3d 558a 563d 01f1 463d 0242 413d
00000190: 906c c93d 6683 483c 2866 023c 9e65 ee3c
000001a0: d4a6 afbc 1f35 c53d f155 753d 8f00 ba3d
000001b0: d58e 313d 7691 593d 3560 513d 9d44 c7bb
000001c0: 1231 493d 8396 733d 7036 873c ee43 1a3d
000001d0: 1fe8 6e3d 0f23 063d 69b5 093b fe37 923d
000001e0: 5559 9abc b740 ac3c 87ed 433b 653e 52bd
000001f0: 7bca 5e3d 358a 523d e2c8 8d3d 65e8 ca3d
00000200: 2a6d 17ba f2d0 81bc 32d1 b53d faa9 773d
00000210: ca4d d6bc 808e 113d ac47 933d a49b a43d
00000220: ebc8 88bb cf5a 053d c29c d73d 5745 1a3d
00000230: 8b5a 1a3d bd74 ab3d 8498 793d 75bb 593d
00000240: 331a be3d 991c 923d 89b1 f1bc 79d3 ce3d
00000250: 2d27 3a3d 8d71 753d 6b57 903d f3d5 213d
00000260: 7e3e 04bd ff0b e93d bf2c 743d 15fb 293d
00000270: b227 34bd 3175 bd3a 0a88 fe3c fd78 bb3c
00000280: 268e 8a3d 5391 af3d b43e 14bd db96 813d
00000290: 0c09 c63c 84c0 fc3a a0e2 b63b 9061 b339
000002a0: 12bb 733d ad51 7b3d 5328 103d e272 5d3d
000002b0: 9240 4bbd 01a6 b4ba a4ac 8b3d 523f 7a3d
000002c0: 164f db3c a0c6 573d cd4d 24bd 01c9 c23d
000002d0: f0c9 703d 8ad0 843d 3713 c83c b33c 8d3c
000002e0: 8b23 973d ec85 3f3c ab98 6f3d 7fb8 9d3d
000002f0: fd1a a13d 4a1a 0eba f933 7cbc 5aa3 243d
00000300: 1d36 5a3d b03d 0c3d 2feb 443d 4789 da3b
00000310: 8065 833d 6d9f 153d c496 943d 6032 f6bc
00000320: 3e70 6e3d 75aa be3b 73a0 383d 988b 46bc
00000330: a4ff 983c 7b27 5f3d 6bcc 0a3d ffef 943d
00000340: f6a0 1dbd 0f65 853d c239 903d e9c1 a23d
00000350: bf9e 773d 355a 653d f954 833d 3f2d a83c
00000360: 047a f33c b5e0 8b3a 2955 6abb fade 3c3c
00000370: 5070 aa3c e84b ce3d bc89 94bc d8b7 b83b
00000380: 53af bc3b 7269 093d ca0a 95bb 63a8 8b3d
00000390: 2c1c 49bb e9cb 4b3d e63a 6dbd aaee 473d
000003a0: 63fb 833d 124b 06bc 2b80 b83d 6d41 073d
000003b0: 9a3d 85bb f471 97bc 3dba 143c 1d58 6d3d
000003c0: c2b8 2cbd 48e6 9cbc be81 ba3d a9a7 09bd
000003d0: 0055 483d 7485 77bc 4b52 a13d 19c9 793d
000003e0: 04bd 213d 1b9e 903d 40ba df3c ff55 9c3c
000003f0: 4bbc 1d3d bbb8 5f3d fac8 303d 789a 203d

linear2.bias f4 [4]
0.09629514 0.014462054 0.08908017 0.04805712
00000000: 6336 c53d 40f2 6c3c aa6f b63d 8bd7 443d
