model/model0.pth (torch, 27464 bytes, 4 tensors)

linear1.weight f4 [256, 20]
000000 2e 9b a1 3d 6c 5d 19 be 70 fa 1d 3e 34 2a 26 3e
       0.07890926 -0.14977044 0.15427566 0.16227037
000010 8b 32 ea 3d 8b 42 37 be e8 b3 39 be b1 d3 a2 3c
       0.114354216 -0.17896478 -0.18135035 0.019876333
000020 d5 ad b4 3d 93 ae 12 be 48 2c e2 bd 32 be 73 bd
       0.08822218 -0.14324407 -0.11043602 -0.059507556
000030 ea 5e 10 3e c4 e7 0e be 4e 37 de 3c 7f aa 69 bd
       0.14098707 -0.13955599 0.02712598 -0.057047363
000040 32 9c 69 be a4 0d 0f be f6 89 10 3e 6a 4c e4 bd
       -0.2281349 -0.13970047 0.14115128 -0.11147387
000050 62 a9 8e 3d 43 20 5c 3e 63 e3 c4 bd 8f 69 68 3d
       0.06965901 0.21496682 -0.09613683 0.056741294
000060 7d f5 82 bc 3b 47 5d 3d 00 02 57 3e f4 aa 0c 3c
       -0.015986199 0.05402301 0.20996857 0.00858568
000070 c4 60 8c 3d 98 6c 5b bd 8d b9 a1 3d bf ae 88 bd
       0.06854394 -0.05357036 0.07896719 -0.06673955
000080 65 d0 69 3d 5a 8d be bd c8 31 21 be 11 74 d8 bd
       0.057083506 -0.093043044 -0.15741646 -0.10569013
000090 e0 4b 4d 3d 43 19 60 bd e6 da 2d 3e 34 09 fc bd
       0.05012119 -0.05471159 0.16978034 -0.12306443
0000a0 2a 05 16 be 1c f4 4a 3e 2c 82 82 bc 96 f0 ee 3d
       -0.14650407 0.19819683 -0.015931211 0.11666982
0000b0 30 2a d1 bd 1c cc 28 be 7e 40 f6 bd 9c db 9a 3d
       -0.10213125 -0.16484112 -0.1202402 0.075614184
0000c0 14 f6 3e 3c 30 51 80 3c d2 5c b3 bd 77 d2 10 3e
       0.011655349 0.015663713 -0.087579384 0.14142786
0000d0 d0 8e f6 3d f0 18 ba 3d 83 b7 91 3d 36 69 62 3e
       0.12038958 0.09086788 0.0711508 0.22110447
0000e0 b9 4d ce bd 37 b4 2f 3e e9 6f 80 bd d0 dd 20 3e
       -0.10073418 0.1715859 -0.06271345 0.15709615
0000f0 e2 1d 2e be d3 be 14 be f8 bb 13 be f6 43 37 be
       -0.17003587 -0.14525919 -0.14427173 -0.17897019
000100 c6 31 30 3a 55 88 88 bd 3c 45 69 3d b9 2d 08 bc
       0.0006721284 -0.06666628 0.056950793 -0.008311682
000110 c9 d2 6f 3e 28 5d 87 3c 7f c3 15 bd 39 7d 55 be
       0.23420252 0.016523913 -0.036563393 -0.2084855
000120 8a 51 c2 bd bd 6f 92 bd 41 8a fe bc 74 ad 1d 3e
       -0.094882086 -0.07150219 -0.031071784 0.15398198
000130 be 9c 56 be 35 32 a4 3d 6f de 48 be 5a 46 de bd
       -0.2095823 0.08017389 -0.19616102 -0.10853262
000140 cf a0 2e 3e 7b 23 e7 bd a8 93 43 be be 91 0e be
       0.17053531 -0.11286064 -0.19099295 -0.13922784
000150 10 62 35 3e f2 53 a0 bd b5 ce 27 be 87 63 57 3d
       0.17713189 -0.07828511 -0.16387446 0.05258515
000160 80 c8 01 be 24 9b d3 3c a7 59 ce bc 1e 5f 88 3d
       -0.12674141 0.025830813 -0.025189234 0.06658767
000170 f2 d5 0c be b7 fe 06 3e 78 f5 5b be 98 2e af ba
       -0.13753489 0.13183104 -0.21480358 -0.0013365326
000180 4f e0 42 bd e7 53 69 ba 6f 06 02 be 69 18 39 be
       -0.0475772 -0.0008900747 -0.12697767 -0.18075718
000190 8d db ca ba 07 f8 86 3d e9 81 35 be 1a 4a 2b be
       -0.0015476808 0.06590276 -0.17725338 -0.16727486
0001a0 63 49 3a 3d 37 e5 27 be 0b 4b f9 bd c0 55 f8 39
       0.045480143 -0.16396032 -0.121725164 0.00047366135
0001b0 60 67 39 3e 68 2d 6d 3d e8 5f 08 3e 0a fd 0e be
       0.1810584 0.05790463 0.13317835 -0.13963714
0001c0 9f 74 91 bd 79 e9 50 3e 56 9e 84 3c 42 cd 43 3e
       -0.07102322 0.20401563 0.016188782 0.19121268
0001d0 77 47 db 3d 79 81 05 be 23 52 61 be 54 83 13 3e
       0.1070699 -0.13037671 -0.22003989 0.14405566
0001e0 b0 87 5b be 5b 8f 05 3e 8f 3d 5c 3e 10 19 3d 3e
       -0.2143848 0.13042967 0.21507858 0.18466592
0001f0 0a 2c 38 3e c1 78 df bd 5e 1d 51 bd 7e 5d 70 3d
       0.1798555 -0.10911704 -0.051053397 0.05868291
000200 5b a7 00 bd c4 1d 1e 3e 17 b4 24 be a5 76 43 3c
       -0.031409603 0.15441042 -0.16084324 0.0119301425
000210 6f eb 83 bd 9d 36 05 3e d4 3b 32 3e 4c 3d 38 be
       -0.0644139 0.13009115 0.17405635 -0.17992133
000220 6b 49 4c bd 3a d5 0e be d3 1b 41 3e fb 27 19 be
       -0.049874704 -0.13948527 0.1885827 -0.14956658
000230 f0 b1 7f bd 7b 22 94 bd f9 3d 2d be d9 27 67 bd
       -0.062425554 -0.07233139 -0.16918172 -0.056434486
000240 da 15 32 be fd fe 2a 3e 50 79 9e 3c d3 68 a1 3c
       -0.17391148 0.16698833 0.019344956 0.019703304
000250 50 08 1b be d0 df 67 3e af 34 56 bd 03 b2 09 be
       -0.1513989 0.22643971 -0.052296337 -0.13446812
000260 18 0e 82 3d aa 17 b7 bd fd 9e 0c bc 13 5a 09 3e
       0.063503444 -0.089400604 -0.008582828 0.13413267
000270 95 98 5d 3e 70 28 e2 3d 3e 4c 0e 3e 8f fe 5e be
       0.21640237 0.11042869 0.13896272 -0.21776794
000280 1d 25 af bc 9c 78 c6 3d 03 a2 6e 3e 7d e5 4b be
       -0.021380002 0.09690973 0.2330399 -0.19911762
000290 5b c5 e9 3c 1d 4a f0 bd c2 1c 01 bd 86 b7 18 be
       0.02853649 -0.11732886 -0.031521566 -0.14913759
0002a0 fc 1e 39 be be ed 00 3c eb 2c 28 3d b1 3c 1b be
       -0.18078226 0.007869182 0.041058462 -0.1515987
0002b0 e2 c5 c1 bd 95 7d c2 3c 48 e1 40 be f1 e1 54 3c
       -0.09461571 0.023741523 -0.18835938 0.012993322
0002c0 60 39 0e be f0 29 a6 bd ca d1 10 3e c7 be 1b 3e
       -0.13889074 -0.08113468 0.14142528 0.15209495
0002d0 24 28 1a 3e 5f e6 c1 bd 63 51 4f be c7 bd 1a 3e
       0.15054375 -0.09467768 -0.2024589 0.15111457
0002e0 3d 8e 9f bc 98 dd a4 3c 89 a8 48 3e 40 f7 3c bd
       -0.019477004 0.020125195 0.19595541 -0.046134233
0002f0 58 63 40 3e 70 61 ad bd a2 fb 5c 3d e7 35 9c bc
       0.18787897 -0.0846585 0.053950913 -0.019068671
000300 b6 cf ea bd e8 96 0a bd bd ad 39 be c7 82 1c 3d
       -0.11465399 -0.03383532 -0.18132682 0.038210656
000310 f9 8d 22 3e fa 40 2c 3e 7c 39 48 3e 3d 3c d2 bd
       0.15874471 0.16821662 0.19553179 -0.10265396
000320 49 5e 6a bc 7a da 06 be a7 70 86 bd 26 72 c2 3d
       -0.014304706 -0.1316928 -0.065644555 0.09494428
000330 1b ad 3e be 2b 4f 44 be ff b5 28 3e a4 9d 47 3e
       -0.18620722 -0.19170825 0.16475676 0.19493729
000340 1f 72 4a 3e d4 a9 72 bd 6f 56 09 bd 2d 00 b0 bd
       0.19770096 -0.059243992 -0.033529695 -0.085937835
000350 ba e5 61 3d 12 f0 37 3d df 88 aa 3d 4c 76 3c be
       0.055150725 0.044906683 0.08326887 -0.18404502
000360 8f 31 c4 bd dd 5b e7 bd 9b 71 56 be 5c 1b 39 be
       -0.09579765 -0.112968184 -0.20941775 -0.18076843
000370 04 0b 0e 3d ca b5 e7 3d d5 07 aa bd 53 45 0d be
       0.034678474 0.113139704 -0.08302275 -0.13795976
000380 d0 46 44 3e 38 cc b9 3d a4 8f f7 bd c6 fc 1c bd
       0.19167638 0.09072155 -0.12087944 -0.038327
000390 00 2c e9 3d 0d b8 04 3e 03 b7 dd 39 3a 6a 27 3d
       0.113853455 0.12960835 0.0004228876 0.04087279
0003a0 64 cc 6f 3c f7 c3 27 be 69 7e 45 bd 27 f6 98 bd
       0.014636133 -0.16383348 -0.048216257 -0.07468825
0003b0 45 33 4a 3e b3 20 06 3e 9e f9 50 3e 4a a2 20 3e
       0.1974612 0.13098411 0.20407721 0.15686908
0003c0 90 f9 6e 3d 8c d5 60 bd bc 6c 0f 3e 50 bb 87 bd
       0.05834347 -0.054891154 0.14006323 -0.06627524
0003d0 5f 7f e4 3d ca 9f 18 be 3b bf 84 3d 76 51 0a 3d
       0.111571066 -0.14904705 0.06481787 0.033769093
0003e0 41 9b dc 3d 77 f8 ff 3b 8a 79 2f be 9e 01 2c 3e
       0.107718 0.0078116017 -0.17136207 0.16797492
0003f0 0a e8 9c bd 14 b5 3a bc 9d 20 25 3e c4 d3 6f bb
       -0.076614454 -0.011395711 0.16125722 -0.0036594728

linear1.bias f4 [256]
000000 0e ab 41 be a7 70 c8 3d f6 9f a4 3d 9b 66 69 bd
       -0.18912908 0.09787112 0.08038323 -0.056982618
000010 f9 f6 01 3e 20 ce e2 bd 9b de 7c 3d 4c ab 4b be
       0.12691869 -0.110744715 0.06173573 -0.19889563
000020 11 2d 4d be 04 15 fb bc c5 e9 b8 bd 70 b3 fe bd
       -0.20036723 -0.03064967 -0.09028963 -0.12436569
000030 34 15 38 bd cf f6 48 be 6c 24 11 3e e1 9b 87 bd
       -0.044942096 -0.196254 0.1417405 -0.066215284
000040 69 36 30 be 11 20 ea 3d 49 b3 bf 3c f3 f1 dc bd
       -0.17208256 0.114318974 0.02340092 -0.10788336
000050 8b 57 1d bd 41 a4 b5 bd 77 65 29 3e 8c 84 5a bd
       -0.038413566 -0.088692196 0.16542612 -0.053349063
000060 36 31 09 bd 2e e8 29 3e 6c c1 c1 3d d9 d1 62 bd
       -0.033494197 0.16592476 0.094607204 -0.055375908
000070 52 5e e3 bd 3e fa 71 3d 3b a2 6c be b6 8e 46 be
       -0.111019745 0.05907654 -0.23108761 -0.19390377
000080 2c 48 1b bd 0e 26 fc 3d 87 45 1b 3e 06 0b 0a 3d
       -0.037910625 0.12311946 0.15163241 0.03370192
000090 13 d9 4d be b4 94 0a 3e 5d ca 03 3e 4e e2 01 3e
       -0.20102338 0.13533288 0.12870164 0.12683985
0000a0 83 0d 34 be a5 85 46 3d 12 69 ad bd f1 cc 09 3d
       -0.1758328 0.048467297 -0.08467306 0.033642713
0000b0 06 89 5a be 92 8a 40 3e f3 3d a0 bc f0 fd 0e be
       -0.21341333 0.1880286 -0.01956079 -0.13964057
0000c0 22 4b 14 bd 3c 5b 87 3c 4f 4e 65 be 78 8a 42 3e
       -0.036204465 0.016522996 -0.22393154 0.18998134
0000d0 12 bd 99 3d 9a c9 19 3d 05 bc 83 bc d9 f9 62 3d
       0.075067654 0.037545778 -0.016080866 0.055414055
0000e0 e9 9d cc bc ee d8 16 be 14 01 1c bd 1c 9a 33 be
       -0.024977641 -0.1473119 -0.038086966 -0.17539257
0000f0 bb 3b d5 3d a4 69 9d 3d 23 d4 1a 3e 29 06 ec bd
       0.10411783 0.07686165 0.15119986 -0.115246125
000100 e0 f8 32 3e 65 13 12 3e 81 a4 08 be cc e1 1c 3e
       0.17477751 0.14265211 -0.13344003 0.1532051
000110 15 9b d8 bd ae e0 24 3e 63 cc c1 3d 41 4a 11 3c
       -0.105764546 0.16101333 0.09462812 0.008867801
000120 f7 30 47 be f4 2f 2b be d6 5b 2f be ec 80 1c 3e
       -0.19452272 -0.16717511 -0.17124876 0.15283555
000130 3c 1e 5f be 16 60 fc 3d 53 30 98 bd 29 9c 11 3d
       -0.21788877 0.123230144 -0.07431092 0.035549317
000140 6d 89 83 3d b5 3c f8 3d 11 d3 28 3e e1 53 f8 bd
       0.06422696 0.12120954 0.16486765 -0.12125374
000150 b7 a6 37 3e 11 3b 98 bc 47 27 15 3e 6b fb 25 be
       0.1793469 -0.018582853 0.14565764 -0.1620919
000160 c1 c8 88 3d e7 af 81 be b4 35 4e 3e 61 1c 9b bd
       0.06678916 -0.25329515 0.20137674 -0.07573772
000170 c1 93 e6 bd fd b7 2a 3e 48 6e 26 3d 52 51 23 3e
       -0.112586506 0.16671748 0.040632516 0.1594899
000180 da de cc bc 5f 49 a4 3d 92 18 1c 3d 7b 3d 57 be
       -0.025008608 0.08021807 0.03810937 -0.21019547
000190 58 cc c1 3d 9f c5 58 3e 4e 2d 93 3d 12 c7 56 3d
       0.094628036 0.21169136 0.071863756 0.052435942
0001a0 8f 6b ff 3d 8b eb 10 3e d5 db 42 be d5 a3 bd 3d
       0.12471687 0.14152353 -0.19029172 0.09259764
0001b0 a7 cd 41 3e 75 df 50 be 1e 11 33 be f1 7d 45 3e
       0.18926106 -0.20397742 -0.17486998 0.19286324
0001c0 81 d0 7f be 37 30 29 be 97 1e 10 3e 38 1c 0d be
       -0.24981882 -0.16522299 0.14074169 -0.13780296
0001d0 67 18 87 bd 1d bc 9e bd 2e de 7b bd d1 f6 ab 3c
       -0.06596451 -0.077507235 -0.061491184 0.020991715
0001e0 1a 45 eb bd b1 0a 4f 3e af 9a b5 bd b0 56 eb bd
       -0.114877895 0.20218922 -0.08867394 -0.11491144
0001f0 44 a0 25 bd d0 90 2e 3e 03 6a 05 be 26 51 5c be
       -0.040436044 0.17047429 -0.13028722 -0.2151533
000200 80 09 f6 3d 01 cd 41 be b6 18 85 bd ef c1 52 be
       0.12013531 -0.18925859 -0.06498854 -0.20581792
000210 2d 3b f9 3d c5 8d c6 3d 71 11 12 be 29 a5 1e bc
       0.1216949 0.09695009 -0.14264466 -0.009682932
000220 16 f1 a6 bd 0e db 56 be ec 44 44 3e b3 3e 4b 3e
       -0.08151452 -0.20982 0.19166917 0.19848137
000230 94 94 10 bd 61 81 2c be bf 02 f9 bd ec 60 29 3e
       -0.035297945 -0.16846229 -0.12158727 0.16540879
000240 a9 60 d0 bd 32 49 14 3e 02 ce ec bd 78 91 80 bd
       -0.101746865 0.14481047 -0.1156273 -0.06277746
000250 af e7 19 3e e7 23 57 3d 9d 79 99 bd 7a c6 54 3e
       0.15029787 0.052524474 -0.07493899 0.20778838
000260 c4 88 39 be 23 1e 3f be 4f 7f d9 bd 68 ea 55 3e
       -0.18118578 -0.1866384 -0.10619985 0.208902
000270 64 c0 98 bd da 88 f4 bd 15 be 07 3e b1 87 f0 3d
       -0.074585706 -0.11940165 0.13256104 0.11744631
000280 5e 5e 88 bc 32 89 ab bc 2d 7d 61 3d 47 b9 17 3e
       -0.01664656 -0.020939443 0.055051018 0.14816771
000290 44 f6 cd 3d 16 d9 22 3e e9 39 04 3d 71 84 23 3c
       0.10056737 0.15903124 0.03228179 0.009980307
0002a0 9d ee 9d bc 71 5b ab 3d 2b 32 38 3d 35 83 c4 3d
       -0.019278819 0.083670504 0.04496972 0.09595338
0002b0 3b 0f 34 be f5 b0 1f 3e b8 a7 fb bd d6 53 5c be
       -0.17583935 0.15594848 -0.12287849 -0.21516356
0002c0 de c4 9f bd 19 25 8f 3b 74 0a 2a be 83 9b dd bd
       -0.07801221 0.004368436 -0.1660555 -0.10820677
0002d0 65 ba 26 3a 7d ef 60 be 15 9f 5a be 4a 35 40 3d
       0.00063601724 -0.21966358 -0.21349747 0.04692582
0002e0 08 3e e0 bd 7c fb 53 bd 54 4c 2b 3d ac 6f a3 3c
       -0.109493315 -0.051753506 0.04182084 0.01995071
0002f0 34 66 a2 3d 36 32 ef bd fd f5 a8 3d 74 c3 6b be
       0.0792965 -0.11679499 0.082500435 -0.23023778
000300 c1 35 81 3d ff 0a 50 3e d0 9b a6 bd d1 e8 40 be
       0.06309081 0.20316695 -0.081351876 -0.18838812
000310 64 c8 21 3e df 19 51 3c 8e 63 94 bd c3 51 77 3c
       0.15799099 0.012762516 -0.07245551 0.015095177
000320 73 58 63 be 70 25 46 3e b8 23 fa 3c 15 be 3f be
       -0.2220171 0.19350219 0.03053461 -0.18724854
000330 a7 ae dc bc 33 44 86 3c 02 35 e7 3d f1 f8 53 be
       -0.02693875 0.016389942 0.11289407 -0.20700432
000340 f6 02 f7 bd f5 e3 5e be 78 7b 36 3e 3c 8f cf 3d
       -0.12061112 -0.21766646 0.17820537 0.10134742
000350 74 5f a8 bd 70 58 33 be 09 77 48 be f7 e3 ca bd
       -0.08221331 -0.17514205 -0.19576658 -0.09906762
000360 f8 9b 1b 3d 90 9b 16 be 16 29 25 be 67 37 b9 bd
       0.03799054 -0.1470778 -0.16128954 -0.0904377
000370 a1 a4 97 3d 1f 59 2f 3b 64 53 00 be f0 00 f0 bd
       0.07404447 0.0026756001 -0.12531811 -0.11718929
000380 34 03 37 3e 2a 2d 33 3d e6 67 8e 3c b3 48 47 3e
       0.17872316 0.043744244 0.017383527 0.19461326
000390 fd d8 36 3e 86 be 02 3e 7e d7 3a be c8 f5 15 3e
       0.17856212 0.12767991 -0.18246266 0.1464454
0003a0 12 a0 cd bd 20 fe 5d 3e 96 db 51 bd 85 1d 29 3d
       -0.100402966 0.21678972 -0.051234804 0.041287918
0003b0 e2 6c 27 bc ab 44 a5 bd 99 c0 a6 bc f7 a6 5f be
       -0.010218831 -0.08069738 -0.02035551 -0.21841036
0003c0 b2 f1 04 3d 48 e4 a0 3c 3f 93 5a be df 31 79 be
       0.03245706 0.019640103 -0.21345232 -0.2433543
0003d0 45 6a c9 bb 18 15 67 be 17 86 90 bd 09 da cd 3d
       -0.0061467015 -0.2256664 -0.070568256 0.100513525
0003e0 da b8 d7 3c 7e 16 bf 3c 4a a5 0b be 76 00 39 3e
       0.026333261 0.023326155 -0.13637272 0.18066582
0003f0 bd 1a 08 be 21 d6 9f 3d b8 89 2d 3e 43 99 14 3e
       -0.1329145 0.07804514 0.16947067 0.1451159

linear2.weight f4 [4, 256]
000000 55 61 e8 bb c4 1e c0 3c a2 9a bd 3c 5a 50 9a 3d
       -0.007091681 0.02345217 0.023145024 0.07534857
000010 06 13 05 3d 7f 15 d4 3c ca d3 5b bd 6b 17 b4 bc
       0.032488845 0.025889156 -0.053668775 -0.021983823
000020 cf d6 94 3b 01 2e f2 3c 03 64 4f 3b 3b 3b 14 bb
       0.0045422087 0.029562952 0.0031645305 -0.0022618312
000030 d3 51 47 bc 53 f8 3c 3c b8 d9 2b 3d 4d 21 c8 ba
       -0.0121655045 0.0115338145 0.04195568 -0.0015268713
000040 21 42 69 3d ca 80 17 bc 17 e6 00 3d e3 b5 14 3d
       0.05694783 -0.009247014 0.03146943 0.036306273
000050 d3 ad 62 bb c5 e8 4e bd 0f fe 97 3c 2b 8c e6 3c
       -0.003458847 -0.050514955 0.018553762 0.02814301
000060 62 9d c8 3c 95 84 c0 3a d7 a0 7a ba f9 9c 4a bc
       0.024489108 0.001468795 -0.000956071 -0.012366527
000070 53 fe 69 bc 37 dc 00 3c 67 82 a9 3c c4 97 fc bc
       -0.014281827 0.007865003 0.020692063 -0.030834086
000080 93 79 3e bd 1c cd f4 3c f4 9d 69 bc 07 54 32 3d
       -0.04650266 0.02988296 -0.01425885 0.043537166
000090 94 e5 ec 3c 29 64 4e 3d ce 83 e5 bc 34 46 84 3b
       0.028918065 0.05038849 -0.028016951 0.004036689
0000a0 84 9a 36 bd f9 54 2b 3d 1a 85 3b 3b d4 02 01 bd
       -0.04458095 0.041829083 0.002861327 -0.031496838
0000b0 33 a8 15 3d 1e aa 5c 3d 55 7c 02 bd 2a ac 6a bc
       0.03653736 0.053873174 -0.031856854 -0.014323274
0000c0 83 1b 14 bd 82 75 06 bd 99 11 a9 bb 5b 47 5b bd
       -0.03615905 -0.032826908 -0.0051595685 -0.053534847
0000d0 8c ef 51 bd 87 5b 16 3c 98 2c 49 bd 2f a9 0c 3d
       -0.05125384 0.009177095 -0.049114794 0.034341034
0000e0 5e d5 c2 3c 90 e0 6e bc 2e 00 92 bb 78 ad e9 3c
       0.023783382 -0.014579907 -0.004455588 0.0285251
0000f0 90 42 98 bc 80 ef 4a bd b6 1c 45 bc f1 73 8c bc
       -0.018586427 -0.04954481 -0.012030771 -0.017145129
000100 84 c8 a2 bc fc 2a 96 3a 7c d5 07 3b a6 5c 56 3a
       -0.019871004 0.0011456902 0.0020726612 0.0008177258
000110 b4 08 03 3d 73 82 17 bd ab 65 76 3d 6f 67 be 3b
       0.03199072 -0.03698964 0.060155552 0.00581067
000120 e6 a3 88 bc b6 27 13 3d 3c c8 27 3c ec 3a a0 bc
       -0.016679715 0.035926543 0.010240611 -0.019559346
000130 0a 96 00 3d 74 51 5d 3a ce 56 90 bc 73 d1 c7 3c
       0.03139309 0.00084426184 -0.017619517 0.024391865
000140 2e e4 06 bd 13 e3 8d bc e7 f8 c0 3c 62 1a 30 3c
       -0.032932453 -0.017320191 0.023556186 0.010748478
000150 7f f8 03 3d b9 45 32 3b b9 a9 bd bc f9 67 fe bc
       0.032219406 0.0027202202 -0.02315222 -0.031055437
000160 f6 c5 2e bc 1d 40 08 3d 53 a0 b2 bb e5 8d 3b 3d
       -0.010667315 0.03326427 -0.005451241 0.045789618
000170 af 7d ce bc c6 e0 3e bd c2 90 28 3d 06 c2 56 bc
       -0.025206415 -0.04660108 0.041153677 -0.013107782
000180 9e 49 0d bd 10 69 ca 3b 96 f1 39 bd 63 fe c6 bc
       -0.034494035 0.006177075 -0.04539641 -0.024291223
000190 b1 fc a1 bb d3 28 e2 bc f7 14 43 bd 4e ab d6 3c
       -0.0049434532 -0.027607357 -0.047627416 0.026204731
0001a0 b1 ee 07 bc d9 45 fd bc 20 aa bc 3c a9 3b ef bb
       -0.008296655 -0.030917095 0.02303034 -0.007300813
0001b0 87 4b b6 3c a5 81 89 3d 23 5d ad 3c 18 95 44 3c
       0.022252811 0.06714181 0.021162575 0.011998437
0001c0 45 2b f1 3a 2a 0a 91 bb ef fe 32 3d 20 50 00 bd
       0.0018399736 -0.0044262605 0.043700155 -0.031326413
0001d0 af af d5 bc 0c 48 ba bc 89 33 3b 3d 72 3c 51 bd
       -0.026084749 -0.022739433 0.045703445 -0.051083036
0001e0 a5 03 e3 bc 16 46 12 3d 4f 76 30 3d fc 37 18 bc
       -0.027711699 0.03571137 0.043081578 -0.009290691
0001f0 a4 94 ad 3c 97 37 07 3d a5 21 49 3d 38 29 07 bd
       0.021189041 0.033012 0.04910435 -0.032998294
000200 f1 52 87 bc 39 e7 33 bd cb 2d 87 3d 4a 39 31 3c
       -0.016519042 -0.043921683 0.06600531 0.010816881
000210 e5 0f e8 bc bc 57 a7 3c 72 f1 20 3c 6e 36 c0 3b
       -0.028327892 0.020427577 0.00982319 0.0058658635
000220 6d ca 64 3c 20 7f a5 bc cc 99 41 3c c2 df 31 bd
       0.013964278 -0.02020222 0.011816453 -0.043426283
000230 f2 a7 80 bc 14 6c 84 bd e7 b6 65 3c fa 9f d0 bb
       -0.015705083 -0.06465927 0.014020658 -0.006366727
000240 10 6f ef 3c 28 b0 29 bd 42 a8 93 3d 61 23 0c 3d
       0.029227763 -0.04142776 0.07209827 0.034213427
000250 51 a8 1c bd 5c 2a 30 bc 09 c9 10 bd bf 2f 41 3d
       -0.038246457 -0.010752287 -0.035347972 0.047164675
000260 56 34 80 bc 90 c9 b2 3c d1 56 50 3d e3 69 1d bd
       -0.015649956 0.021824628 0.050864045 -0.03843106
000270 eb 87 7e 3c 0e c1 2c 3d f4 8c 02 3c d4 12 04 bc
       0.015535335 0.0421763 0.007968176 -0.00806113
000280 7c bc 43 bc 61 f8 4f bc 09 a1 47 3d 98 f0 34 3d
       -0.011946794 -0.0126934955 0.04873756 0.04417476
000290 0b 64 a4 3c 61 4a 63 bc 07 e0 1a 3c ec 2d 33 3d
       0.020067235 -0.013872714 0.009452826 0.043744966
0002a0 ec 30 0d bd 31 7e 00 3d 6a 4d 68 3d 77 23 e8 bc
       -0.034470484 0.031370346 0.056714453 -0.028337223
0002b0 14 e3 02 bd f9 3b 9b bc 94 f3 0e 3d 18 d4 98 bd
       -0.03195484 -0.018949496 0.034900263 -0.07462329
0002c0 85 15 84 bb 69 0c aa 3c ee f3 8e 3d 6d 6b a2 3b
       -0.0040308856 0.02075787 0.0698012 0.004956654
0002d0 7e f3 4e 3a 21 d1 37 3d 37 f3 79 bc 82 a4 77 bd
       0.00078945595 0.044877175 -0.015255741 -0.06045962
0002e0 44 33 12 3d b5 60 d8 3c 4b 5d b7 bc a8 ff 94 3c
       0.035693422 0.026413301 -0.022383353 0.018188313
0002f0 e7 96 73 3d ee 96 1d bd db 86 49 bc df f4 60 bc
       0.059470084 -0.038474016 -0.012300218 -0.013730257
000300 9b 66 04 3d b6 8a 6a bb 08 77 75 bd 20 86 e3 3b
       0.032324415 -0.0035788245 -0.05992797 0.006943479
000310 47 ef c6 bb 37 ac 94 bc 89 f6 37 3d 5e fd ba bb
       -0.0060710046 -0.018148525 0.04491285 -0.0057064733
000320 61 23 1c bd 72 e5 41 3c a5 d9 5d 3d 9a 3d da 3b
       -0.038119677 0.011834489 0.05416264 0.0066601755
000330 62 e4 14 3d 88 50 8a bd 75 97 dd bc c1 4c 7c 3d
       0.036350615 -0.06753641 -0.02704976 0.061596636
000340 56 c3 25 bb 63 7e 35 3d fe 4c 73 bd 54 77 2d 3c
       -0.0025293431 0.044309985 -0.059399597 0.010587532
000350 8c 6a 97 3b dd d4 30 bc cc eb 04 bd 55 ea 2e bd
       0.0046208557 -0.010792938 -0.032451436 -0.042703945
000360 2a 8a 2c bd b4 48 8e bc 3e 34 5f bd e8 19 64 bc
       -0.04212395 -0.017368652 -0.05449318 -0.013922192
000370 70 6d 3a 3d 6f 01 83 3d 63 87 34 bc 39 1b 33 bc
       0.045514524 0.06396758 -0.011018607 -0.010931783
000380 4e 8c 15 bd 76 c4 99 bc 13 40 4f 3d 27 55 0b bd
       -0.036510758 -0.018770438 0.050598215 -0.034016754
000390 2f 4c 07 3d 06 5f 01 bd 29 fd 74 3d f2 d6 52 3d
       0.03303164 -0.031584762 0.059811745 0.05147452
0003a0 27 d3 bb bc cc f2 5b bd 0b b9 1b bc 59 ea 3f bd
       -0.022927834 -0.053698346 -0.009504567 -0.04685435
0003b0 97 0f e7 bc a5 e3 25 bd 41 84 34 bd 5a 2b cf 3c
       -0.028205676 -0.040500302 -0.04407144 0.025289226
0003c0 71 94 1e 3d 75 63 48 3c eb 72 93 3c 1c 4a 01 bd
       0.038715784 0.012230744 0.017999133 -0.031564817
0003d0 9a 90 5d bd cb e0 f6 3c d5 fc 44 3c 3b c7 54 bc
       -0.05409298 0.030136487 0.0120231705 -0.012986953
0003e0 0f be 0a 3c 2f 97 83 bc be 4e 14 3d 6b 8f 2c bd
       0.008468165 -0.0160633 0.036207907 -0.04212896
0003f0 c7 4f 46 3b 31 6f 46 bd 38 d9 4c bd e1 9e 7d 3d
       0.0030259953 -0.048445884 -0.050011843 0.061919097

linear2.bias f4 [4]
000000 d3 5a 36 3d 15 6d 0e 3b 01 1c 46 3d 04 9f ad 3c
       0.04452021 0.0021732498 0.04836655 0.021193989
