model/model0.pth (torch, 27464 bytes, 4 tensors)

linear1.weight f4 [256, 20]
000000 9a fd 0f 3e c0 58 34 3e c0 74 56 3e 98 a2 9f bc
       0.14061585 0.1761198 0.20942974 -0.01948671
000010 d0 ec be 3c 30 41 ad bd 78 96 88 bc 23 b7 1e be
       0.02330628 -0.08459699 -0.016673312 -0.15499549
000020 30 63 fb 3c c2 33 9d bd 86 05 36 3e 58 a5 c1 3d
       0.030686945 -0.07675888 0.17775545 0.09455365
000030 14 c8 0d be da 81 45 3e ca 27 a3 bd 48 71 a1 3d
       -0.13845855 0.19287816 -0.079665735 0.07882935
000040 ba 90 48 3e 40 46 2a bb 1f ea 5d be 60 d9 87 3b
       0.19586459 -0.0025981814 -0.21671341 0.004145786
000050 80 85 5e 3c 98 5f 45 bd 30 bc 95 3d 80 9c ae 3d
       0.013581634 -0.04818687 0.073112845 0.08525944
000060 58 d6 37 3e 6c dd 08 bd 18 84 e4 3d b6 a3 2d be
       0.1795286 -0.03341429 0.111580074 -0.16956982
000070 a0 57 b9 3c 04 dd 47 bd 99 7d ce bd b8 cd be 3c
       0.02262479 -0.04879476 -0.100825496 0.023291454
000080 88 92 ac 3d 28 bc 95 3d 2c 8a 9e bd 92 ec 37 3e
       0.08426386 0.073112786 -0.07741198 0.17961338
000090 58 d4 3b 3d 8f e9 03 be 89 99 61 be 30 fa fc bc
       0.045856804 -0.12882064 -0.22031225 -0.030881017
0000a0 ba 80 02 3e 08 d4 4e 3e 90 63 b4 3d e0 b4 68 3c
       0.12744418 0.20198071 0.088080525 0.01420328
0000b0 20 b7 72 3d b4 f1 4f 3e aa 75 94 bd ca fe b1 bd
       0.059256673 0.20307046 -0.07249005 -0.08691175
0000c0 b2 ed c1 bd 16 b8 0a 3e 34 31 b7 3d 34 3f bc 3d
       -0.09469165 0.13546786 0.089449316 0.091917425
0000d0 a0 9b f6 bc 2c d8 92 3d d0 34 57 3d 08 9d ba 3c
       -0.030103505 0.07170138 0.0525406 0.022779956
0000e0 a0 e2 26 bd a6 16 3e 3e 38 5f f6 bd 6a d8 4c 3e
       -0.04074347 0.18563327 -0.1202988 0.2000443
0000f0 64 ce b6 3d 28 07 20 3e a9 41 57 be f0 f4 60 be
       0.08926085 0.1562773 -0.21021141 -0.21968436
000100 06 c1 5a be 7a 2e 56 3e 64 f8 dd 3d c0 da bf bb
       -0.21362695 0.20916167 0.108383924 -0.0058549345
000110 b0 c1 4a 3e 2a 9a 1b be 13 8b 46 be 62 a3 54 3e
       0.19800448 -0.15195528 -0.1938899 0.2076545
000120 84 30 b8 3d 7c 4a 57 3e 10 2b b5 bc f0 5c ff 3c
       0.089936286 0.21024507 -0.02211526 0.031172246
000130 14 26 9c 3d 30 d0 fb 3d b8 3b 5b 3d cb b6 3f be
       0.0762445 0.12295568 0.05352375 -0.18722074
000140 68 f4 9c 3c 96 68 9d bd 43 b5 d7 bd a4 79 61 bd
       0.01915951 -0.07685964 -0.1053262 -0.055047646
000150 24 71 18 bd 9a dc 2a 3e e2 e1 a1 bd e0 07 28 3e
       -0.037217274 0.16685715 -0.07904412 0.16409254
000160 9a 8b f4 bd 18 be 43 3d 90 65 31 be 54 8d be 3d
       -0.119406894 0.04778871 -0.173239 0.093043
000170 b3 06 1b be 60 83 00 3e 3a 88 39 be 2a 15 2a 3e
       -0.15139274 0.12550116 -0.18118373 0.16609636
000180 0c be 4f be dc d0 0c 3e 44 8a b3 3d fc 95 b3 3d
       -0.20287341 0.13751549 0.087666065 0.087688416
000190 ff ac 06 be 84 89 90 3d ab d5 cc bd 28 2e 52 3d
       -0.1315193 0.07057479 -0.100016914 0.05131355
0001a0 d2 fb a0 bd 50 b0 ec 3c 71 cb 3b be 00 23 cb bc
       -0.07860531 0.028892666 -0.18339325 -0.024796963
0001b0 b0 83 2d 3e 80 50 0a 3c d4 a3 d9 3d fa 2e 37 be
       0.16944766 0.008442044 0.10626951 -0.17889014
0001c0 34 10 89 3d c0 55 8e 3d 7f 24 1c be 5f 7e 36 be
       0.066925436 0.06949949 -0.15248297 -0.17821644
0001d0 90 97 30 be c1 80 ec bd 58 11 47 be 1a ac 0e be
       -0.17245317 -0.11547995 -0.1944021 -0.13932839
0001e0 a0 77 63 3e 80 9d 82 bb 4a cf 15 3e 50 1a 54 3e
       0.22213602 -0.0039860606 0.14629856 0.20713162
0001f0 96 0c 54 3e 10 7e ee 3d ab 00 dd bd b9 36 54 be
       0.20707926 0.11645138 -0.10791143 -0.20724
000200 98 07 ad 3d e0 8c 12 bc e0 7d 4c 3d ce 83 ef bd
       0.08448714 -0.00894472 0.04992473 -0.116950616
000210 b4 19 62 be c0 35 2c bb 12 ca 43 3e f0 ac 8a 3c
       -0.22080117 -0.0026277155 0.19120052 0.016928166
000220 98 76 ba 3d 62 91 90 bd 3a e7 37 3e 70 48 66 3d
       0.09104651 -0.070589796 0.179593 0.056221426
000230 00 35 ee 3a 50 d7 b7 3d 14 92 e8 bd 1e 2b e0 bd
       0.0018173754 0.089766145 -0.11355987 -0.10945724
000240 76 fd 43 be 1a f7 c0 bd 78 d8 16 bd ea 9c 8e bd
       -0.19139656 -0.09422131 -0.036827534 -0.06963523
000250 85 38 58 be c1 d8 2d be 58 9e 0c be 10 2c 12 3c
       -0.2111531 -0.16977216 -0.13732278 0.008921638
000260 46 9f ad bd 80 3a 92 ba ec 43 fc 3d e8 cd 0b 3d
       -0.084776446 -0.001115635 0.123176426 0.034131914
000270 de e2 0a 3e 88 7c 37 3e de 02 58 3e 1a 4e 14 3e
       0.13563105 0.17918599 0.21094844 0.14482918
000280 52 f2 5e be d8 cf ae 3d 68 a7 cc 3c 2e 4e c8 bd
       -0.21772125 0.08535737 0.02498217 -0.097805366
000290 3c 23 31 3e 28 bb 35 3d ac b7 93 3d 02 c7 51 be
       0.17298597 0.04436794 0.07212767 -0.20486072
0002a0 f8 1b 5d 3e 2c 5f 41 3e 40 22 7f bb 60 eb fc bc
       0.215927 0.18883961 -0.0038930327 -0.030873954
0002b0 b4 ea c9 3d 54 24 05 bd d4 c2 9e 3d ba e1 3f be
       0.09859219 -0.03250535 0.07752004 -0.18738452
0002c0 d8 9d 7b 3d f0 72 d1 3c c3 21 59 be 1c f1 ec 3d
       0.06142983 0.025567502 -0.21204285 0.115694255
0002d0 fc ed 9e 3d 70 1b b4 3d 1f 3e 43 be 78 d0 bd 3d
       0.07760236 0.08794296 -0.19066666 0.09268278
0002e0 8e 94 12 be 66 f2 43 be b0 32 26 be f9 43 e3 bd
       -0.14314482 -0.19135436 -0.16230273 -0.11096949
0002f0 b0 a2 42 be 05 4f 48 be 40 31 0b bd 2c e4 5e 3e
       -0.19007373 -0.19561394 -0.033982515 0.21766728
000300 44 88 9a bd 0b f7 cd bd ca b3 56 be 98 db 32 3e
       -0.07545522 -0.10056885 -0.20967022 0.17466581
000310 08 57 35 3e 60 84 b8 3d 46 4b 21 be 46 8b b3 bd
       0.17708981 0.090096235 -0.15751371 -0.08766799
000320 78 07 48 3d f8 29 da 3d 4f f9 61 be 0a a3 0c be
       0.048835248 0.10652536 -0.2206776 -0.1373407
000330 42 de 12 3e 2c 89 7a bd 69 f1 f4 bd 8a 4c 1b be
       0.14342597 -0.061165974 -0.11960108 -0.15165916
000340 30 5e f6 3d 02 9d 2d 3e 0a c3 1d 3e 14 a8 af 3d
       0.120296836 0.16954425 0.15406433 0.0857698
000350 64 52 3d be a4 eb b9 bd 22 d1 2a be 44 0e 60 3e
       -0.18488461 -0.09078148 -0.1668134 0.21880442
000360 38 b3 52 3d 04 93 31 bd 00 42 0c 3e 22 a2 c1 bd
       0.051440448 -0.043353096 0.13697052 -0.094547525
000370 90 c5 52 bc c6 32 22 3e 48 dc b0 bd f0 00 d7 bd
       -0.012864485 0.15839681 -0.08635765 -0.10498226
000380 9f 63 2e be 6e 70 1a be 30 e0 f1 3c c4 66 b3 3d
       -0.1703019 -0.15081951 0.029525846 0.08759835
000390 e6 f5 2a 3e 5a e2 35 3e 4c 8a 42 bd 20 2e ed bc
       0.16695365 0.17762128 -0.04749517 -0.028952658
0003a0 e6 a0 32 3e 62 29 2b 3e ff 1f d9 bd 40 4a ed bd
       0.1744419 0.16715005 -0.10601806 -0.11586428
0003b0 86 b2 b0 bd bc b3 2b 3e 4f 11 4e be 08 6d 14 3e
       -0.08627801 0.16767782 -0.2012379 0.14494717
0003c0 ce ff 19 be 5b d5 56 be 40 10 45 3e 80 6a f4 3c
       -0.15038988 -0.20979826 0.1924448 0.02983594
0003d0 54 bc 3d 3e 30 1c 5c be 8e 88 a2 bd a8 2a fe 3d
       0.18528873 -0.21495128 -0.07936202 0.1241048
0003e0 86 a5 bd bd be e5 13 3e 20 04 46 3e e0 f7 30 bd
       -0.09260087 0.14443108 0.19337511 -0.043205142
0003f0 ac 5f 47 3e 7e f7 53 3e f4 2a 31 3e 60 c1 cc 3d
       0.1947009 0.2069988 0.17301542 0.09997821

linear1.bias f4 [256]
000000 50 9a 38 3d a8 4f c7 3d 98 9a ae 3c 6a 13 c9 bd
       0.04506904 0.0973199 0.02131395 -0.09818156
000010 b0 c2 23 3c 80 81 66 3b 3e 5c 03 3e a2 81 41 3e
       0.009995148 0.0035172403 0.12828156 0.18897107
000020 e6 b3 2c be fc d0 46 bd d8 4b b9 bc 7d b9 3b be
       -0.16865501 -0.048539147 -0.022619173 -0.18332477
000030 40 00 95 3c 50 cf f8 3c 90 4c 81 3c 3b a0 f6 bd
       0.018188596 0.030372292 0.015783578 -0.1204228
000040 8a 89 a4 bd 48 f4 26 3d e4 c0 10 3e 20 68 40 be
       -0.08034046 0.04076031 0.14136082 -0.1878972
000050 11 2f 23 be d0 8a cf 3d 50 77 16 3c 88 57 85 bc
       -0.15935923 0.10133898 0.00918372 -0.01627709
000060 00 00 14 39 98 61 40 3e c0 37 b8 bd 38 dd 9b 3d
       0.0001411438 0.18787229 -0.089950085 0.076105535
000070 00 d0 f9 3d da ea 80 bd 38 b4 f6 bc 3c ac f0 3d
       0.12197876 -0.062947944 -0.030115232 0.11751601
000080 b4 3c 4a be 16 0a f2 bd f4 84 46 be fe 3a ab bd
       -0.19749719 -0.1181833 -0.19386655 -0.08360861
000090 c0 d5 4d bc 18 93 c4 bc 76 3a 21 3e 00 68 e3 b8
       -0.012563169 -0.023995921 0.15744957 -0.00010843575
0000a0 18 93 61 3e c3 ad 60 be 68 6d 1a 3d 84 54 b9 bd
       0.22028768 -0.21941285 0.037701994 -0.09049323
0000b0 c4 37 38 bd e0 ca 8d bc cc a2 39 be e8 61 19 be
       -0.044975057 -0.017308652 -0.18128508 -0.14978755
0000c0 38 1b 1b be 90 25 60 be 58 81 db 3d 68 c9 bc 3d
       -0.15147102 -0.21889329 0.1071803 0.09218103
0000d0 02 ac 59 3e 98 53 27 3e 00 8b 9c ba 98 22 d1 bd
       0.21257022 0.16340482 -0.0011943281 -0.10211676
0000e0 28 5f 5d 3d d0 bf 0d 3c d0 a2 8f bd ee 22 04 3e
       0.054045826 0.008651689 -0.07013476 0.1290395
0000f0 f0 40 47 3d 7b 40 64 be 4d e0 38 be 30 55 c2 3d
       0.048645914 -0.22290222 -0.18054314 0.094889045
000100 d0 ce 6f 3c 46 23 a1 bd fe 14 53 be 50 3e 22 3d
       0.01463671 -0.07868056 -0.20613477 0.039610207
000110 d0 3d 69 bd 3c 49 3c be 80 d8 78 3d 14 6a e5 3d
       -0.056943715 -0.18387312 0.060753345 0.112018734
000120 35 2a 4e be 58 32 9d 3c 24 d1 84 3d b7 4e 4d be
       -0.20133288 0.019189045 0.06485203 -0.20049559
000130 1c 94 11 3e 84 49 35 be 1e 08 1d 3e 4c 54 ba 3d
       0.14216655 -0.17703825 0.15335128 0.090981096
000140 70 23 87 3c 4c 7f 16 be 50 43 3e be d0 05 78 3d
       0.01649639 -0.14696997 -0.18580365 0.06055242
000150 76 37 5a be 32 ae 59 3e 58 b3 5e 3e 18 db 0e 3e
       -0.21310219 0.21257856 0.21748102 0.13950765
000160 66 cb 0e 3e 14 d7 13 bd 6a ae a2 bd 5b 5d 02 be
       0.13944778 -0.036093786 -0.07943423 -0.12730925
000170 70 8b c9 3c 58 bd 40 3e 46 88 5e be 20 2e 23 3d
       0.024602622 0.18822229 -0.21731672 0.03983891
000180 1c 9e 36 be 78 65 33 be d8 a8 b3 3c 9b 36 2d be
       -0.17833751 -0.17519176 0.021931097 -0.16915362
000190 8b 42 52 be 5a f2 1c 3e 7e 16 bc bd 14 9f 23 be
       -0.20533197 0.15326825 -0.091839775 -0.15978652
0001a0 cc b5 8e 3d ec 82 3d 3e 2c 19 9d 3d c8 25 d7 3d
       0.06968269 0.18506974 0.07670817 0.10505253
0001b0 40 eb 29 3e 92 77 31 be 04 4f 13 3e 23 26 3a be
       0.16593647 -0.17330769 0.14385611 -0.1817861
0001c0 8c b2 62 bd 56 26 11 3e ae 59 08 3e 08 e8 d7 bc
       -0.055346057 0.1417478 0.1331546 -0.026355758
0001d0 74 46 ba 3d f0 b2 48 3e e3 38 5e be a6 fe 35 3e
       0.09095469 0.19599509 -0.21701388 0.17772922
0001e0 e0 b4 0f 3d ce 2e 13 be 28 f7 02 3d a0 60 c4 3c
       0.035084605 -0.14373323 0.031973988 0.023971856
0001f0 b4 f9 7c bd ba 72 99 bd 38 c5 64 bd cc d4 49 bd
       -0.061761573 -0.074925855 -0.055852145 -0.049275205
000200 58 4f be 3d a0 ce 08 3d 68 88 68 bd cc 1f 62 bd
       0.09292477 0.033400178 -0.056770712 -0.055206105
000210 20 77 e3 3d 20 b5 ba bc 70 23 8e bc 08 db 0e 3d
       0.11106706 -0.022791445 -0.017350882 0.034876853
000220 e1 df d1 bd 1f 9f 0f be ce 23 c8 bd e0 c4 81 3b
       -0.1024778 -0.14025544 -0.09772454 0.003960237
000230 0a 9e 61 be 00 8d cd 3b f4 67 95 3d 80 28 e5 ba
       -0.22032943 0.006272912 0.07295218 -0.0017483383
000240 f0 38 43 3e 80 78 9d 3c 88 95 5b be 1b 38 03 be
       0.19064689 0.019222498 -0.2144376 -0.12814371
000250 5c a7 c7 3d 70 8b 31 bc 54 ef 94 3d 78 1b 4a 3d
       0.09748718 -0.010836467 0.07272211 0.049342602
000260 e0 9b 82 bc b0 9e 0c 3d ca f0 1c be 2c 65 9e 3d
       -0.015943468 0.034331024 -0.15326229 0.07734141
000270 50 bb db 3d c7 56 d1 bd 4a 39 05 be 38 62 a0 bc
       0.107290864 -0.102216296 -0.13010135 -0.019578084
000280 40 91 57 3b 04 dd 5d bd 2e 23 0e 3e e0 d7 da 3c
       0.0032892972 -0.054165855 0.13880607 0.026714265
000290 2a 07 52 be 90 35 4e 3e fe d2 e9 bd 86 9c 4a 3e
       -0.20510545 0.2013762 -0.11417197 0.19786271
0002a0 f4 a0 b8 bd 9c c0 0a be 6c ec 79 bd 7d f9 3b be
       -0.09015074 -0.13550037 -0.061016485 -0.18356891
0002b0 b0 2c 0e bc ba 63 38 3e 68 24 f7 3d 98 71 20 3d
       -0.0086776465 0.18006793 0.12067491 0.03917083
0002c0 1a 38 2f 3e 12 bc b3 bd 70 7a 64 3e e0 b4 b2 3c
       0.17111245 -0.08776106 0.22312331 0.021814764
0002d0 7d 7e dc bd 08 c5 5a 3d f8 64 a0 bd 3e b8 21 3e
       -0.10766313 0.05341056 -0.07831758 0.15792939
0002e0 02 26 30 be f6 31 3d be 48 34 93 bc e8 88 e5 3d
       -0.17201999 -0.1847609 -0.017969266 0.112077534
0002f0 48 0a b4 3d d4 b0 bd bd 18 39 e7 bd 86 eb 20 3e
       0.087910235 -0.09262243 -0.11290187 0.15714845
000300 aa 92 46 3e 19 ac 0c be 28 43 ba bc 08 b9 14 be
       0.19391885 -0.13737525 -0.0227371 -0.14523709
000310 ac d4 a5 3d 54 9d 27 bd 84 4b 37 be d4 e2 1d be
       0.080972046 -0.040921524 -0.178999 -0.1541856
000320 28 91 50 3e 88 c5 e4 bc 34 3b fd 3d 06 4f 1c 3e
       0.20367873 -0.027926221 0.12364808 0.1526452
000330 58 b2 ab bd b3 60 00 be 2d 58 d8 bd cc f7 97 bd
       -0.08383626 -0.12536888 -0.10563693 -0.074203104
000340 9a c3 56 be d8 53 47 3e a6 ba 64 be f4 99 1a 3e
       -0.20973054 0.19465578 -0.22336826 0.15097791
000350 4e 85 b3 bd 72 9b 01 be ec 5b f9 3d f4 4b 3e be
       -0.0876566 -0.12656954 0.12175736 -0.18583661
000360 38 b9 70 3d 7c d1 71 bd 68 8f 2f bd 84 9e be 3d
       0.05877039 -0.05903767 -0.042861372 0.09307578
000370 e8 cf 30 be a8 85 26 3e 8f 3f 59 be 3c 88 5d 3e
       -0.1726681 0.16261923 -0.21215652 0.21634
000380 80 24 3f 3d 58 b3 1b bd a2 68 8a bd ca a6 b4 bd
       0.04666567 -0.038012832 -0.067582384 -0.08820875
000390 b8 af ad 3c 8e ee 28 be 84 c4 c3 bd fa 70 be bd
       0.021201953 -0.16497251 -0.09558967 -0.09298892
0003a0 2e 9f a6 bd 38 0b 20 bd 1e 1b 2f be 30 5a 50 be
       -0.0813583 -0.0390732 -0.17100188 -0.20346904
0003b0 f4 d3 b7 bd 18 55 fc bc da 4c 3d 3e 80 ca 45 bc
       -0.08975974 -0.030802295 0.18486348 -0.012072206
0003c0 8b 4e ed bd 5c a1 eb 3d 18 b6 e9 bd c8 19 40 3e
       -0.115872465 0.11505386 -0.11411685 0.18759835
0003d0 fa e3 22 3e a8 61 03 be ce 72 54 3e ed f7 2d be
       0.15907279 -0.12830222 0.2074692 -0.16989107
0003e0 24 8a fe 3d 20 19 7e bc 7c d5 55 bd e8 23 a6 3d
       0.12428692 -0.01550892 -0.052205548 0.08112317
0003f0 72 ec 2d 3e cc 7e a6 bd e8 76 ff bc 30 da ee 3d
       0.16984728 -0.08129653 -0.031184629 0.1166271

linear2.weight f4 [4, 256]
000000 44 00 5d bd 98 bc d1 3c f0 a7 de bc d0 da 1a bc
       -0.05395533 0.025602624 -0.027179688 -0.009451583
000010 ae 27 3a 3d c8 96 00 bd e0 d1 29 bb c0 bd cb bb
       0.045447998 -0.031393796 -0.0025912449 -0.0062176883
000020 e0 14 9f bb 98 f9 48 3c 6e 93 2f 3d 08 21 7d bd
       -0.0048547834 0.012266539 0.04286521 -0.06179908
000030 dc 07 67 bd 70 c9 99 bb d0 83 e4 3b dc 15 8e bc
       -0.05640398 -0.0046932027 0.006973721 -0.017344408
000040 c0 7f 40 3b 9a 83 58 bd 48 00 f5 bc f0 18 d2 3c
       0.002937302 -0.05285988 -0.02990736 0.025646657
000050 ba ee 23 3d ba a3 3d 3d 80 e7 20 bb 8e 1d 06 bd
       0.04002259 0.04629872 -0.0024552047 -0.03274303
000060 48 d9 9b bc 66 96 52 3d 2a 6d 53 3d 70 f5 dd 3b
       -0.019024506 0.051412962 0.05161778 0.006773643
000070 e6 5f 4b bd 98 c3 49 3c 04 64 48 bd 48 1b 35 3c
       -0.049652003 0.0123147 -0.048923507 0.011053868
000080 f8 8f bb bc 80 aa 71 3a 28 78 2d bd 08 85 39 3d
       -0.022895798 0.0009218827 -0.042350918 0.045292884
000090 00 9d 0a 3a b4 b0 27 bd dc 3b 93 bc 48 0c 89 3c
       0.0005287677 -0.04094 -0.01797288 0.016729489
0000a0 c0 16 c0 3a a4 b9 d2 bc 9c 33 6e bd 20 6e 8f bc
       0.0014655218 -0.025723286 -0.058154687 -0.017508566
0000b0 98 0c 12 bd 90 7e c2 3c 84 02 8c 3c 30 d5 55 3d
       -0.03565654 0.02374199 0.017091043 0.052205265
0000c0 06 e1 58 3d 6c 35 8d 3c 34 f0 1c 3d 70 ba 1f bd
       0.052948974 0.017237388 0.038315013 -0.03899616
0000d0 80 cb aa bb e4 a0 4b 3d 62 06 35 3d c8 a7 ae 3c
       -0.0052122474 0.049713984 0.04419554 0.021320239
0000e0 10 a6 2d bd 4c fc d5 3c f8 e4 01 3d ba 88 7d bd
       -0.042394698 0.026121281 0.031712502 -0.06189797
0000f0 00 13 0f bb e8 b5 5d bc 10 14 ac bc 1c 8c e5 3c
       -0.0021831393 -0.013532139 -0.02100566 0.02802091
000100 4c 37 f2 3c 00 fa 59 3a 9e ba 4e 3d 96 78 27 bd
       0.029567383 0.0008315146 0.05047094 -0.040886484
000110 a8 ed 51 bc 2c c2 3e 3d 6c 36 8f 3c 4a 58 5a 3d
       -0.012813009 0.046571895 0.017482005 0.053306855
000120 30 ed c9 bb 00 2b dd ba b6 56 00 bd b8 04 20 3c
       -0.006162308 -0.0016873777 -0.031332694 0.00976675
000130 98 ea 5b 3c 30 ef 4c bd a8 4d 8c 3c 5c 74 db bc
       0.013422631 -0.050032794 0.017126873 -0.026788883
000140 cc b2 88 3c fc fc cd bc 7e 51 6e bd 38 c1 5f 3c
       0.01668682 -0.025145046 -0.058183186 0.013656907
000150 5e b3 58 bd f4 58 c4 3c 80 d0 28 3a 30 e1 00 bc
       -0.052905433 0.023968197 0.00064397603 -0.007866189
000160 d2 ed 6b bd 60 ee dd bb 8c 3b a5 3c 8a 1b 5e 3d
       -0.05759985 -0.0067728013 0.020169996 0.054225482
000170 b4 43 6c 3d c4 39 f6 3c 82 e9 71 3d 5a f7 0f bd
       0.057681754 0.030056842 0.05906058 -0.035148002
000180 60 56 e7 bb 40 2d 61 3b 62 14 39 3d 80 5f ba 3a
       -0.0070598572 0.0034359246 0.045185454 0.0014219135
000190 a4 0f 51 3d 12 52 28 bd 20 39 34 3c 28 2f b7 bc
       0.051040307 -0.041093893 0.010999948 -0.022361353
0001a0 52 93 2d bd 78 08 7c bc 3c da 2b bd fa 0c 50 3d
       -0.042376824 -0.0153828785 -0.04195617 0.050793625
0001b0 c6 76 24 bd 06 b7 1e 3d d0 4d 68 3d 18 e0 0a bd
       -0.040152334 0.038748764 0.056714833 -0.03390512
0001c0 6e ab 04 bd 7c fc 62 3d 00 6e 18 39 00 10 3b bb
       -0.03239005 0.05541657 0.00014536828 -0.0028543472
0001d0 94 fc 3f bd 74 91 92 bc 78 9f 2f 3c 94 d2 51 bd
       -0.046871737 -0.017891623 0.010719173 -0.051226214
0001e0 18 95 34 bd 24 79 63 bd 18 4a 61 bd b0 21 b6 bb
       -0.0440875 -0.05553545 -0.055002302 -0.005558215
0001f0 f8 12 ff 3c 08 c7 62 3d 38 98 45 3d c0 14 69 bd
       0.031136975 0.055365592 0.04824087 -0.056904554
000200 a0 d0 8d bc c8 4f 3b bd d4 94 3c bd b4 a0 6c bd
       -0.017311394 -0.045730382 -0.04604037 -0.057770446
000210 24 f0 c8 3c 70 51 05 3c 26 b5 18 3d a8 33 aa 3c
       0.02452857 0.008137092 0.03728213 0.020776585
000220 d8 1a 2f 3c 64 f0 52 bd 02 a4 33 3d 00 b6 44 3a
       0.010687552 -0.051498786 0.043857582 0.0007503927
000230 ec f8 2d bd a8 70 92 bc d4 e2 a5 bc 1c dd fb 3c
       -0.04247372 -0.017875984 -0.020249762 0.030745082
000240 ea 5e 6a 3d 58 86 b8 3c 3c 21 ef 3c 44 b3 11 3d
       0.057219423 0.022524998 0.029190652 0.03557135
000250 ba 71 40 3d 58 1c 57 bc 46 be 51 3d 60 1d 28 3c
       0.046983458 -0.013129316 0.05120685 0.01026091
000260 6c e8 54 3d e0 53 75 bc b8 f1 47 bc 40 16 3b bc
       0.051979467 -0.014973611 -0.012203626 -0.011418879
000270 00 e5 ab 3a 12 65 06 3d e8 b9 24 3d 40 a4 30 3b
       0.0013114512 0.032811232 0.040216357 0.002695337
000280 70 67 02 3c e8 84 ac bc 88 39 96 bc 60 de de 3c
       0.007959232 -0.021059468 -0.01833798 0.027205646
000290 60 6d f0 3b 0c 2f c1 3c e0 fd 6f 3d fc 4c ec 3c
       0.0073372573 0.023582004 0.058591723 0.028845303
0002a0 12 e4 5a bd d2 3a 65 3d 60 ca b2 3c 9e 79 63 bd
       -0.05344016 0.0559643 0.021825016 -0.055535905
0002b0 66 46 65 3d 14 c8 11 3d 58 43 1d bc 04 0f 18 3d
       0.05597534 0.0355912 -0.0095985755 0.037123695
0002c0 fa 7c 46 bd 0c 93 46 3d c0 1f b5 3b 10 76 5b 3d
       -0.04845903 0.04848008 0.0055274665 0.05357939
0002d0 bc 6b 6e bd 8a 72 63 bd 98 be 30 3d a4 4f 4e 3d
       -0.058208212 -0.055529155 0.043150514 0.05036892
0002e0 40 e8 fe 3a dc d2 5d bd 50 15 5a 3c ec b5 d3 3c
       0.0019447878 -0.05415617 0.013310745 0.025843583
0002f0 40 76 c5 bc 96 12 7e bd 60 2e a1 3b 9a 71 6f bd
       -0.024104238 -0.062029444 0.0049188584 -0.05845795
000300 e0 28 42 bb be c7 22 3d b0 b9 da 3c 14 3d 76 3d
       -0.0029626414 0.03974127 0.02669987 0.060116842
000310 88 b0 b6 3c f0 35 f2 3c 30 f4 8f bb 7a 9b 51 bd
       0.022300974 0.029566735 -0.004393123 -0.051173665
000320 fe fc 05 bd f0 8a 66 bd 10 bc 3e 3d 50 0b 53 3c
       -0.032711975 -0.056284845 0.04656607 0.012881115
000330 18 a1 ab bc dc da 56 3d 10 30 b1 3c 50 e7 c4 bc
       -0.020950839 0.052454814 0.021629363 -0.02403608
000340 00 86 50 b9 16 dd 11 bd a8 ed 03 3d c0 34 7f 3b
       -0.00019886345 -0.035611235 0.03220907 0.0038941354
000350 e8 5f 7c 3d b6 f8 35 3d 50 67 bd bc c2 29 4f bd
       0.0616149 0.044426642 -0.023120552 -0.050576933
000360 9a 4b 3c 3d 5c ab 75 3d 54 4d 3f bd a2 90 50 bd
       0.045970537 0.059977874 -0.046704605 -0.050919183
000370 58 28 52 bd 98 d7 4d bd c0 20 0b bb e6 6a 42 3d
       -0.051308006 -0.050254434 -0.0021229237 0.047465228
000380 ac 25 af 3c 08 75 0b bc b6 8e 72 3d 12 6c 69 3d
       0.021380268 -0.008511789 0.05921813 0.05698783
000390 e0 38 8c 3c 70 43 07 bc e2 1f 41 bd 98 ce 54 3d
       0.017116964 -0.008255824 -0.047149546 0.051954836
0003a0 6c 5b cf 3c 3a 5b 6c bd 10 39 fa 3c fc 2b 99 3c
       0.025312148 -0.057704188 0.030544788 0.018697731
0003b0 c0 3e 7b bc a6 20 5d 3d 38 9d 84 3c 98 22 38 3c
       -0.015334785 0.053986214 0.016188249 0.011238717
0003c0 f0 bf 72 3d c4 a6 7b bd 60 ff 8e 3c b8 c7 2a bc
       0.059265077 -0.061438337 0.017455757 -0.010423593
0003d0 e0 05 b4 3c 1e 21 06 bd 94 39 9d 3c 88 54 22 bc
       0.021975458 -0.032746427 0.019192494 -0.009907849
0003e0 18 4d a4 3c 94 bc 9d bc 98 30 c0 3c 20 71 22 3d
       0.020056292 -0.01925496 0.023460671 0.039658666
0003f0 c0 05 d3 ba 98 8b 0b bd 88 26 02 3d 70 14 bc 3b
       -0.0016099736 -0.034068674 0.031775028 0.005739741

linear2.bias f4 [4]
000000 20 b1 e9 3b 28 d0 72 3d f0 57 9f bb 50 4c bf bb
       0.0071317106 0.059280545 -0.004862778 -0.0058379546
